// -----// IR Dump After CanonicalizeModule (canonicalize-module) //----- //
module attributes {hivm.module_core_type = #hivm.module_core_type<MIX>, memref.memref_as_ptr} {
  func.func @main(%arg0: i64 {hacc.arg_type = #hacc.arg_type<ffts_base_address>}, %arg1: memref<?xi8> {hacc.arg_type = #hacc.arg_type<sync_block_lock>}, %arg2: memref<?xi8> {hacc.arg_type = #hacc.arg_type<workspace>}, %arg3: memref<?xf16>, %arg4: memref<?xf16>, %arg5: memref<?xi32>, %arg6: memref<?xf16>, %arg7: memref<?xf32>, %arg8: i32, %arg9: i32, %arg10: i32, %arg11: i32, %arg12: i32, %arg13: i32) attributes {SyncBlockLockArgIdx = 0 : i64, WorkspaceArgIdx = 1 : i64, hacc.entry, hacc.function_kind = #hacc.function_kind<DEVICE>, hivm.func_core_type = #hivm.func_core_type<MIX>, hivm.part_of_mix, mix_mode = "mix"} {
    %c16 = arith.constant 16 : index
    %cst = arith.constant 0.000000e+00 : f32
    %c4096 = arith.constant 4096 : index
    %c20480 = arith.constant 20480 : index
    %c64 = arith.constant 64 : index
    %c256 = arith.constant 256 : index
    %c5120 = arith.constant 5120 : index
    %c80 = arith.constant 80 : index
    %c1 = arith.constant 1 : index
    %false = arith.constant false
    %true = arith.constant true
    %c4_i32 = arith.constant 4 : i32
    %cst_0 = arith.constant 0.111803398 : f32
    %cst_1 = arith.constant 0xFF800000 : f32
    %c0_i32 = arith.constant 0 : i32
    %c64_i32 = arith.constant 64 : i32
    %c1_i32 = arith.constant 1 : i32
    hivm.hir.set_ffts_base_addr %arg0
    %reinterpret_cast = memref.reinterpret_cast %arg3 to offset: [0], sizes: [1, 1, 64, 80], strides: [%c5120, %c5120, %c80, %c1] : memref<?xf16> to memref<1x1x64x80xf16, strided<[5120, 5120, 80, 1]>>
    %reinterpret_cast_2 = memref.reinterpret_cast %arg5 to offset: [0], sizes: [1, 1, 1, 256], strides: [%c256, %c256, %c256, %c1] : memref<?xi32> to memref<1x1x1x256xi32, strided<[256, 256, 256, 1]>>
    %reinterpret_cast_3 = memref.reinterpret_cast %arg7 to offset: [0], sizes: [1, 1, 64, 1], strides: [%c64, %c64, %c1, %c1] : memref<?xf32> to memref<1x1x64x1xf32, strided<[64, 64, 1, 1]>>
    %reinterpret_cast_4 = memref.reinterpret_cast %arg4 to offset: [0], sizes: [1, 256, 1, 80], strides: [%c20480, %c80, %c80, %c1] : memref<?xf16> to memref<1x256x1x80xf16, strided<[20480, 80, 80, 1]>>
    %reinterpret_cast_5 = memref.reinterpret_cast %arg6 to offset: [0], sizes: [1, 1, 64, 64], strides: [%c4096, %c4096, %c64, %c1] : memref<?xf16> to memref<1x1x64x64xf16, strided<[4096, 4096, 64, 1]>>
    %0 = tensor.empty() : tensor<64x1xf32>
    %1 = tensor.empty() : tensor<64x1xf32>
    %2 = tensor.empty() : tensor<64x64xf32>
    %3 = tensor.empty() : tensor<64x64xf32>
    %4 = tensor.empty() : tensor<64x64xf16>
    %5 = tensor.empty() : tensor<64x1xf32>
    %6 = tensor.empty() : tensor<64x64xf32>
    %7 = hivm.hir.vbrc ins(%cst : f32) outs(%2 : tensor<64x64xf32>) -> tensor<64x64xf32>
    %8 = hivm.hir.vbrc ins(%cst : f32) outs(%1 : tensor<64x1xf32>) -> tensor<64x1xf32>
    %9 = hivm.hir.vbrc ins(%cst_1 : f32) outs(%0 : tensor<64x1xf32>) -> tensor<64x1xf32>
    %10 = hivm.hir.vbrc ins(%cst_0 : f32) outs(%3 : tensor<64x64xf32>) -> tensor<64x64xf32>
    %subview = memref.subview %reinterpret_cast[0, 0, 0, 0] [1, 1, 64, 64] [1, 1, 1, 1] : memref<1x1x64x80xf16, strided<[5120, 5120, 80, 1]>> to memref<64x64xf16, strided<[80, 1]>>
    %alloc = memref.alloc() : memref<64x64xf16>
    memref.copy %subview, %alloc : memref<64x64xf16, strided<[80, 1]>> to memref<64x64xf16>
    %11 = bufferization.to_tensor %alloc restrict : memref<64x64xf16>
    %subview_6 = memref.subview %reinterpret_cast[0, 0, 0, 64] [1, 1, 64, 16] [1, 1, 1, 1] : memref<1x1x64x80xf16, strided<[5120, 5120, 80, 1]>> to memref<64x16xf16, strided<[80, 1], offset: 64>>
    %alloc_7 = memref.alloc() : memref<64x16xf16>
    memref.copy %subview_6, %alloc_7 : memref<64x16xf16, strided<[80, 1], offset: 64>> to memref<64x16xf16>
    %12 = bufferization.to_tensor %alloc_7 restrict : memref<64x16xf16>
    %13:4 = scf.for %arg14 = %c0_i32 to %c4_i32 step %c1_i32 iter_args(%arg15 = %6, %arg16 = %9, %arg17 = %8, %arg18 = %7) -> (tensor<64x64xf32>, tensor<64x1xf32>, tensor<64x1xf32>, tensor<64x64xf32>)  : i32 {
      %18 = tensor.empty() : tensor<64x64xf16>
      %19 = tensor.empty() : tensor<64x16xf16>
      %20 = tensor.empty() : tensor<64x64xf16>
      %21 = tensor.empty() : tensor<64x1xf32>
      %22 = tensor.empty() : tensor<64x1xf32>
      %23 = tensor.empty() : tensor<64x1xf32>
      %24 = tensor.empty() : tensor<64x64xf32>
      %25 = tensor.empty() : tensor<64x1xf32>
      %26 = tensor.empty() : tensor<64x1xf32>
      %27 = arith.muli %arg14, %c64_i32 : i32
      %28 = arith.index_cast %27 : i32 to index
      %subview_10 = memref.subview %reinterpret_cast_2[0, 0, 0, %28] [1, 1, 1, 64] [1, 1, 1, 1] : memref<1x1x1x256xi32, strided<[256, 256, 256, 1]>> to memref<64xi32, strided<[1], offset: ?>>
      %alloc_11 = memref.alloc() : memref<64xi32>
      memref.copy %subview_10, %alloc_11 : memref<64xi32, strided<[1], offset: ?>> to memref<64xi32>
      %29 = bufferization.to_tensor %alloc_11 restrict : memref<64xi32>
      %30:2 = scf.for %arg19 = %c0_i32 to %c64_i32 step %c1_i32 iter_args(%arg20 = %18, %arg21 = %19) -> (tensor<64x64xf16>, tensor<64x16xf16>)  : i32 {
        %48 = arith.index_cast %arg19 : i32 to index
        %extracted = tensor.extract %29[%48] : tensor<64xi32>
        %49 = arith.index_cast %extracted : i32 to index
        %subview_12 = memref.subview %reinterpret_cast_4[0, %49, 0, 0] [1, 1, 1, 64] [1, 1, 1, 1] : memref<1x256x1x80xf16, strided<[20480, 80, 80, 1]>> to memref<64xf16, strided<[1], offset: ?>>
        %alloc_13 = memref.alloc() : memref<64xf16>
        memref.copy %subview_12, %alloc_13 : memref<64xf16, strided<[1], offset: ?>> to memref<64xf16>
        %50 = bufferization.to_tensor %alloc_13 restrict : memref<64xf16>
        %inserted_slice = tensor.insert_slice %50 into %arg20[%48, 0] [1, 64] [1, 1] : tensor<64xf16> into tensor<64x64xf16>
        %subview_14 = memref.subview %reinterpret_cast_4[0, %49, 0, 64] [1, 1, 1, 16] [1, 1, 1, 1] : memref<1x256x1x80xf16, strided<[20480, 80, 80, 1]>> to memref<16xf16, strided<[1], offset: ?>>
        %alloc_15 = memref.alloc() : memref<16xf16>
        memref.copy %subview_14, %alloc_15 : memref<16xf16, strided<[1], offset: ?>> to memref<16xf16>
        %51 = bufferization.to_tensor %alloc_15 restrict : memref<16xf16>
        %inserted_slice_16 = tensor.insert_slice %51 into %arg21[%48, 0] [1, 16] [1, 1] : tensor<16xf16> into tensor<64x16xf16>
        scf.yield %inserted_slice, %inserted_slice_16 : tensor<64x64xf16>, tensor<64x16xf16>
      }
      %31 = hivm.hir.mmadL1 {b_transpose} ins(%11, %30#0, %true, %c64, %c64, %c64 : tensor<64x64xf16>, tensor<64x64xf16>, i1, index, index, index) outs(%arg15 : tensor<64x64xf32>) -> tensor<64x64xf32>
      %32 = hivm.hir.mmadL1 {b_transpose} ins(%12, %30#1, %false, %c64, %c64, %c16 : tensor<64x16xf16>, tensor<64x16xf16>, i1, index, index, index) outs(%31 : tensor<64x64xf32>) -> tensor<64x64xf32>
      %33 = hivm.hir.vmul ins(%32, %10 : tensor<64x64xf32>, tensor<64x64xf32>) outs(%32 : tensor<64x64xf32>) -> tensor<64x64xf32>
      %34 = hivm.hir.vreduce <max> ins(%33 : tensor<64x64xf32>) outs(%22 : tensor<64x1xf32>) reduce_dims = [1] -> tensor<64x1xf32>
      %35 = hivm.hir.vmax ins(%arg16, %34 : tensor<64x1xf32>, tensor<64x1xf32>) outs(%26 : tensor<64x1xf32>) -> tensor<64x1xf32>
      %36 = hivm.hir.vsub ins(%arg16, %35 : tensor<64x1xf32>, tensor<64x1xf32>) outs(%25 : tensor<64x1xf32>) -> tensor<64x1xf32>
      %37 = hivm.hir.vexp ins(%36 : tensor<64x1xf32>) outs(%21 : tensor<64x1xf32>) -> tensor<64x1xf32>
      %38 = hivm.hir.vsub ins(%33, %35 : tensor<64x64xf32>, tensor<64x1xf32>) outs(%24 : tensor<64x64xf32>) broadcast = [1] -> tensor<64x64xf32>
      %39 = hivm.hir.vexp ins(%38 : tensor<64x64xf32>) outs(%33 : tensor<64x64xf32>) -> tensor<64x64xf32>
      %40 = hivm.hir.vreduce <sum> ins(%39 : tensor<64x64xf32>) outs(%23 : tensor<64x1xf32>) reduce_dims = [1] -> tensor<64x1xf32>
      %41 = hivm.hir.vmul ins(%arg17, %37 : tensor<64x1xf32>, tensor<64x1xf32>) outs(%arg17 : tensor<64x1xf32>) -> tensor<64x1xf32>
      %42 = hivm.hir.vadd ins(%41, %40 : tensor<64x1xf32>, tensor<64x1xf32>) outs(%41 : tensor<64x1xf32>) -> tensor<64x1xf32>
      %43 = hivm.hir.vmul ins(%arg18, %37 : tensor<64x64xf32>, tensor<64x1xf32>) outs(%arg18 : tensor<64x64xf32>) broadcast = [1] -> tensor<64x64xf32>
      %44 = hivm.hir.vcast ins(%39 : tensor<64x64xf32>) outs(%20 : tensor<64x64xf16>) -> tensor<64x64xf16>
      %45 = hivm.hir.vbrc ins(%cst : f32) outs(%36 : tensor<64x1xf32>) -> tensor<64x1xf32>
      %46 = hivm.hir.vadd ins(%45, %35 : tensor<64x1xf32>, tensor<64x1xf32>) outs(%arg16 : tensor<64x1xf32>) -> tensor<64x1xf32>
      %47 = hivm.hir.mmadL1 ins(%44, %30#0, %false, %c64, %c64, %c64 : tensor<64x64xf16>, tensor<64x64xf16>, i1, index, index, index) outs(%43 : tensor<64x64xf32>) -> tensor<64x64xf32>
      scf.yield %39, %46, %42, %47 : tensor<64x64xf32>, tensor<64x1xf32>, tensor<64x1xf32>, tensor<64x64xf32>
    }
    %14 = hivm.hir.vdiv ins(%13#3, %13#2 : tensor<64x64xf32>, tensor<64x1xf32>) outs(%13#3 : tensor<64x64xf32>) broadcast = [1] -> tensor<64x64xf32>
    %15 = hivm.hir.vcast ins(%14 : tensor<64x64xf32>) outs(%4 : tensor<64x64xf16>) -> tensor<64x64xf16>
    %subview_8 = memref.subview %reinterpret_cast_5[0, 0, 0, 0] [1, 1, 64, 64] [1, 1, 1, 1] : memref<1x1x64x64xf16, strided<[4096, 4096, 64, 1]>> to memref<64x64xf16, strided<[64, 1]>>
    bufferization.materialize_in_destination %15 in writable %subview_8 : (tensor<64x64xf16>, memref<64x64xf16, strided<[64, 1]>>) -> ()
    %16 = hivm.hir.vln ins(%13#2 : tensor<64x1xf32>) outs(%5 : tensor<64x1xf32>) -> tensor<64x1xf32>
    %17 = hivm.hir.vadd ins(%16, %13#1 : tensor<64x1xf32>, tensor<64x1xf32>) outs(%16 : tensor<64x1xf32>) -> tensor<64x1xf32>
    %subview_9 = memref.subview %reinterpret_cast_3[0, 0, 0, 0] [1, 1, 64, 1] [1, 1, 1, 1] : memref<1x1x64x1xf32, strided<[64, 64, 1, 1]>> to memref<64x1xf32, strided<[1, 1]>>
    bufferization.materialize_in_destination %17 in writable %subview_9 : (tensor<64x1xf32>, memref<64x1xf32, strided<[1, 1]>>) -> ()
    return
  }
}


// -----// IR Dump After AppendTargetDeviceSpec (hacc-append-device-spec) //----- //
module attributes {dlti.target_system_spec = #dlti.target_system_spec<"NPU" : #hacc.target_device_spec<#dlti.dl_entry<"AI_CORE_COUNT", 24 : i32>, #dlti.dl_entry<"CUBE_CORE_COUNT", 24 : i32>, #dlti.dl_entry<"VECTOR_CORE_COUNT", 48 : i32>, #dlti.dl_entry<"UB_SIZE", 1572864 : i32>, #dlti.dl_entry<"L1_SIZE", 4194304 : i32>, #dlti.dl_entry<"L0A_SIZE", 524288 : i32>, #dlti.dl_entry<"L0B_SIZE", 524288 : i32>, #dlti.dl_entry<"L0C_SIZE", 1048576 : i32>, #dlti.dl_entry<"UB_ALIGN_SIZE", 256 : i32>, #dlti.dl_entry<"L1_ALIGN_SIZE", 256 : i32>, #dlti.dl_entry<"L0C_ALIGN_SIZE", 4096 : i32>>>, hivm.module_core_type = #hivm.module_core_type<MIX>, memref.memref_as_ptr} {
  func.func @main(%arg0: i64 {hacc.arg_type = #hacc.arg_type<ffts_base_address>}, %arg1: memref<?xi8> {hacc.arg_type = #hacc.arg_type<sync_block_lock>}, %arg2: memref<?xi8> {hacc.arg_type = #hacc.arg_type<workspace>}, %arg3: memref<?xf16>, %arg4: memref<?xf16>, %arg5: memref<?xi32>, %arg6: memref<?xf16>, %arg7: memref<?xf32>, %arg8: i32, %arg9: i32, %arg10: i32, %arg11: i32, %arg12: i32, %arg13: i32) attributes {SyncBlockLockArgIdx = 0 : i64, WorkspaceArgIdx = 1 : i64, hacc.entry, hacc.function_kind = #hacc.function_kind<DEVICE>, hivm.func_core_type = #hivm.func_core_type<MIX>, hivm.part_of_mix, mix_mode = "mix"} {
    %c16 = arith.constant 16 : index
    %cst = arith.constant 0.000000e+00 : f32
    %c4096 = arith.constant 4096 : index
    %c20480 = arith.constant 20480 : index
    %c64 = arith.constant 64 : index
    %c256 = arith.constant 256 : index
    %c5120 = arith.constant 5120 : index
    %c80 = arith.constant 80 : index
    %c1 = arith.constant 1 : index
    %false = arith.constant false
    %true = arith.constant true
    %c4_i32 = arith.constant 4 : i32
    %cst_0 = arith.constant 0.111803398 : f32
    %cst_1 = arith.constant 0xFF800000 : f32
    %c0_i32 = arith.constant 0 : i32
    %c64_i32 = arith.constant 64 : i32
    %c1_i32 = arith.constant 1 : i32
    hivm.hir.set_ffts_base_addr %arg0
    %reinterpret_cast = memref.reinterpret_cast %arg3 to offset: [0], sizes: [1, 1, 64, 80], strides: [%c5120, %c5120, %c80, %c1] : memref<?xf16> to memref<1x1x64x80xf16, strided<[5120, 5120, 80, 1]>>
    %reinterpret_cast_2 = memref.reinterpret_cast %arg5 to offset: [0], sizes: [1, 1, 1, 256], strides: [%c256, %c256, %c256, %c1] : memref<?xi32> to memref<1x1x1x256xi32, strided<[256, 256, 256, 1]>>
    %reinterpret_cast_3 = memref.reinterpret_cast %arg7 to offset: [0], sizes: [1, 1, 64, 1], strides: [%c64, %c64, %c1, %c1] : memref<?xf32> to memref<1x1x64x1xf32, strided<[64, 64, 1, 1]>>
    %reinterpret_cast_4 = memref.reinterpret_cast %arg4 to offset: [0], sizes: [1, 256, 1, 80], strides: [%c20480, %c80, %c80, %c1] : memref<?xf16> to memref<1x256x1x80xf16, strided<[20480, 80, 80, 1]>>
    %reinterpret_cast_5 = memref.reinterpret_cast %arg6 to offset: [0], sizes: [1, 1, 64, 64], strides: [%c4096, %c4096, %c64, %c1] : memref<?xf16> to memref<1x1x64x64xf16, strided<[4096, 4096, 64, 1]>>
    %0 = tensor.empty() : tensor<64x1xf32>
    %1 = tensor.empty() : tensor<64x1xf32>
    %2 = tensor.empty() : tensor<64x64xf32>
    %3 = tensor.empty() : tensor<64x64xf32>
    %4 = tensor.empty() : tensor<64x64xf16>
    %5 = tensor.empty() : tensor<64x1xf32>
    %6 = tensor.empty() : tensor<64x64xf32>
    %7 = hivm.hir.vbrc ins(%cst : f32) outs(%2 : tensor<64x64xf32>) -> tensor<64x64xf32>
    %8 = hivm.hir.vbrc ins(%cst : f32) outs(%1 : tensor<64x1xf32>) -> tensor<64x1xf32>
    %9 = hivm.hir.vbrc ins(%cst_1 : f32) outs(%0 : tensor<64x1xf32>) -> tensor<64x1xf32>
    %10 = hivm.hir.vbrc ins(%cst_0 : f32) outs(%3 : tensor<64x64xf32>) -> tensor<64x64xf32>
    %subview = memref.subview %reinterpret_cast[0, 0, 0, 0] [1, 1, 64, 64] [1, 1, 1, 1] : memref<1x1x64x80xf16, strided<[5120, 5120, 80, 1]>> to memref<64x64xf16, strided<[80, 1]>>
    %alloc = memref.alloc() : memref<64x64xf16>
    memref.copy %subview, %alloc : memref<64x64xf16, strided<[80, 1]>> to memref<64x64xf16>
    %11 = bufferization.to_tensor %alloc restrict : memref<64x64xf16>
    %subview_6 = memref.subview %reinterpret_cast[0, 0, 0, 64] [1, 1, 64, 16] [1, 1, 1, 1] : memref<1x1x64x80xf16, strided<[5120, 5120, 80, 1]>> to memref<64x16xf16, strided<[80, 1], offset: 64>>
    %alloc_7 = memref.alloc() : memref<64x16xf16>
    memref.copy %subview_6, %alloc_7 : memref<64x16xf16, strided<[80, 1], offset: 64>> to memref<64x16xf16>
    %12 = bufferization.to_tensor %alloc_7 restrict : memref<64x16xf16>
    %13:4 = scf.for %arg14 = %c0_i32 to %c4_i32 step %c1_i32 iter_args(%arg15 = %6, %arg16 = %9, %arg17 = %8, %arg18 = %7) -> (tensor<64x64xf32>, tensor<64x1xf32>, tensor<64x1xf32>, tensor<64x64xf32>)  : i32 {
      %18 = tensor.empty() : tensor<64x64xf16>
      %19 = tensor.empty() : tensor<64x16xf16>
      %20 = tensor.empty() : tensor<64x64xf16>
      %21 = tensor.empty() : tensor<64x1xf32>
      %22 = tensor.empty() : tensor<64x1xf32>
      %23 = tensor.empty() : tensor<64x1xf32>
      %24 = tensor.empty() : tensor<64x64xf32>
      %25 = tensor.empty() : tensor<64x1xf32>
      %26 = tensor.empty() : tensor<64x1xf32>
      %27 = arith.muli %arg14, %c64_i32 : i32
      %28 = arith.index_cast %27 : i32 to index
      %subview_10 = memref.subview %reinterpret_cast_2[0, 0, 0, %28] [1, 1, 1, 64] [1, 1, 1, 1] : memref<1x1x1x256xi32, strided<[256, 256, 256, 1]>> to memref<64xi32, strided<[1], offset: ?>>
      %alloc_11 = memref.alloc() : memref<64xi32>
      memref.copy %subview_10, %alloc_11 : memref<64xi32, strided<[1], offset: ?>> to memref<64xi32>
      %29 = bufferization.to_tensor %alloc_11 restrict : memref<64xi32>
      %30:2 = scf.for %arg19 = %c0_i32 to %c64_i32 step %c1_i32 iter_args(%arg20 = %18, %arg21 = %19) -> (tensor<64x64xf16>, tensor<64x16xf16>)  : i32 {
        %48 = arith.index_cast %arg19 : i32 to index
        %extracted = tensor.extract %29[%48] : tensor<64xi32>
        %49 = arith.index_cast %extracted : i32 to index
        %subview_12 = memref.subview %reinterpret_cast_4[0, %49, 0, 0] [1, 1, 1, 64] [1, 1, 1, 1] : memref<1x256x1x80xf16, strided<[20480, 80, 80, 1]>> to memref<64xf16, strided<[1], offset: ?>>
        %alloc_13 = memref.alloc() : memref<64xf16>
        memref.copy %subview_12, %alloc_13 : memref<64xf16, strided<[1], offset: ?>> to memref<64xf16>
        %50 = bufferization.to_tensor %alloc_13 restrict : memref<64xf16>
        %inserted_slice = tensor.insert_slice %50 into %arg20[%48, 0] [1, 64] [1, 1] : tensor<64xf16> into tensor<64x64xf16>
        %subview_14 = memref.subview %reinterpret_cast_4[0, %49, 0, 64] [1, 1, 1, 16] [1, 1, 1, 1] : memref<1x256x1x80xf16, strided<[20480, 80, 80, 1]>> to memref<16xf16, strided<[1], offset: ?>>
        %alloc_15 = memref.alloc() : memref<16xf16>
        memref.copy %subview_14, %alloc_15 : memref<16xf16, strided<[1], offset: ?>> to memref<16xf16>
        %51 = bufferization.to_tensor %alloc_15 restrict : memref<16xf16>
        %inserted_slice_16 = tensor.insert_slice %51 into %arg21[%48, 0] [1, 16] [1, 1] : tensor<16xf16> into tensor<64x16xf16>
        scf.yield %inserted_slice, %inserted_slice_16 : tensor<64x64xf16>, tensor<64x16xf16>
      }
      %31 = hivm.hir.mmadL1 {b_transpose} ins(%11, %30#0, %true, %c64, %c64, %c64 : tensor<64x64xf16>, tensor<64x64xf16>, i1, index, index, index) outs(%arg15 : tensor<64x64xf32>) -> tensor<64x64xf32>
      %32 = hivm.hir.mmadL1 {b_transpose} ins(%12, %30#1, %false, %c64, %c64, %c16 : tensor<64x16xf16>, tensor<64x16xf16>, i1, index, index, index) outs(%31 : tensor<64x64xf32>) -> tensor<64x64xf32>
      %33 = hivm.hir.vmul ins(%32, %10 : tensor<64x64xf32>, tensor<64x64xf32>) outs(%32 : tensor<64x64xf32>) -> tensor<64x64xf32>
      %34 = hivm.hir.vreduce <max> ins(%33 : tensor<64x64xf32>) outs(%22 : tensor<64x1xf32>) reduce_dims = [1] -> tensor<64x1xf32>
      %35 = hivm.hir.vmax ins(%arg16, %34 : tensor<64x1xf32>, tensor<64x1xf32>) outs(%26 : tensor<64x1xf32>) -> tensor<64x1xf32>
      %36 = hivm.hir.vsub ins(%arg16, %35 : tensor<64x1xf32>, tensor<64x1xf32>) outs(%25 : tensor<64x1xf32>) -> tensor<64x1xf32>
      %37 = hivm.hir.vexp ins(%36 : tensor<64x1xf32>) outs(%21 : tensor<64x1xf32>) -> tensor<64x1xf32>
      %38 = hivm.hir.vsub ins(%33, %35 : tensor<64x64xf32>, tensor<64x1xf32>) outs(%24 : tensor<64x64xf32>) broadcast = [1] -> tensor<64x64xf32>
      %39 = hivm.hir.vexp ins(%38 : tensor<64x64xf32>) outs(%33 : tensor<64x64xf32>) -> tensor<64x64xf32>
      %40 = hivm.hir.vreduce <sum> ins(%39 : tensor<64x64xf32>) outs(%23 : tensor<64x1xf32>) reduce_dims = [1] -> tensor<64x1xf32>
      %41 = hivm.hir.vmul ins(%arg17, %37 : tensor<64x1xf32>, tensor<64x1xf32>) outs(%arg17 : tensor<64x1xf32>) -> tensor<64x1xf32>
      %42 = hivm.hir.vadd ins(%41, %40 : tensor<64x1xf32>, tensor<64x1xf32>) outs(%41 : tensor<64x1xf32>) -> tensor<64x1xf32>
      %43 = hivm.hir.vmul ins(%arg18, %37 : tensor<64x64xf32>, tensor<64x1xf32>) outs(%arg18 : tensor<64x64xf32>) broadcast = [1] -> tensor<64x64xf32>
      %44 = hivm.hir.vcast ins(%39 : tensor<64x64xf32>) outs(%20 : tensor<64x64xf16>) -> tensor<64x64xf16>
      %45 = hivm.hir.vbrc ins(%cst : f32) outs(%36 : tensor<64x1xf32>) -> tensor<64x1xf32>
      %46 = hivm.hir.vadd ins(%45, %35 : tensor<64x1xf32>, tensor<64x1xf32>) outs(%arg16 : tensor<64x1xf32>) -> tensor<64x1xf32>
      %47 = hivm.hir.mmadL1 ins(%44, %30#0, %false, %c64, %c64, %c64 : tensor<64x64xf16>, tensor<64x64xf16>, i1, index, index, index) outs(%43 : tensor<64x64xf32>) -> tensor<64x64xf32>
      scf.yield %39, %46, %42, %47 : tensor<64x64xf32>, tensor<64x1xf32>, tensor<64x1xf32>, tensor<64x64xf32>
    }
    %14 = hivm.hir.vdiv ins(%13#3, %13#2 : tensor<64x64xf32>, tensor<64x1xf32>) outs(%13#3 : tensor<64x64xf32>) broadcast = [1] -> tensor<64x64xf32>
    %15 = hivm.hir.vcast ins(%14 : tensor<64x64xf32>) outs(%4 : tensor<64x64xf16>) -> tensor<64x64xf16>
    %subview_8 = memref.subview %reinterpret_cast_5[0, 0, 0, 0] [1, 1, 64, 64] [1, 1, 1, 1] : memref<1x1x64x64xf16, strided<[4096, 4096, 64, 1]>> to memref<64x64xf16, strided<[64, 1]>>
    bufferization.materialize_in_destination %15 in writable %subview_8 : (tensor<64x64xf16>, memref<64x64xf16, strided<[64, 1]>>) -> ()
    %16 = hivm.hir.vln ins(%13#2 : tensor<64x1xf32>) outs(%5 : tensor<64x1xf32>) -> tensor<64x1xf32>
    %17 = hivm.hir.vadd ins(%16, %13#1 : tensor<64x1xf32>, tensor<64x1xf32>) outs(%16 : tensor<64x1xf32>) -> tensor<64x1xf32>
    %subview_9 = memref.subview %reinterpret_cast_3[0, 0, 0, 0] [1, 1, 64, 1] [1, 1, 1, 1] : memref<1x1x64x1xf32, strided<[64, 64, 1, 1]>> to memref<64x1xf32, strided<[1, 1]>>
    bufferization.materialize_in_destination %17 in writable %subview_9 : (tensor<64x1xf32>, memref<64x1xf32, strided<[1, 1]>>) -> ()
    return
  }
}


// -----// IR Dump After ConvertHFusionToHIVM (convert-hfusion-to-hivm) //----- //
module attributes {dlti.target_system_spec = #dlti.target_system_spec<"NPU" : #hacc.target_device_spec<#dlti.dl_entry<"AI_CORE_COUNT", 24 : i32>, #dlti.dl_entry<"CUBE_CORE_COUNT", 24 : i32>, #dlti.dl_entry<"VECTOR_CORE_COUNT", 48 : i32>, #dlti.dl_entry<"UB_SIZE", 1572864 : i32>, #dlti.dl_entry<"L1_SIZE", 4194304 : i32>, #dlti.dl_entry<"L0A_SIZE", 524288 : i32>, #dlti.dl_entry<"L0B_SIZE", 524288 : i32>, #dlti.dl_entry<"L0C_SIZE", 1048576 : i32>, #dlti.dl_entry<"UB_ALIGN_SIZE", 256 : i32>, #dlti.dl_entry<"L1_ALIGN_SIZE", 256 : i32>, #dlti.dl_entry<"L0C_ALIGN_SIZE", 4096 : i32>>>, hivm.module_core_type = #hivm.module_core_type<MIX>, memref.memref_as_ptr} {
  func.func @main(%arg0: i64 {hacc.arg_type = #hacc.arg_type<ffts_base_address>}, %arg1: memref<?xi8> {hacc.arg_type = #hacc.arg_type<sync_block_lock>}, %arg2: memref<?xi8> {hacc.arg_type = #hacc.arg_type<workspace>}, %arg3: memref<?xf16>, %arg4: memref<?xf16>, %arg5: memref<?xi32>, %arg6: memref<?xf16>, %arg7: memref<?xf32>, %arg8: i32, %arg9: i32, %arg10: i32, %arg11: i32, %arg12: i32, %arg13: i32) attributes {SyncBlockLockArgIdx = 0 : i64, WorkspaceArgIdx = 1 : i64, hacc.entry, hacc.function_kind = #hacc.function_kind<DEVICE>, hivm.func_core_type = #hivm.func_core_type<MIX>, hivm.part_of_mix, mix_mode = "mix"} {
    %c16 = arith.constant 16 : index
    %cst = arith.constant 0.000000e+00 : f32
    %c4096 = arith.constant 4096 : index
    %c20480 = arith.constant 20480 : index
    %c64 = arith.constant 64 : index
    %c256 = arith.constant 256 : index
    %c5120 = arith.constant 5120 : index
    %c80 = arith.constant 80 : index
    %c1 = arith.constant 1 : index
    %false = arith.constant false
    %true = arith.constant true
    %c4_i32 = arith.constant 4 : i32
    %cst_0 = arith.constant 0.111803398 : f32
    %cst_1 = arith.constant 0xFF800000 : f32
    %c0_i32 = arith.constant 0 : i32
    %c64_i32 = arith.constant 64 : i32
    %c1_i32 = arith.constant 1 : i32
    hivm.hir.set_ffts_base_addr %arg0
    %reinterpret_cast = memref.reinterpret_cast %arg3 to offset: [0], sizes: [1, 1, 64, 80], strides: [%c5120, %c5120, %c80, %c1] : memref<?xf16> to memref<1x1x64x80xf16, strided<[5120, 5120, 80, 1]>>
    %reinterpret_cast_2 = memref.reinterpret_cast %arg5 to offset: [0], sizes: [1, 1, 1, 256], strides: [%c256, %c256, %c256, %c1] : memref<?xi32> to memref<1x1x1x256xi32, strided<[256, 256, 256, 1]>>
    %reinterpret_cast_3 = memref.reinterpret_cast %arg7 to offset: [0], sizes: [1, 1, 64, 1], strides: [%c64, %c64, %c1, %c1] : memref<?xf32> to memref<1x1x64x1xf32, strided<[64, 64, 1, 1]>>
    %reinterpret_cast_4 = memref.reinterpret_cast %arg4 to offset: [0], sizes: [1, 256, 1, 80], strides: [%c20480, %c80, %c80, %c1] : memref<?xf16> to memref<1x256x1x80xf16, strided<[20480, 80, 80, 1]>>
    %reinterpret_cast_5 = memref.reinterpret_cast %arg6 to offset: [0], sizes: [1, 1, 64, 64], strides: [%c4096, %c4096, %c64, %c1] : memref<?xf16> to memref<1x1x64x64xf16, strided<[4096, 4096, 64, 1]>>
    %0 = tensor.empty() : tensor<64x1xf32>
    %1 = tensor.empty() : tensor<64x1xf32>
    %2 = tensor.empty() : tensor<64x64xf32>
    %3 = tensor.empty() : tensor<64x64xf32>
    %4 = tensor.empty() : tensor<64x64xf16>
    %5 = tensor.empty() : tensor<64x1xf32>
    %6 = tensor.empty() : tensor<64x64xf32>
    %7 = hivm.hir.vbrc ins(%cst : f32) outs(%2 : tensor<64x64xf32>) -> tensor<64x64xf32>
    %8 = hivm.hir.vbrc ins(%cst : f32) outs(%1 : tensor<64x1xf32>) -> tensor<64x1xf32>
    %9 = hivm.hir.vbrc ins(%cst_1 : f32) outs(%0 : tensor<64x1xf32>) -> tensor<64x1xf32>
    %10 = hivm.hir.vbrc ins(%cst_0 : f32) outs(%3 : tensor<64x64xf32>) -> tensor<64x64xf32>
    %subview = memref.subview %reinterpret_cast[0, 0, 0, 0] [1, 1, 64, 64] [1, 1, 1, 1] : memref<1x1x64x80xf16, strided<[5120, 5120, 80, 1]>> to memref<64x64xf16, strided<[80, 1]>>
    %alloc = memref.alloc() : memref<64x64xf16>
    memref.copy %subview, %alloc : memref<64x64xf16, strided<[80, 1]>> to memref<64x64xf16>
    %11 = bufferization.to_tensor %alloc restrict : memref<64x64xf16>
    %subview_6 = memref.subview %reinterpret_cast[0, 0, 0, 64] [1, 1, 64, 16] [1, 1, 1, 1] : memref<1x1x64x80xf16, strided<[5120, 5120, 80, 1]>> to memref<64x16xf16, strided<[80, 1], offset: 64>>
    %alloc_7 = memref.alloc() : memref<64x16xf16>
    memref.copy %subview_6, %alloc_7 : memref<64x16xf16, strided<[80, 1], offset: 64>> to memref<64x16xf16>
    %12 = bufferization.to_tensor %alloc_7 restrict : memref<64x16xf16>
    %13:4 = scf.for %arg14 = %c0_i32 to %c4_i32 step %c1_i32 iter_args(%arg15 = %6, %arg16 = %9, %arg17 = %8, %arg18 = %7) -> (tensor<64x64xf32>, tensor<64x1xf32>, tensor<64x1xf32>, tensor<64x64xf32>)  : i32 {
      %18 = tensor.empty() : tensor<64x64xf16>
      %19 = tensor.empty() : tensor<64x16xf16>
      %20 = tensor.empty() : tensor<64x64xf16>
      %21 = tensor.empty() : tensor<64x1xf32>
      %22 = tensor.empty() : tensor<64x1xf32>
      %23 = tensor.empty() : tensor<64x1xf32>
      %24 = tensor.empty() : tensor<64x64xf32>
      %25 = tensor.empty() : tensor<64x1xf32>
      %26 = tensor.empty() : tensor<64x1xf32>
      %27 = arith.muli %arg14, %c64_i32 : i32
      %28 = arith.index_cast %27 : i32 to index
      %subview_10 = memref.subview %reinterpret_cast_2[0, 0, 0, %28] [1, 1, 1, 64] [1, 1, 1, 1] : memref<1x1x1x256xi32, strided<[256, 256, 256, 1]>> to memref<64xi32, strided<[1], offset: ?>>
      %alloc_11 = memref.alloc() : memref<64xi32>
      memref.copy %subview_10, %alloc_11 : memref<64xi32, strided<[1], offset: ?>> to memref<64xi32>
      %29 = bufferization.to_tensor %alloc_11 restrict : memref<64xi32>
      %30:2 = scf.for %arg19 = %c0_i32 to %c64_i32 step %c1_i32 iter_args(%arg20 = %18, %arg21 = %19) -> (tensor<64x64xf16>, tensor<64x16xf16>)  : i32 {
        %48 = arith.index_cast %arg19 : i32 to index
        %extracted = tensor.extract %29[%48] : tensor<64xi32>
        %49 = arith.index_cast %extracted : i32 to index
        %subview_12 = memref.subview %reinterpret_cast_4[0, %49, 0, 0] [1, 1, 1, 64] [1, 1, 1, 1] : memref<1x256x1x80xf16, strided<[20480, 80, 80, 1]>> to memref<64xf16, strided<[1], offset: ?>>
        %alloc_13 = memref.alloc() : memref<64xf16>
        memref.copy %subview_12, %alloc_13 : memref<64xf16, strided<[1], offset: ?>> to memref<64xf16>
        %50 = bufferization.to_tensor %alloc_13 restrict : memref<64xf16>
        %inserted_slice = tensor.insert_slice %50 into %arg20[%48, 0] [1, 64] [1, 1] : tensor<64xf16> into tensor<64x64xf16>
        %subview_14 = memref.subview %reinterpret_cast_4[0, %49, 0, 64] [1, 1, 1, 16] [1, 1, 1, 1] : memref<1x256x1x80xf16, strided<[20480, 80, 80, 1]>> to memref<16xf16, strided<[1], offset: ?>>
        %alloc_15 = memref.alloc() : memref<16xf16>
        memref.copy %subview_14, %alloc_15 : memref<16xf16, strided<[1], offset: ?>> to memref<16xf16>
        %51 = bufferization.to_tensor %alloc_15 restrict : memref<16xf16>
        %inserted_slice_16 = tensor.insert_slice %51 into %arg21[%48, 0] [1, 16] [1, 1] : tensor<16xf16> into tensor<64x16xf16>
        scf.yield %inserted_slice, %inserted_slice_16 : tensor<64x64xf16>, tensor<64x16xf16>
      }
      %31 = hivm.hir.mmadL1 {b_transpose} ins(%11, %30#0, %true, %c64, %c64, %c64 : tensor<64x64xf16>, tensor<64x64xf16>, i1, index, index, index) outs(%arg15 : tensor<64x64xf32>) -> tensor<64x64xf32>
      %32 = hivm.hir.mmadL1 {b_transpose} ins(%12, %30#1, %false, %c64, %c64, %c16 : tensor<64x16xf16>, tensor<64x16xf16>, i1, index, index, index) outs(%31 : tensor<64x64xf32>) -> tensor<64x64xf32>
      %33 = hivm.hir.vmul ins(%32, %10 : tensor<64x64xf32>, tensor<64x64xf32>) outs(%32 : tensor<64x64xf32>) -> tensor<64x64xf32>
      %34 = hivm.hir.vreduce <max> ins(%33 : tensor<64x64xf32>) outs(%22 : tensor<64x1xf32>) reduce_dims = [1] -> tensor<64x1xf32>
      %35 = hivm.hir.vmax ins(%arg16, %34 : tensor<64x1xf32>, tensor<64x1xf32>) outs(%26 : tensor<64x1xf32>) -> tensor<64x1xf32>
      %36 = hivm.hir.vsub ins(%arg16, %35 : tensor<64x1xf32>, tensor<64x1xf32>) outs(%25 : tensor<64x1xf32>) -> tensor<64x1xf32>
      %37 = hivm.hir.vexp ins(%36 : tensor<64x1xf32>) outs(%21 : tensor<64x1xf32>) -> tensor<64x1xf32>
      %38 = hivm.hir.vsub ins(%33, %35 : tensor<64x64xf32>, tensor<64x1xf32>) outs(%24 : tensor<64x64xf32>) broadcast = [1] -> tensor<64x64xf32>
      %39 = hivm.hir.vexp ins(%38 : tensor<64x64xf32>) outs(%33 : tensor<64x64xf32>) -> tensor<64x64xf32>
      %40 = hivm.hir.vreduce <sum> ins(%39 : tensor<64x64xf32>) outs(%23 : tensor<64x1xf32>) reduce_dims = [1] -> tensor<64x1xf32>
      %41 = hivm.hir.vmul ins(%arg17, %37 : tensor<64x1xf32>, tensor<64x1xf32>) outs(%arg17 : tensor<64x1xf32>) -> tensor<64x1xf32>
      %42 = hivm.hir.vadd ins(%41, %40 : tensor<64x1xf32>, tensor<64x1xf32>) outs(%41 : tensor<64x1xf32>) -> tensor<64x1xf32>
      %43 = hivm.hir.vmul ins(%arg18, %37 : tensor<64x64xf32>, tensor<64x1xf32>) outs(%arg18 : tensor<64x64xf32>) broadcast = [1] -> tensor<64x64xf32>
      %44 = hivm.hir.vcast ins(%39 : tensor<64x64xf32>) outs(%20 : tensor<64x64xf16>) -> tensor<64x64xf16>
      %45 = hivm.hir.vbrc ins(%cst : f32) outs(%36 : tensor<64x1xf32>) -> tensor<64x1xf32>
      %46 = hivm.hir.vadd ins(%45, %35 : tensor<64x1xf32>, tensor<64x1xf32>) outs(%arg16 : tensor<64x1xf32>) -> tensor<64x1xf32>
      %47 = hivm.hir.mmadL1 ins(%44, %30#0, %false, %c64, %c64, %c64 : tensor<64x64xf16>, tensor<64x64xf16>, i1, index, index, index) outs(%43 : tensor<64x64xf32>) -> tensor<64x64xf32>
      scf.yield %39, %46, %42, %47 : tensor<64x64xf32>, tensor<64x1xf32>, tensor<64x1xf32>, tensor<64x64xf32>
    }
    %14 = hivm.hir.vdiv ins(%13#3, %13#2 : tensor<64x64xf32>, tensor<64x1xf32>) outs(%13#3 : tensor<64x64xf32>) broadcast = [1] -> tensor<64x64xf32>
    %15 = hivm.hir.vcast ins(%14 : tensor<64x64xf32>) outs(%4 : tensor<64x64xf16>) -> tensor<64x64xf16>
    %subview_8 = memref.subview %reinterpret_cast_5[0, 0, 0, 0] [1, 1, 64, 64] [1, 1, 1, 1] : memref<1x1x64x64xf16, strided<[4096, 4096, 64, 1]>> to memref<64x64xf16, strided<[64, 1]>>
    bufferization.materialize_in_destination %15 in writable %subview_8 : (tensor<64x64xf16>, memref<64x64xf16, strided<[64, 1]>>) -> ()
    %16 = hivm.hir.vln ins(%13#2 : tensor<64x1xf32>) outs(%5 : tensor<64x1xf32>) -> tensor<64x1xf32>
    %17 = hivm.hir.vadd ins(%16, %13#1 : tensor<64x1xf32>, tensor<64x1xf32>) outs(%16 : tensor<64x1xf32>) -> tensor<64x1xf32>
    %subview_9 = memref.subview %reinterpret_cast_3[0, 0, 0, 0] [1, 1, 64, 1] [1, 1, 1, 1] : memref<1x1x64x1xf32, strided<[64, 64, 1, 1]>> to memref<64x1xf32, strided<[1, 1]>>
    bufferization.materialize_in_destination %17 in writable %subview_9 : (tensor<64x1xf32>, memref<64x1xf32, strided<[1, 1]>>) -> ()
    return
  }
}


// -----// IR Dump After TritonGlobalKernelArgsToHIVMOp (triton-global-kernel-args-to-hivm-op) //----- //
func.func @main(%arg0: i64 {hacc.arg_type = #hacc.arg_type<ffts_base_address>}, %arg1: memref<?xi8> {hacc.arg_type = #hacc.arg_type<sync_block_lock>}, %arg2: memref<?xi8> {hacc.arg_type = #hacc.arg_type<workspace>}, %arg3: memref<?xf16>, %arg4: memref<?xf16>, %arg5: memref<?xi32>, %arg6: memref<?xf16>, %arg7: memref<?xf32>, %arg8: i32, %arg9: i32, %arg10: i32) attributes {SyncBlockLockArgIdx = 0 : i64, WorkspaceArgIdx = 1 : i64, func_dyn_memref_args = dense<[false, true, true, true, true, true, true, true, false, false, false]> : vector<11xi1>, hacc.entry, hacc.function_kind = #hacc.function_kind<DEVICE>, hivm.func_core_type = #hivm.func_core_type<MIX>, hivm.part_of_mix, mix_mode = "mix"} {
  %0 = arith.muli %arg8, %arg9 : i32
  %1 = arith.muli %0, %arg10 : i32
  annotation.mark %1 {logical_block_num} : i32
  %2 = hivm.hir.get_block_idx -> i64
  %3 = arith.trunci %2 : i64 to i32
  %c1_i32 = arith.constant 1 : i32
  %4 = arith.divsi %3, %c1_i32 : i32
  %5 = arith.remsi %4, %arg10 : i32
  %6 = arith.muli %c1_i32, %arg10 : i32
  %7 = arith.divsi %3, %6 : i32
  %8 = arith.remsi %7, %arg9 : i32
  %9 = arith.muli %6, %arg9 : i32
  %10 = arith.divsi %3, %9 : i32
  %11 = arith.remsi %10, %arg8 : i32
  %c16 = arith.constant 16 : index
  %cst = arith.constant 0.000000e+00 : f32
  %c4096 = arith.constant 4096 : index
  %c20480 = arith.constant 20480 : index
  %c64 = arith.constant 64 : index
  %c256 = arith.constant 256 : index
  %c5120 = arith.constant 5120 : index
  %c80 = arith.constant 80 : index
  %c1 = arith.constant 1 : index
  %false = arith.constant false
  %true = arith.constant true
  %c4_i32 = arith.constant 4 : i32
  %cst_0 = arith.constant 0.111803398 : f32
  %cst_1 = arith.constant 0xFF800000 : f32
  %c0_i32 = arith.constant 0 : i32
  %c64_i32 = arith.constant 64 : i32
  %c1_i32_2 = arith.constant 1 : i32
  hivm.hir.set_ffts_base_addr %arg0
  %reinterpret_cast = memref.reinterpret_cast %arg3 to offset: [0], sizes: [1, 1, 64, 80], strides: [%c5120, %c5120, %c80, %c1] : memref<?xf16> to memref<1x1x64x80xf16, strided<[5120, 5120, 80, 1]>>
  %reinterpret_cast_3 = memref.reinterpret_cast %arg5 to offset: [0], sizes: [1, 1, 1, 256], strides: [%c256, %c256, %c256, %c1] : memref<?xi32> to memref<1x1x1x256xi32, strided<[256, 256, 256, 1]>>
  %reinterpret_cast_4 = memref.reinterpret_cast %arg7 to offset: [0], sizes: [1, 1, 64, 1], strides: [%c64, %c64, %c1, %c1] : memref<?xf32> to memref<1x1x64x1xf32, strided<[64, 64, 1, 1]>>
  %reinterpret_cast_5 = memref.reinterpret_cast %arg4 to offset: [0], sizes: [1, 256, 1, 80], strides: [%c20480, %c80, %c80, %c1] : memref<?xf16> to memref<1x256x1x80xf16, strided<[20480, 80, 80, 1]>>
  %reinterpret_cast_6 = memref.reinterpret_cast %arg6 to offset: [0], sizes: [1, 1, 64, 64], strides: [%c4096, %c4096, %c64, %c1] : memref<?xf16> to memref<1x1x64x64xf16, strided<[4096, 4096, 64, 1]>>
  %12 = tensor.empty() : tensor<64x1xf32>
  %13 = tensor.empty() : tensor<64x1xf32>
  %14 = tensor.empty() : tensor<64x64xf32>
  %15 = tensor.empty() : tensor<64x64xf32>
  %16 = tensor.empty() : tensor<64x64xf16>
  %17 = tensor.empty() : tensor<64x1xf32>
  %18 = tensor.empty() : tensor<64x64xf32>
  %19 = hivm.hir.vbrc ins(%cst : f32) outs(%14 : tensor<64x64xf32>) -> tensor<64x64xf32>
  %20 = hivm.hir.vbrc ins(%cst : f32) outs(%13 : tensor<64x1xf32>) -> tensor<64x1xf32>
  %21 = hivm.hir.vbrc ins(%cst_1 : f32) outs(%12 : tensor<64x1xf32>) -> tensor<64x1xf32>
  %22 = hivm.hir.vbrc ins(%cst_0 : f32) outs(%15 : tensor<64x64xf32>) -> tensor<64x64xf32>
  %subview = memref.subview %reinterpret_cast[0, 0, 0, 0] [1, 1, 64, 64] [1, 1, 1, 1] : memref<1x1x64x80xf16, strided<[5120, 5120, 80, 1]>> to memref<64x64xf16, strided<[80, 1]>>
  %alloc = memref.alloc() : memref<64x64xf16>
  memref.copy %subview, %alloc : memref<64x64xf16, strided<[80, 1]>> to memref<64x64xf16>
  %23 = bufferization.to_tensor %alloc restrict : memref<64x64xf16>
  %subview_7 = memref.subview %reinterpret_cast[0, 0, 0, 64] [1, 1, 64, 16] [1, 1, 1, 1] : memref<1x1x64x80xf16, strided<[5120, 5120, 80, 1]>> to memref<64x16xf16, strided<[80, 1], offset: 64>>
  %alloc_8 = memref.alloc() : memref<64x16xf16>
  memref.copy %subview_7, %alloc_8 : memref<64x16xf16, strided<[80, 1], offset: 64>> to memref<64x16xf16>
  %24 = bufferization.to_tensor %alloc_8 restrict : memref<64x16xf16>
  %25:4 = scf.for %arg11 = %c0_i32 to %c4_i32 step %c1_i32_2 iter_args(%arg12 = %18, %arg13 = %21, %arg14 = %20, %arg15 = %19) -> (tensor<64x64xf32>, tensor<64x1xf32>, tensor<64x1xf32>, tensor<64x64xf32>)  : i32 {
    %30 = tensor.empty() : tensor<64x64xf16>
    %31 = tensor.empty() : tensor<64x16xf16>
    %32 = tensor.empty() : tensor<64x64xf16>
    %33 = tensor.empty() : tensor<64x1xf32>
    %34 = tensor.empty() : tensor<64x1xf32>
    %35 = tensor.empty() : tensor<64x1xf32>
    %36 = tensor.empty() : tensor<64x64xf32>
    %37 = tensor.empty() : tensor<64x1xf32>
    %38 = tensor.empty() : tensor<64x1xf32>
    %39 = arith.muli %arg11, %c64_i32 : i32
    %40 = arith.index_cast %39 : i32 to index
    %subview_11 = memref.subview %reinterpret_cast_3[0, 0, 0, %40] [1, 1, 1, 64] [1, 1, 1, 1] : memref<1x1x1x256xi32, strided<[256, 256, 256, 1]>> to memref<64xi32, strided<[1], offset: ?>>
    %alloc_12 = memref.alloc() : memref<64xi32>
    memref.copy %subview_11, %alloc_12 : memref<64xi32, strided<[1], offset: ?>> to memref<64xi32>
    %41 = bufferization.to_tensor %alloc_12 restrict : memref<64xi32>
    %42:2 = scf.for %arg16 = %c0_i32 to %c64_i32 step %c1_i32_2 iter_args(%arg17 = %30, %arg18 = %31) -> (tensor<64x64xf16>, tensor<64x16xf16>)  : i32 {
      %60 = arith.index_cast %arg16 : i32 to index
      %extracted = tensor.extract %41[%60] : tensor<64xi32>
      %61 = arith.index_cast %extracted : i32 to index
      %subview_13 = memref.subview %reinterpret_cast_5[0, %61, 0, 0] [1, 1, 1, 64] [1, 1, 1, 1] : memref<1x256x1x80xf16, strided<[20480, 80, 80, 1]>> to memref<64xf16, strided<[1], offset: ?>>
      %alloc_14 = memref.alloc() : memref<64xf16>
      memref.copy %subview_13, %alloc_14 : memref<64xf16, strided<[1], offset: ?>> to memref<64xf16>
      %62 = bufferization.to_tensor %alloc_14 restrict : memref<64xf16>
      %inserted_slice = tensor.insert_slice %62 into %arg17[%60, 0] [1, 64] [1, 1] : tensor<64xf16> into tensor<64x64xf16>
      %subview_15 = memref.subview %reinterpret_cast_5[0, %61, 0, 64] [1, 1, 1, 16] [1, 1, 1, 1] : memref<1x256x1x80xf16, strided<[20480, 80, 80, 1]>> to memref<16xf16, strided<[1], offset: ?>>
      %alloc_16 = memref.alloc() : memref<16xf16>
      memref.copy %subview_15, %alloc_16 : memref<16xf16, strided<[1], offset: ?>> to memref<16xf16>
      %63 = bufferization.to_tensor %alloc_16 restrict : memref<16xf16>
      %inserted_slice_17 = tensor.insert_slice %63 into %arg18[%60, 0] [1, 16] [1, 1] : tensor<16xf16> into tensor<64x16xf16>
      scf.yield %inserted_slice, %inserted_slice_17 : tensor<64x64xf16>, tensor<64x16xf16>
    }
    %43 = hivm.hir.mmadL1 {b_transpose} ins(%23, %42#0, %true, %c64, %c64, %c64 : tensor<64x64xf16>, tensor<64x64xf16>, i1, index, index, index) outs(%arg12 : tensor<64x64xf32>) -> tensor<64x64xf32>
    %44 = hivm.hir.mmadL1 {b_transpose} ins(%24, %42#1, %false, %c64, %c64, %c16 : tensor<64x16xf16>, tensor<64x16xf16>, i1, index, index, index) outs(%43 : tensor<64x64xf32>) -> tensor<64x64xf32>
    %45 = hivm.hir.vmul ins(%44, %22 : tensor<64x64xf32>, tensor<64x64xf32>) outs(%44 : tensor<64x64xf32>) -> tensor<64x64xf32>
    %46 = hivm.hir.vreduce <max> ins(%45 : tensor<64x64xf32>) outs(%34 : tensor<64x1xf32>) reduce_dims = [1] -> tensor<64x1xf32>
    %47 = hivm.hir.vmax ins(%arg13, %46 : tensor<64x1xf32>, tensor<64x1xf32>) outs(%38 : tensor<64x1xf32>) -> tensor<64x1xf32>
    %48 = hivm.hir.vsub ins(%arg13, %47 : tensor<64x1xf32>, tensor<64x1xf32>) outs(%37 : tensor<64x1xf32>) -> tensor<64x1xf32>
    %49 = hivm.hir.vexp ins(%48 : tensor<64x1xf32>) outs(%33 : tensor<64x1xf32>) -> tensor<64x1xf32>
    %50 = hivm.hir.vsub ins(%45, %47 : tensor<64x64xf32>, tensor<64x1xf32>) outs(%36 : tensor<64x64xf32>) broadcast = [1] -> tensor<64x64xf32>
    %51 = hivm.hir.vexp ins(%50 : tensor<64x64xf32>) outs(%45 : tensor<64x64xf32>) -> tensor<64x64xf32>
    %52 = hivm.hir.vreduce <sum> ins(%51 : tensor<64x64xf32>) outs(%35 : tensor<64x1xf32>) reduce_dims = [1] -> tensor<64x1xf32>
    %53 = hivm.hir.vmul ins(%arg14, %49 : tensor<64x1xf32>, tensor<64x1xf32>) outs(%arg14 : tensor<64x1xf32>) -> tensor<64x1xf32>
    %54 = hivm.hir.vadd ins(%53, %52 : tensor<64x1xf32>, tensor<64x1xf32>) outs(%53 : tensor<64x1xf32>) -> tensor<64x1xf32>
    %55 = hivm.hir.vmul ins(%arg15, %49 : tensor<64x64xf32>, tensor<64x1xf32>) outs(%arg15 : tensor<64x64xf32>) broadcast = [1] -> tensor<64x64xf32>
    %56 = hivm.hir.vcast ins(%51 : tensor<64x64xf32>) outs(%32 : tensor<64x64xf16>) -> tensor<64x64xf16>
    %57 = hivm.hir.vbrc ins(%cst : f32) outs(%48 : tensor<64x1xf32>) -> tensor<64x1xf32>
    %58 = hivm.hir.vadd ins(%57, %47 : tensor<64x1xf32>, tensor<64x1xf32>) outs(%arg13 : tensor<64x1xf32>) -> tensor<64x1xf32>
    %59 = hivm.hir.mmadL1 ins(%56, %42#0, %false, %c64, %c64, %c64 : tensor<64x64xf16>, tensor<64x64xf16>, i1, index, index, index) outs(%55 : tensor<64x64xf32>) -> tensor<64x64xf32>
    scf.yield %51, %58, %54, %59 : tensor<64x64xf32>, tensor<64x1xf32>, tensor<64x1xf32>, tensor<64x64xf32>
  }
  %26 = hivm.hir.vdiv ins(%25#3, %25#2 : tensor<64x64xf32>, tensor<64x1xf32>) outs(%25#3 : tensor<64x64xf32>) broadcast = [1] -> tensor<64x64xf32>
  %27 = hivm.hir.vcast ins(%26 : tensor<64x64xf32>) outs(%16 : tensor<64x64xf16>) -> tensor<64x64xf16>
  %subview_9 = memref.subview %reinterpret_cast_6[0, 0, 0, 0] [1, 1, 64, 64] [1, 1, 1, 1] : memref<1x1x64x64xf16, strided<[4096, 4096, 64, 1]>> to memref<64x64xf16, strided<[64, 1]>>
  bufferization.materialize_in_destination %27 in writable %subview_9 : (tensor<64x64xf16>, memref<64x64xf16, strided<[64, 1]>>) -> ()
  %28 = hivm.hir.vln ins(%25#2 : tensor<64x1xf32>) outs(%17 : tensor<64x1xf32>) -> tensor<64x1xf32>
  %29 = hivm.hir.vadd ins(%28, %25#1 : tensor<64x1xf32>, tensor<64x1xf32>) outs(%28 : tensor<64x1xf32>) -> tensor<64x1xf32>
  %subview_10 = memref.subview %reinterpret_cast_4[0, 0, 0, 0] [1, 1, 64, 1] [1, 1, 1, 1] : memref<1x1x64x1xf32, strided<[64, 64, 1, 1]>> to memref<64x1xf32, strided<[1, 1]>>
  bufferization.materialize_in_destination %29 in writable %subview_10 : (tensor<64x1xf32>, memref<64x1xf32, strided<[1, 1]>>) -> ()
  return
}

// -----// IR Dump After ConvertTensorToHIVM (convert-tensor-to-hivm) //----- //
module attributes {dlti.target_system_spec = #dlti.target_system_spec<"NPU" : #hacc.target_device_spec<#dlti.dl_entry<"AI_CORE_COUNT", 24 : i32>, #dlti.dl_entry<"CUBE_CORE_COUNT", 24 : i32>, #dlti.dl_entry<"VECTOR_CORE_COUNT", 48 : i32>, #dlti.dl_entry<"UB_SIZE", 1572864 : i32>, #dlti.dl_entry<"L1_SIZE", 4194304 : i32>, #dlti.dl_entry<"L0A_SIZE", 524288 : i32>, #dlti.dl_entry<"L0B_SIZE", 524288 : i32>, #dlti.dl_entry<"L0C_SIZE", 1048576 : i32>, #dlti.dl_entry<"UB_ALIGN_SIZE", 256 : i32>, #dlti.dl_entry<"L1_ALIGN_SIZE", 256 : i32>, #dlti.dl_entry<"L0C_ALIGN_SIZE", 4096 : i32>>>, hivm.module_core_type = #hivm.module_core_type<MIX>, memref.memref_as_ptr} {
  func.func @main(%arg0: i64 {hacc.arg_type = #hacc.arg_type<ffts_base_address>}, %arg1: memref<?xi8> {hacc.arg_type = #hacc.arg_type<sync_block_lock>}, %arg2: memref<?xi8> {hacc.arg_type = #hacc.arg_type<workspace>}, %arg3: memref<?xf16>, %arg4: memref<?xf16>, %arg5: memref<?xi32>, %arg6: memref<?xf16>, %arg7: memref<?xf32>, %arg8: i32, %arg9: i32, %arg10: i32) attributes {SyncBlockLockArgIdx = 0 : i64, WorkspaceArgIdx = 1 : i64, func_dyn_memref_args = dense<[false, true, true, true, true, true, true, true, false, false, false]> : vector<11xi1>, hacc.entry, hacc.function_kind = #hacc.function_kind<DEVICE>, hivm.func_core_type = #hivm.func_core_type<MIX>, hivm.part_of_mix, mix_mode = "mix"} {
    %0 = arith.muli %arg8, %arg9 : i32
    %1 = arith.muli %0, %arg10 : i32
    annotation.mark %1 {logical_block_num} : i32
    %2 = hivm.hir.get_block_idx -> i64
    %3 = arith.trunci %2 : i64 to i32
    %c1_i32 = arith.constant 1 : i32
    %4 = arith.divsi %3, %c1_i32 : i32
    %5 = arith.remsi %4, %arg10 : i32
    %6 = arith.muli %c1_i32, %arg10 : i32
    %7 = arith.divsi %3, %6 : i32
    %8 = arith.remsi %7, %arg9 : i32
    %9 = arith.muli %6, %arg9 : i32
    %10 = arith.divsi %3, %9 : i32
    %11 = arith.remsi %10, %arg8 : i32
    %c16 = arith.constant 16 : index
    %cst = arith.constant 0.000000e+00 : f32
    %c4096 = arith.constant 4096 : index
    %c20480 = arith.constant 20480 : index
    %c64 = arith.constant 64 : index
    %c256 = arith.constant 256 : index
    %c5120 = arith.constant 5120 : index
    %c80 = arith.constant 80 : index
    %c1 = arith.constant 1 : index
    %false = arith.constant false
    %true = arith.constant true
    %c4_i32 = arith.constant 4 : i32
    %cst_0 = arith.constant 0.111803398 : f32
    %cst_1 = arith.constant 0xFF800000 : f32
    %c0_i32 = arith.constant 0 : i32
    %c64_i32 = arith.constant 64 : i32
    %c1_i32_2 = arith.constant 1 : i32
    hivm.hir.set_ffts_base_addr %arg0
    %reinterpret_cast = memref.reinterpret_cast %arg3 to offset: [0], sizes: [1, 1, 64, 80], strides: [%c5120, %c5120, %c80, %c1] : memref<?xf16> to memref<1x1x64x80xf16, strided<[5120, 5120, 80, 1]>>
    %reinterpret_cast_3 = memref.reinterpret_cast %arg5 to offset: [0], sizes: [1, 1, 1, 256], strides: [%c256, %c256, %c256, %c1] : memref<?xi32> to memref<1x1x1x256xi32, strided<[256, 256, 256, 1]>>
    %reinterpret_cast_4 = memref.reinterpret_cast %arg7 to offset: [0], sizes: [1, 1, 64, 1], strides: [%c64, %c64, %c1, %c1] : memref<?xf32> to memref<1x1x64x1xf32, strided<[64, 64, 1, 1]>>
    %reinterpret_cast_5 = memref.reinterpret_cast %arg4 to offset: [0], sizes: [1, 256, 1, 80], strides: [%c20480, %c80, %c80, %c1] : memref<?xf16> to memref<1x256x1x80xf16, strided<[20480, 80, 80, 1]>>
    %reinterpret_cast_6 = memref.reinterpret_cast %arg6 to offset: [0], sizes: [1, 1, 64, 64], strides: [%c4096, %c4096, %c64, %c1] : memref<?xf16> to memref<1x1x64x64xf16, strided<[4096, 4096, 64, 1]>>
    %12 = tensor.empty() : tensor<64x1xf32>
    %13 = tensor.empty() : tensor<64x1xf32>
    %14 = tensor.empty() : tensor<64x64xf32>
    %15 = tensor.empty() : tensor<64x64xf32>
    %16 = tensor.empty() : tensor<64x64xf16>
    %17 = tensor.empty() : tensor<64x1xf32>
    %18 = tensor.empty() : tensor<64x64xf32>
    %19 = hivm.hir.vbrc ins(%cst : f32) outs(%14 : tensor<64x64xf32>) -> tensor<64x64xf32>
    %20 = hivm.hir.vbrc ins(%cst : f32) outs(%13 : tensor<64x1xf32>) -> tensor<64x1xf32>
    %21 = hivm.hir.vbrc ins(%cst_1 : f32) outs(%12 : tensor<64x1xf32>) -> tensor<64x1xf32>
    %22 = hivm.hir.vbrc ins(%cst_0 : f32) outs(%15 : tensor<64x64xf32>) -> tensor<64x64xf32>
    %subview = memref.subview %reinterpret_cast[0, 0, 0, 0] [1, 1, 64, 64] [1, 1, 1, 1] : memref<1x1x64x80xf16, strided<[5120, 5120, 80, 1]>> to memref<64x64xf16, strided<[80, 1]>>
    %alloc = memref.alloc() : memref<64x64xf16>
    memref.copy %subview, %alloc : memref<64x64xf16, strided<[80, 1]>> to memref<64x64xf16>
    %23 = bufferization.to_tensor %alloc restrict : memref<64x64xf16>
    %subview_7 = memref.subview %reinterpret_cast[0, 0, 0, 64] [1, 1, 64, 16] [1, 1, 1, 1] : memref<1x1x64x80xf16, strided<[5120, 5120, 80, 1]>> to memref<64x16xf16, strided<[80, 1], offset: 64>>
    %alloc_8 = memref.alloc() : memref<64x16xf16>
    memref.copy %subview_7, %alloc_8 : memref<64x16xf16, strided<[80, 1], offset: 64>> to memref<64x16xf16>
    %24 = bufferization.to_tensor %alloc_8 restrict : memref<64x16xf16>
    %25:4 = scf.for %arg11 = %c0_i32 to %c4_i32 step %c1_i32_2 iter_args(%arg12 = %18, %arg13 = %21, %arg14 = %20, %arg15 = %19) -> (tensor<64x64xf32>, tensor<64x1xf32>, tensor<64x1xf32>, tensor<64x64xf32>)  : i32 {
      %30 = tensor.empty() : tensor<64x64xf16>
      %31 = tensor.empty() : tensor<64x16xf16>
      %32 = tensor.empty() : tensor<64x64xf16>
      %33 = tensor.empty() : tensor<64x1xf32>
      %34 = tensor.empty() : tensor<64x1xf32>
      %35 = tensor.empty() : tensor<64x1xf32>
      %36 = tensor.empty() : tensor<64x64xf32>
      %37 = tensor.empty() : tensor<64x1xf32>
      %38 = tensor.empty() : tensor<64x1xf32>
      %39 = arith.muli %arg11, %c64_i32 : i32
      %40 = arith.index_cast %39 : i32 to index
      %subview_11 = memref.subview %reinterpret_cast_3[0, 0, 0, %40] [1, 1, 1, 64] [1, 1, 1, 1] : memref<1x1x1x256xi32, strided<[256, 256, 256, 1]>> to memref<64xi32, strided<[1], offset: ?>>
      %alloc_12 = memref.alloc() : memref<64xi32>
      memref.copy %subview_11, %alloc_12 : memref<64xi32, strided<[1], offset: ?>> to memref<64xi32>
      %41 = bufferization.to_tensor %alloc_12 restrict : memref<64xi32>
      %42:2 = scf.for %arg16 = %c0_i32 to %c64_i32 step %c1_i32_2 iter_args(%arg17 = %30, %arg18 = %31) -> (tensor<64x64xf16>, tensor<64x16xf16>)  : i32 {
        %60 = arith.index_cast %arg16 : i32 to index
        %extracted = tensor.extract %41[%60] : tensor<64xi32>
        %61 = arith.index_cast %extracted : i32 to index
        %subview_13 = memref.subview %reinterpret_cast_5[0, %61, 0, 0] [1, 1, 1, 64] [1, 1, 1, 1] : memref<1x256x1x80xf16, strided<[20480, 80, 80, 1]>> to memref<64xf16, strided<[1], offset: ?>>
        %alloc_14 = memref.alloc() : memref<64xf16>
        memref.copy %subview_13, %alloc_14 : memref<64xf16, strided<[1], offset: ?>> to memref<64xf16>
        %62 = bufferization.to_tensor %alloc_14 restrict : memref<64xf16>
        %inserted_slice = tensor.insert_slice %62 into %arg17[%60, 0] [1, 64] [1, 1] : tensor<64xf16> into tensor<64x64xf16>
        %subview_15 = memref.subview %reinterpret_cast_5[0, %61, 0, 64] [1, 1, 1, 16] [1, 1, 1, 1] : memref<1x256x1x80xf16, strided<[20480, 80, 80, 1]>> to memref<16xf16, strided<[1], offset: ?>>
        %alloc_16 = memref.alloc() : memref<16xf16>
        memref.copy %subview_15, %alloc_16 : memref<16xf16, strided<[1], offset: ?>> to memref<16xf16>
        %63 = bufferization.to_tensor %alloc_16 restrict : memref<16xf16>
        %inserted_slice_17 = tensor.insert_slice %63 into %arg18[%60, 0] [1, 16] [1, 1] : tensor<16xf16> into tensor<64x16xf16>
        scf.yield %inserted_slice, %inserted_slice_17 : tensor<64x64xf16>, tensor<64x16xf16>
      }
      %43 = hivm.hir.mmadL1 {b_transpose} ins(%23, %42#0, %true, %c64, %c64, %c64 : tensor<64x64xf16>, tensor<64x64xf16>, i1, index, index, index) outs(%arg12 : tensor<64x64xf32>) -> tensor<64x64xf32>
      %44 = hivm.hir.mmadL1 {b_transpose} ins(%24, %42#1, %false, %c64, %c64, %c16 : tensor<64x16xf16>, tensor<64x16xf16>, i1, index, index, index) outs(%43 : tensor<64x64xf32>) -> tensor<64x64xf32>
      %45 = hivm.hir.vmul ins(%44, %22 : tensor<64x64xf32>, tensor<64x64xf32>) outs(%44 : tensor<64x64xf32>) -> tensor<64x64xf32>
      %46 = hivm.hir.vreduce <max> ins(%45 : tensor<64x64xf32>) outs(%34 : tensor<64x1xf32>) reduce_dims = [1] -> tensor<64x1xf32>
      %47 = hivm.hir.vmax ins(%arg13, %46 : tensor<64x1xf32>, tensor<64x1xf32>) outs(%38 : tensor<64x1xf32>) -> tensor<64x1xf32>
      %48 = hivm.hir.vsub ins(%arg13, %47 : tensor<64x1xf32>, tensor<64x1xf32>) outs(%37 : tensor<64x1xf32>) -> tensor<64x1xf32>
      %49 = hivm.hir.vexp ins(%48 : tensor<64x1xf32>) outs(%33 : tensor<64x1xf32>) -> tensor<64x1xf32>
      %50 = hivm.hir.vsub ins(%45, %47 : tensor<64x64xf32>, tensor<64x1xf32>) outs(%36 : tensor<64x64xf32>) broadcast = [1] -> tensor<64x64xf32>
      %51 = hivm.hir.vexp ins(%50 : tensor<64x64xf32>) outs(%45 : tensor<64x64xf32>) -> tensor<64x64xf32>
      %52 = hivm.hir.vreduce <sum> ins(%51 : tensor<64x64xf32>) outs(%35 : tensor<64x1xf32>) reduce_dims = [1] -> tensor<64x1xf32>
      %53 = hivm.hir.vmul ins(%arg14, %49 : tensor<64x1xf32>, tensor<64x1xf32>) outs(%arg14 : tensor<64x1xf32>) -> tensor<64x1xf32>
      %54 = hivm.hir.vadd ins(%53, %52 : tensor<64x1xf32>, tensor<64x1xf32>) outs(%53 : tensor<64x1xf32>) -> tensor<64x1xf32>
      %55 = hivm.hir.vmul ins(%arg15, %49 : tensor<64x64xf32>, tensor<64x1xf32>) outs(%arg15 : tensor<64x64xf32>) broadcast = [1] -> tensor<64x64xf32>
      %56 = hivm.hir.vcast ins(%51 : tensor<64x64xf32>) outs(%32 : tensor<64x64xf16>) -> tensor<64x64xf16>
      %57 = hivm.hir.vbrc ins(%cst : f32) outs(%48 : tensor<64x1xf32>) -> tensor<64x1xf32>
      %58 = hivm.hir.vadd ins(%57, %47 : tensor<64x1xf32>, tensor<64x1xf32>) outs(%arg13 : tensor<64x1xf32>) -> tensor<64x1xf32>
      %59 = hivm.hir.mmadL1 ins(%56, %42#0, %false, %c64, %c64, %c64 : tensor<64x64xf16>, tensor<64x64xf16>, i1, index, index, index) outs(%55 : tensor<64x64xf32>) -> tensor<64x64xf32>
      scf.yield %51, %58, %54, %59 : tensor<64x64xf32>, tensor<64x1xf32>, tensor<64x1xf32>, tensor<64x64xf32>
    }
    %26 = hivm.hir.vdiv ins(%25#3, %25#2 : tensor<64x64xf32>, tensor<64x1xf32>) outs(%25#3 : tensor<64x64xf32>) broadcast = [1] -> tensor<64x64xf32>
    %27 = hivm.hir.vcast ins(%26 : tensor<64x64xf32>) outs(%16 : tensor<64x64xf16>) -> tensor<64x64xf16>
    %subview_9 = memref.subview %reinterpret_cast_6[0, 0, 0, 0] [1, 1, 64, 64] [1, 1, 1, 1] : memref<1x1x64x64xf16, strided<[4096, 4096, 64, 1]>> to memref<64x64xf16, strided<[64, 1]>>
    bufferization.materialize_in_destination %27 in writable %subview_9 : (tensor<64x64xf16>, memref<64x64xf16, strided<[64, 1]>>) -> ()
    %28 = hivm.hir.vln ins(%25#2 : tensor<64x1xf32>) outs(%17 : tensor<64x1xf32>) -> tensor<64x1xf32>
    %29 = hivm.hir.vadd ins(%28, %25#1 : tensor<64x1xf32>, tensor<64x1xf32>) outs(%28 : tensor<64x1xf32>) -> tensor<64x1xf32>
    %subview_10 = memref.subview %reinterpret_cast_4[0, 0, 0, 0] [1, 1, 64, 1] [1, 1, 1, 1] : memref<1x1x64x1xf32, strided<[64, 64, 1, 1]>> to memref<64x1xf32, strided<[1, 1]>>
    bufferization.materialize_in_destination %29 in writable %subview_10 : (tensor<64x1xf32>, memref<64x1xf32, strided<[1, 1]>>) -> ()
    return
  }
}


// -----// IR Dump After ConvertToHIVMOp (convert-to-hivm-op) //----- //
module attributes {dlti.target_system_spec = #dlti.target_system_spec<"NPU" : #hacc.target_device_spec<#dlti.dl_entry<"AI_CORE_COUNT", 24 : i32>, #dlti.dl_entry<"CUBE_CORE_COUNT", 24 : i32>, #dlti.dl_entry<"VECTOR_CORE_COUNT", 48 : i32>, #dlti.dl_entry<"UB_SIZE", 1572864 : i32>, #dlti.dl_entry<"L1_SIZE", 4194304 : i32>, #dlti.dl_entry<"L0A_SIZE", 524288 : i32>, #dlti.dl_entry<"L0B_SIZE", 524288 : i32>, #dlti.dl_entry<"L0C_SIZE", 1048576 : i32>, #dlti.dl_entry<"UB_ALIGN_SIZE", 256 : i32>, #dlti.dl_entry<"L1_ALIGN_SIZE", 256 : i32>, #dlti.dl_entry<"L0C_ALIGN_SIZE", 4096 : i32>>>, hivm.module_core_type = #hivm.module_core_type<MIX>, memref.memref_as_ptr} {
  func.func @main(%arg0: i64 {hacc.arg_type = #hacc.arg_type<ffts_base_address>}, %arg1: memref<?xi8> {hacc.arg_type = #hacc.arg_type<sync_block_lock>}, %arg2: memref<?xi8> {hacc.arg_type = #hacc.arg_type<workspace>}, %arg3: memref<?xf16>, %arg4: memref<?xf16>, %arg5: memref<?xi32>, %arg6: memref<?xf16>, %arg7: memref<?xf32>, %arg8: i32, %arg9: i32, %arg10: i32) attributes {SyncBlockLockArgIdx = 0 : i64, WorkspaceArgIdx = 1 : i64, func_dyn_memref_args = dense<[false, true, true, true, true, true, true, true, false, false, false]> : vector<11xi1>, hacc.entry, hacc.function_kind = #hacc.function_kind<DEVICE>, hivm.func_core_type = #hivm.func_core_type<MIX>, hivm.part_of_mix, mix_mode = "mix"} {
    %c64_i32 = arith.constant 64 : i32
    %c0_i32 = arith.constant 0 : i32
    %cst = arith.constant 0xFF800000 : f32
    %cst_0 = arith.constant 0.111803398 : f32
    %c4_i32 = arith.constant 4 : i32
    %true = arith.constant true
    %false = arith.constant false
    %c1 = arith.constant 1 : index
    %c80 = arith.constant 80 : index
    %c5120 = arith.constant 5120 : index
    %c256 = arith.constant 256 : index
    %c64 = arith.constant 64 : index
    %c20480 = arith.constant 20480 : index
    %c4096 = arith.constant 4096 : index
    %cst_1 = arith.constant 0.000000e+00 : f32
    %c16 = arith.constant 16 : index
    %c1_i32 = arith.constant 1 : i32
    %0 = arith.muli %arg8, %arg9 : i32
    %1 = arith.muli %0, %arg10 : i32
    annotation.mark %1 {logical_block_num} : i32
    hivm.hir.set_ffts_base_addr %arg0
    %reinterpret_cast = memref.reinterpret_cast %arg3 to offset: [0], sizes: [1, 1, 64, 80], strides: [%c5120, %c5120, %c80, %c1] : memref<?xf16> to memref<1x1x64x80xf16, strided<[5120, 5120, 80, 1]>>
    %reinterpret_cast_2 = memref.reinterpret_cast %arg5 to offset: [0], sizes: [1, 1, 1, 256], strides: [%c256, %c256, %c256, %c1] : memref<?xi32> to memref<1x1x1x256xi32, strided<[256, 256, 256, 1]>>
    %reinterpret_cast_3 = memref.reinterpret_cast %arg7 to offset: [0], sizes: [1, 1, 64, 1], strides: [%c64, %c64, %c1, %c1] : memref<?xf32> to memref<1x1x64x1xf32, strided<[64, 64, 1, 1]>>
    %reinterpret_cast_4 = memref.reinterpret_cast %arg4 to offset: [0], sizes: [1, 256, 1, 80], strides: [%c20480, %c80, %c80, %c1] : memref<?xf16> to memref<1x256x1x80xf16, strided<[20480, 80, 80, 1]>>
    %reinterpret_cast_5 = memref.reinterpret_cast %arg6 to offset: [0], sizes: [1, 1, 64, 64], strides: [%c4096, %c4096, %c64, %c1] : memref<?xf16> to memref<1x1x64x64xf16, strided<[4096, 4096, 64, 1]>>
    %2 = tensor.empty() : tensor<64x1xf32>
    %3 = tensor.empty() : tensor<64x1xf32>
    %4 = tensor.empty() : tensor<64x64xf32>
    %5 = tensor.empty() : tensor<64x64xf32>
    %6 = tensor.empty() : tensor<64x64xf16>
    %7 = tensor.empty() : tensor<64x1xf32>
    %8 = tensor.empty() : tensor<64x64xf32>
    %9 = hivm.hir.vbrc ins(%cst_1 : f32) outs(%4 : tensor<64x64xf32>) -> tensor<64x64xf32>
    %10 = hivm.hir.vbrc ins(%cst_1 : f32) outs(%3 : tensor<64x1xf32>) -> tensor<64x1xf32>
    %11 = hivm.hir.vbrc ins(%cst : f32) outs(%2 : tensor<64x1xf32>) -> tensor<64x1xf32>
    %12 = hivm.hir.vbrc ins(%cst_0 : f32) outs(%5 : tensor<64x64xf32>) -> tensor<64x64xf32>
    %subview = memref.subview %reinterpret_cast[0, 0, 0, 0] [1, 1, 64, 64] [1, 1, 1, 1] : memref<1x1x64x80xf16, strided<[5120, 5120, 80, 1]>> to memref<64x64xf16, strided<[80, 1]>>
    %alloc = memref.alloc() : memref<64x64xf16>
    hivm.hir.load ins(%subview : memref<64x64xf16, strided<[80, 1]>>) outs(%alloc : memref<64x64xf16>) init_out_buffer = false may_implicit_transpose_with_last_axis = false
    %13 = bufferization.to_tensor %alloc restrict : memref<64x64xf16>
    %subview_6 = memref.subview %reinterpret_cast[0, 0, 0, 64] [1, 1, 64, 16] [1, 1, 1, 1] : memref<1x1x64x80xf16, strided<[5120, 5120, 80, 1]>> to memref<64x16xf16, strided<[80, 1], offset: 64>>
    %alloc_7 = memref.alloc() : memref<64x16xf16>
    hivm.hir.load ins(%subview_6 : memref<64x16xf16, strided<[80, 1], offset: 64>>) outs(%alloc_7 : memref<64x16xf16>) init_out_buffer = false may_implicit_transpose_with_last_axis = false
    %14 = bufferization.to_tensor %alloc_7 restrict : memref<64x16xf16>
    %15:4 = scf.for %arg11 = %c0_i32 to %c4_i32 step %c1_i32 iter_args(%arg12 = %8, %arg13 = %11, %arg14 = %10, %arg15 = %9) -> (tensor<64x64xf32>, tensor<64x1xf32>, tensor<64x1xf32>, tensor<64x64xf32>)  : i32 {
      %20 = tensor.empty() : tensor<64x64xf16>
      %21 = tensor.empty() : tensor<64x16xf16>
      %22 = tensor.empty() : tensor<64x64xf16>
      %23 = tensor.empty() : tensor<64x1xf32>
      %24 = tensor.empty() : tensor<64x1xf32>
      %25 = tensor.empty() : tensor<64x1xf32>
      %26 = tensor.empty() : tensor<64x64xf32>
      %27 = tensor.empty() : tensor<64x1xf32>
      %28 = tensor.empty() : tensor<64x1xf32>
      %29 = arith.muli %arg11, %c64_i32 : i32
      %30 = arith.index_cast %29 : i32 to index
      %subview_10 = memref.subview %reinterpret_cast_2[0, 0, 0, %30] [1, 1, 1, 64] [1, 1, 1, 1] : memref<1x1x1x256xi32, strided<[256, 256, 256, 1]>> to memref<64xi32, strided<[1], offset: ?>>
      %alloc_11 = memref.alloc() : memref<64xi32>
      hivm.hir.load ins(%subview_10 : memref<64xi32, strided<[1], offset: ?>>) outs(%alloc_11 : memref<64xi32>) init_out_buffer = false may_implicit_transpose_with_last_axis = false
      %31 = bufferization.to_tensor %alloc_11 restrict : memref<64xi32>
      %32:2 = scf.for %arg16 = %c0_i32 to %c64_i32 step %c1_i32 iter_args(%arg17 = %20, %arg18 = %21) -> (tensor<64x64xf16>, tensor<64x16xf16>)  : i32 {
        %50 = arith.index_cast %arg16 : i32 to index
        %extracted = tensor.extract %31[%50] : tensor<64xi32>
        %51 = arith.index_cast %extracted : i32 to index
        %subview_12 = memref.subview %reinterpret_cast_4[0, %51, 0, 0] [1, 1, 1, 64] [1, 1, 1, 1] : memref<1x256x1x80xf16, strided<[20480, 80, 80, 1]>> to memref<64xf16, strided<[1], offset: ?>>
        %alloc_13 = memref.alloc() : memref<64xf16>
        hivm.hir.load ins(%subview_12 : memref<64xf16, strided<[1], offset: ?>>) outs(%alloc_13 : memref<64xf16>) init_out_buffer = false may_implicit_transpose_with_last_axis = false
        %52 = bufferization.to_tensor %alloc_13 restrict : memref<64xf16>
        %inserted_slice = tensor.insert_slice %52 into %arg17[%50, 0] [1, 64] [1, 1] : tensor<64xf16> into tensor<64x64xf16>
        %subview_14 = memref.subview %reinterpret_cast_4[0, %51, 0, 64] [1, 1, 1, 16] [1, 1, 1, 1] : memref<1x256x1x80xf16, strided<[20480, 80, 80, 1]>> to memref<16xf16, strided<[1], offset: ?>>
        %alloc_15 = memref.alloc() : memref<16xf16>
        hivm.hir.load ins(%subview_14 : memref<16xf16, strided<[1], offset: ?>>) outs(%alloc_15 : memref<16xf16>) init_out_buffer = false may_implicit_transpose_with_last_axis = false
        %53 = bufferization.to_tensor %alloc_15 restrict : memref<16xf16>
        %inserted_slice_16 = tensor.insert_slice %53 into %arg18[%50, 0] [1, 16] [1, 1] : tensor<16xf16> into tensor<64x16xf16>
        scf.yield %inserted_slice, %inserted_slice_16 : tensor<64x64xf16>, tensor<64x16xf16>
      }
      %33 = hivm.hir.mmadL1 {b_transpose} ins(%13, %32#0, %true, %c64, %c64, %c64 : tensor<64x64xf16>, tensor<64x64xf16>, i1, index, index, index) outs(%arg12 : tensor<64x64xf32>) -> tensor<64x64xf32>
      %34 = hivm.hir.mmadL1 {b_transpose} ins(%14, %32#1, %false, %c64, %c64, %c16 : tensor<64x16xf16>, tensor<64x16xf16>, i1, index, index, index) outs(%33 : tensor<64x64xf32>) -> tensor<64x64xf32>
      %35 = hivm.hir.vmul ins(%34, %12 : tensor<64x64xf32>, tensor<64x64xf32>) outs(%34 : tensor<64x64xf32>) -> tensor<64x64xf32>
      %36 = hivm.hir.vreduce <max> ins(%35 : tensor<64x64xf32>) outs(%24 : tensor<64x1xf32>) reduce_dims = [1] -> tensor<64x1xf32>
      %37 = hivm.hir.vmax ins(%arg13, %36 : tensor<64x1xf32>, tensor<64x1xf32>) outs(%28 : tensor<64x1xf32>) -> tensor<64x1xf32>
      %38 = hivm.hir.vsub ins(%arg13, %37 : tensor<64x1xf32>, tensor<64x1xf32>) outs(%27 : tensor<64x1xf32>) -> tensor<64x1xf32>
      %39 = hivm.hir.vexp ins(%38 : tensor<64x1xf32>) outs(%23 : tensor<64x1xf32>) -> tensor<64x1xf32>
      %40 = hivm.hir.vsub ins(%35, %37 : tensor<64x64xf32>, tensor<64x1xf32>) outs(%26 : tensor<64x64xf32>) broadcast = [1] -> tensor<64x64xf32>
      %41 = hivm.hir.vexp ins(%40 : tensor<64x64xf32>) outs(%35 : tensor<64x64xf32>) -> tensor<64x64xf32>
      %42 = hivm.hir.vreduce <sum> ins(%41 : tensor<64x64xf32>) outs(%25 : tensor<64x1xf32>) reduce_dims = [1] -> tensor<64x1xf32>
      %43 = hivm.hir.vmul ins(%arg14, %39 : tensor<64x1xf32>, tensor<64x1xf32>) outs(%arg14 : tensor<64x1xf32>) -> tensor<64x1xf32>
      %44 = hivm.hir.vadd ins(%43, %42 : tensor<64x1xf32>, tensor<64x1xf32>) outs(%43 : tensor<64x1xf32>) -> tensor<64x1xf32>
      %45 = hivm.hir.vmul ins(%arg15, %39 : tensor<64x64xf32>, tensor<64x1xf32>) outs(%arg15 : tensor<64x64xf32>) broadcast = [1] -> tensor<64x64xf32>
      %46 = hivm.hir.vcast ins(%41 : tensor<64x64xf32>) outs(%22 : tensor<64x64xf16>) -> tensor<64x64xf16>
      %47 = hivm.hir.vbrc ins(%cst_1 : f32) outs(%38 : tensor<64x1xf32>) -> tensor<64x1xf32>
      %48 = hivm.hir.vadd ins(%47, %37 : tensor<64x1xf32>, tensor<64x1xf32>) outs(%arg13 : tensor<64x1xf32>) -> tensor<64x1xf32>
      %49 = hivm.hir.mmadL1 ins(%46, %32#0, %false, %c64, %c64, %c64 : tensor<64x64xf16>, tensor<64x64xf16>, i1, index, index, index) outs(%45 : tensor<64x64xf32>) -> tensor<64x64xf32>
      scf.yield %41, %48, %44, %49 : tensor<64x64xf32>, tensor<64x1xf32>, tensor<64x1xf32>, tensor<64x64xf32>
    }
    %16 = hivm.hir.vdiv ins(%15#3, %15#2 : tensor<64x64xf32>, tensor<64x1xf32>) outs(%15#3 : tensor<64x64xf32>) broadcast = [1] -> tensor<64x64xf32>
    %17 = hivm.hir.vcast ins(%16 : tensor<64x64xf32>) outs(%6 : tensor<64x64xf16>) -> tensor<64x64xf16>
    %subview_8 = memref.subview %reinterpret_cast_5[0, 0, 0, 0] [1, 1, 64, 64] [1, 1, 1, 1] : memref<1x1x64x64xf16, strided<[4096, 4096, 64, 1]>> to memref<64x64xf16, strided<[64, 1]>>
    hivm.hir.store ins(%17 : tensor<64x64xf16>) outs(%subview_8 : memref<64x64xf16, strided<[64, 1]>>)
    %18 = hivm.hir.vln ins(%15#2 : tensor<64x1xf32>) outs(%7 : tensor<64x1xf32>) -> tensor<64x1xf32>
    %19 = hivm.hir.vadd ins(%18, %15#1 : tensor<64x1xf32>, tensor<64x1xf32>) outs(%18 : tensor<64x1xf32>) -> tensor<64x1xf32>
    %subview_9 = memref.subview %reinterpret_cast_3[0, 0, 0, 0] [1, 1, 64, 1] [1, 1, 1, 1] : memref<1x1x64x1xf32, strided<[64, 64, 1, 1]>> to memref<64x1xf32, strided<[1, 1]>>
    hivm.hir.store ins(%19 : tensor<64x1xf32>) outs(%subview_9 : memref<64x1xf32, strided<[1, 1]>>)
    return
  }
}


// -----// IR Dump After InitEntryKernel (hivm-init-entry-kernel) //----- //
func.func @main(%arg0: i64 {hacc.arg_type = #hacc.arg_type<ffts_base_address>}, %arg1: memref<?xi8> {hacc.arg_type = #hacc.arg_type<sync_block_lock>}, %arg2: memref<?xi8> {hacc.arg_type = #hacc.arg_type<workspace>}, %arg3: memref<?xf16>, %arg4: memref<?xf16>, %arg5: memref<?xi32>, %arg6: memref<?xf16>, %arg7: memref<?xf32>, %arg8: i32, %arg9: i32, %arg10: i32) attributes {SyncBlockLockArgIdx = 0 : i64, WorkspaceArgIdx = 1 : i64, func_dyn_memref_args = dense<[false, true, true, true, true, true, true, true, false, false, false]> : vector<11xi1>, hacc.entry, hacc.function_kind = #hacc.function_kind<DEVICE>, hivm.func_core_type = #hivm.func_core_type<MIX>, hivm.part_of_mix, mix_mode = "mix"} {
  hivm.hir.set_mask_norm
  %c64_i32 = arith.constant 64 : i32
  %c0_i32 = arith.constant 0 : i32
  %cst = arith.constant 0xFF800000 : f32
  %cst_0 = arith.constant 0.111803398 : f32
  %c4_i32 = arith.constant 4 : i32
  %true = arith.constant true
  %false = arith.constant false
  %c1 = arith.constant 1 : index
  %c80 = arith.constant 80 : index
  %c5120 = arith.constant 5120 : index
  %c256 = arith.constant 256 : index
  %c64 = arith.constant 64 : index
  %c20480 = arith.constant 20480 : index
  %c4096 = arith.constant 4096 : index
  %cst_1 = arith.constant 0.000000e+00 : f32
  %c16 = arith.constant 16 : index
  %c1_i32 = arith.constant 1 : i32
  %0 = arith.muli %arg8, %arg9 : i32
  %1 = arith.muli %0, %arg10 : i32
  annotation.mark %1 {logical_block_num} : i32
  hivm.hir.set_ffts_base_addr %arg0
  %reinterpret_cast = memref.reinterpret_cast %arg3 to offset: [0], sizes: [1, 1, 64, 80], strides: [%c5120, %c5120, %c80, %c1] : memref<?xf16> to memref<1x1x64x80xf16, strided<[5120, 5120, 80, 1]>>
  %reinterpret_cast_2 = memref.reinterpret_cast %arg5 to offset: [0], sizes: [1, 1, 1, 256], strides: [%c256, %c256, %c256, %c1] : memref<?xi32> to memref<1x1x1x256xi32, strided<[256, 256, 256, 1]>>
  %reinterpret_cast_3 = memref.reinterpret_cast %arg7 to offset: [0], sizes: [1, 1, 64, 1], strides: [%c64, %c64, %c1, %c1] : memref<?xf32> to memref<1x1x64x1xf32, strided<[64, 64, 1, 1]>>
  %reinterpret_cast_4 = memref.reinterpret_cast %arg4 to offset: [0], sizes: [1, 256, 1, 80], strides: [%c20480, %c80, %c80, %c1] : memref<?xf16> to memref<1x256x1x80xf16, strided<[20480, 80, 80, 1]>>
  %reinterpret_cast_5 = memref.reinterpret_cast %arg6 to offset: [0], sizes: [1, 1, 64, 64], strides: [%c4096, %c4096, %c64, %c1] : memref<?xf16> to memref<1x1x64x64xf16, strided<[4096, 4096, 64, 1]>>
  %2 = tensor.empty() : tensor<64x1xf32>
  %3 = tensor.empty() : tensor<64x1xf32>
  %4 = tensor.empty() : tensor<64x64xf32>
  %5 = tensor.empty() : tensor<64x64xf32>
  %6 = tensor.empty() : tensor<64x64xf16>
  %7 = tensor.empty() : tensor<64x1xf32>
  %8 = tensor.empty() : tensor<64x64xf32>
  %9 = hivm.hir.vbrc ins(%cst_1 : f32) outs(%4 : tensor<64x64xf32>) -> tensor<64x64xf32>
  %10 = hivm.hir.vbrc ins(%cst_1 : f32) outs(%3 : tensor<64x1xf32>) -> tensor<64x1xf32>
  %11 = hivm.hir.vbrc ins(%cst : f32) outs(%2 : tensor<64x1xf32>) -> tensor<64x1xf32>
  %12 = hivm.hir.vbrc ins(%cst_0 : f32) outs(%5 : tensor<64x64xf32>) -> tensor<64x64xf32>
  %subview = memref.subview %reinterpret_cast[0, 0, 0, 0] [1, 1, 64, 64] [1, 1, 1, 1] : memref<1x1x64x80xf16, strided<[5120, 5120, 80, 1]>> to memref<64x64xf16, strided<[80, 1]>>
  %alloc = memref.alloc() : memref<64x64xf16>
  hivm.hir.load ins(%subview : memref<64x64xf16, strided<[80, 1]>>) outs(%alloc : memref<64x64xf16>) init_out_buffer = false may_implicit_transpose_with_last_axis = false
  %13 = bufferization.to_tensor %alloc restrict : memref<64x64xf16>
  %subview_6 = memref.subview %reinterpret_cast[0, 0, 0, 64] [1, 1, 64, 16] [1, 1, 1, 1] : memref<1x1x64x80xf16, strided<[5120, 5120, 80, 1]>> to memref<64x16xf16, strided<[80, 1], offset: 64>>
  %alloc_7 = memref.alloc() : memref<64x16xf16>
  hivm.hir.load ins(%subview_6 : memref<64x16xf16, strided<[80, 1], offset: 64>>) outs(%alloc_7 : memref<64x16xf16>) init_out_buffer = false may_implicit_transpose_with_last_axis = false
  %14 = bufferization.to_tensor %alloc_7 restrict : memref<64x16xf16>
  %15:4 = scf.for %arg11 = %c0_i32 to %c4_i32 step %c1_i32 iter_args(%arg12 = %8, %arg13 = %11, %arg14 = %10, %arg15 = %9) -> (tensor<64x64xf32>, tensor<64x1xf32>, tensor<64x1xf32>, tensor<64x64xf32>)  : i32 {
    %20 = tensor.empty() : tensor<64x64xf16>
    %21 = tensor.empty() : tensor<64x16xf16>
    %22 = tensor.empty() : tensor<64x64xf16>
    %23 = tensor.empty() : tensor<64x1xf32>
    %24 = tensor.empty() : tensor<64x1xf32>
    %25 = tensor.empty() : tensor<64x1xf32>
    %26 = tensor.empty() : tensor<64x64xf32>
    %27 = tensor.empty() : tensor<64x1xf32>
    %28 = tensor.empty() : tensor<64x1xf32>
    %29 = arith.muli %arg11, %c64_i32 : i32
    %30 = arith.index_cast %29 : i32 to index
    %subview_10 = memref.subview %reinterpret_cast_2[0, 0, 0, %30] [1, 1, 1, 64] [1, 1, 1, 1] : memref<1x1x1x256xi32, strided<[256, 256, 256, 1]>> to memref<64xi32, strided<[1], offset: ?>>
    %alloc_11 = memref.alloc() : memref<64xi32>
    hivm.hir.load ins(%subview_10 : memref<64xi32, strided<[1], offset: ?>>) outs(%alloc_11 : memref<64xi32>) init_out_buffer = false may_implicit_transpose_with_last_axis = false
    %31 = bufferization.to_tensor %alloc_11 restrict : memref<64xi32>
    %32:2 = scf.for %arg16 = %c0_i32 to %c64_i32 step %c1_i32 iter_args(%arg17 = %20, %arg18 = %21) -> (tensor<64x64xf16>, tensor<64x16xf16>)  : i32 {
      %50 = arith.index_cast %arg16 : i32 to index
      %extracted = tensor.extract %31[%50] : tensor<64xi32>
      %51 = arith.index_cast %extracted : i32 to index
      %subview_12 = memref.subview %reinterpret_cast_4[0, %51, 0, 0] [1, 1, 1, 64] [1, 1, 1, 1] : memref<1x256x1x80xf16, strided<[20480, 80, 80, 1]>> to memref<64xf16, strided<[1], offset: ?>>
      %alloc_13 = memref.alloc() : memref<64xf16>
      hivm.hir.load ins(%subview_12 : memref<64xf16, strided<[1], offset: ?>>) outs(%alloc_13 : memref<64xf16>) init_out_buffer = false may_implicit_transpose_with_last_axis = false
      %52 = bufferization.to_tensor %alloc_13 restrict : memref<64xf16>
      %inserted_slice = tensor.insert_slice %52 into %arg17[%50, 0] [1, 64] [1, 1] : tensor<64xf16> into tensor<64x64xf16>
      %subview_14 = memref.subview %reinterpret_cast_4[0, %51, 0, 64] [1, 1, 1, 16] [1, 1, 1, 1] : memref<1x256x1x80xf16, strided<[20480, 80, 80, 1]>> to memref<16xf16, strided<[1], offset: ?>>
      %alloc_15 = memref.alloc() : memref<16xf16>
      hivm.hir.load ins(%subview_14 : memref<16xf16, strided<[1], offset: ?>>) outs(%alloc_15 : memref<16xf16>) init_out_buffer = false may_implicit_transpose_with_last_axis = false
      %53 = bufferization.to_tensor %alloc_15 restrict : memref<16xf16>
      %inserted_slice_16 = tensor.insert_slice %53 into %arg18[%50, 0] [1, 16] [1, 1] : tensor<16xf16> into tensor<64x16xf16>
      scf.yield %inserted_slice, %inserted_slice_16 : tensor<64x64xf16>, tensor<64x16xf16>
    }
    %33 = hivm.hir.mmadL1 {b_transpose} ins(%13, %32#0, %true, %c64, %c64, %c64 : tensor<64x64xf16>, tensor<64x64xf16>, i1, index, index, index) outs(%arg12 : tensor<64x64xf32>) -> tensor<64x64xf32>
    %34 = hivm.hir.mmadL1 {b_transpose} ins(%14, %32#1, %false, %c64, %c64, %c16 : tensor<64x16xf16>, tensor<64x16xf16>, i1, index, index, index) outs(%33 : tensor<64x64xf32>) -> tensor<64x64xf32>
    %35 = hivm.hir.vmul ins(%34, %12 : tensor<64x64xf32>, tensor<64x64xf32>) outs(%34 : tensor<64x64xf32>) -> tensor<64x64xf32>
    %36 = hivm.hir.vreduce <max> ins(%35 : tensor<64x64xf32>) outs(%24 : tensor<64x1xf32>) reduce_dims = [1] -> tensor<64x1xf32>
    %37 = hivm.hir.vmax ins(%arg13, %36 : tensor<64x1xf32>, tensor<64x1xf32>) outs(%28 : tensor<64x1xf32>) -> tensor<64x1xf32>
    %38 = hivm.hir.vsub ins(%arg13, %37 : tensor<64x1xf32>, tensor<64x1xf32>) outs(%27 : tensor<64x1xf32>) -> tensor<64x1xf32>
    %39 = hivm.hir.vexp ins(%38 : tensor<64x1xf32>) outs(%23 : tensor<64x1xf32>) -> tensor<64x1xf32>
    %40 = hivm.hir.vsub ins(%35, %37 : tensor<64x64xf32>, tensor<64x1xf32>) outs(%26 : tensor<64x64xf32>) broadcast = [1] -> tensor<64x64xf32>
    %41 = hivm.hir.vexp ins(%40 : tensor<64x64xf32>) outs(%35 : tensor<64x64xf32>) -> tensor<64x64xf32>
    %42 = hivm.hir.vreduce <sum> ins(%41 : tensor<64x64xf32>) outs(%25 : tensor<64x1xf32>) reduce_dims = [1] -> tensor<64x1xf32>
    %43 = hivm.hir.vmul ins(%arg14, %39 : tensor<64x1xf32>, tensor<64x1xf32>) outs(%arg14 : tensor<64x1xf32>) -> tensor<64x1xf32>
    %44 = hivm.hir.vadd ins(%43, %42 : tensor<64x1xf32>, tensor<64x1xf32>) outs(%43 : tensor<64x1xf32>) -> tensor<64x1xf32>
    %45 = hivm.hir.vmul ins(%arg15, %39 : tensor<64x64xf32>, tensor<64x1xf32>) outs(%arg15 : tensor<64x64xf32>) broadcast = [1] -> tensor<64x64xf32>
    %46 = hivm.hir.vcast ins(%41 : tensor<64x64xf32>) outs(%22 : tensor<64x64xf16>) -> tensor<64x64xf16>
    %47 = hivm.hir.vbrc ins(%cst_1 : f32) outs(%38 : tensor<64x1xf32>) -> tensor<64x1xf32>
    %48 = hivm.hir.vadd ins(%47, %37 : tensor<64x1xf32>, tensor<64x1xf32>) outs(%arg13 : tensor<64x1xf32>) -> tensor<64x1xf32>
    %49 = hivm.hir.mmadL1 ins(%46, %32#0, %false, %c64, %c64, %c64 : tensor<64x64xf16>, tensor<64x64xf16>, i1, index, index, index) outs(%45 : tensor<64x64xf32>) -> tensor<64x64xf32>
    scf.yield %41, %48, %44, %49 : tensor<64x64xf32>, tensor<64x1xf32>, tensor<64x1xf32>, tensor<64x64xf32>
  }
  %16 = hivm.hir.vdiv ins(%15#3, %15#2 : tensor<64x64xf32>, tensor<64x1xf32>) outs(%15#3 : tensor<64x64xf32>) broadcast = [1] -> tensor<64x64xf32>
  %17 = hivm.hir.vcast ins(%16 : tensor<64x64xf32>) outs(%6 : tensor<64x64xf16>) -> tensor<64x64xf16>
  %subview_8 = memref.subview %reinterpret_cast_5[0, 0, 0, 0] [1, 1, 64, 64] [1, 1, 1, 1] : memref<1x1x64x64xf16, strided<[4096, 4096, 64, 1]>> to memref<64x64xf16, strided<[64, 1]>>
  hivm.hir.store ins(%17 : tensor<64x64xf16>) outs(%subview_8 : memref<64x64xf16, strided<[64, 1]>>)
  %18 = hivm.hir.vln ins(%15#2 : tensor<64x1xf32>) outs(%7 : tensor<64x1xf32>) -> tensor<64x1xf32>
  %19 = hivm.hir.vadd ins(%18, %15#1 : tensor<64x1xf32>, tensor<64x1xf32>) outs(%18 : tensor<64x1xf32>) -> tensor<64x1xf32>
  %subview_9 = memref.subview %reinterpret_cast_3[0, 0, 0, 0] [1, 1, 64, 1] [1, 1, 1, 1] : memref<1x1x64x1xf32, strided<[64, 64, 1, 1]>> to memref<64x1xf32, strided<[1, 1]>>
  hivm.hir.store ins(%19 : tensor<64x1xf32>) outs(%subview_9 : memref<64x1xf32, strided<[1, 1]>>)
  return
}

// -----// IR Dump After PropagateReshape (propagate-reshape) //----- //
func.func @main(%arg0: i64 {hacc.arg_type = #hacc.arg_type<ffts_base_address>}, %arg1: memref<?xi8> {hacc.arg_type = #hacc.arg_type<sync_block_lock>}, %arg2: memref<?xi8> {hacc.arg_type = #hacc.arg_type<workspace>}, %arg3: memref<?xf16>, %arg4: memref<?xf16>, %arg5: memref<?xi32>, %arg6: memref<?xf16>, %arg7: memref<?xf32>, %arg8: i32, %arg9: i32, %arg10: i32) attributes {SyncBlockLockArgIdx = 0 : i64, WorkspaceArgIdx = 1 : i64, func_dyn_memref_args = dense<[false, true, true, true, true, true, true, true, false, false, false]> : vector<11xi1>, hacc.entry, hacc.function_kind = #hacc.function_kind<DEVICE>, hivm.func_core_type = #hivm.func_core_type<MIX>, hivm.part_of_mix, mix_mode = "mix"} {
  %c1_i32 = arith.constant 1 : i32
  %c16 = arith.constant 16 : index
  %cst = arith.constant 0.000000e+00 : f32
  %c4096 = arith.constant 4096 : index
  %c20480 = arith.constant 20480 : index
  %c64 = arith.constant 64 : index
  %c256 = arith.constant 256 : index
  %c5120 = arith.constant 5120 : index
  %c80 = arith.constant 80 : index
  %c1 = arith.constant 1 : index
  %false = arith.constant false
  %true = arith.constant true
  %c4_i32 = arith.constant 4 : i32
  %cst_0 = arith.constant 0.111803398 : f32
  %cst_1 = arith.constant 0xFF800000 : f32
  %c0_i32 = arith.constant 0 : i32
  %c64_i32 = arith.constant 64 : i32
  hivm.hir.set_mask_norm
  %0 = arith.muli %arg8, %arg9 : i32
  %1 = arith.muli %0, %arg10 : i32
  annotation.mark %1 {logical_block_num} : i32
  hivm.hir.set_ffts_base_addr %arg0
  %reinterpret_cast = memref.reinterpret_cast %arg3 to offset: [0], sizes: [1, 1, 64, 80], strides: [%c5120, %c5120, %c80, %c1] : memref<?xf16> to memref<1x1x64x80xf16, strided<[5120, 5120, 80, 1]>>
  %reinterpret_cast_2 = memref.reinterpret_cast %arg5 to offset: [0], sizes: [1, 1, 1, 256], strides: [%c256, %c256, %c256, %c1] : memref<?xi32> to memref<1x1x1x256xi32, strided<[256, 256, 256, 1]>>
  %reinterpret_cast_3 = memref.reinterpret_cast %arg7 to offset: [0], sizes: [1, 1, 64, 1], strides: [%c64, %c64, %c1, %c1] : memref<?xf32> to memref<1x1x64x1xf32, strided<[64, 64, 1, 1]>>
  %reinterpret_cast_4 = memref.reinterpret_cast %arg4 to offset: [0], sizes: [1, 256, 1, 80], strides: [%c20480, %c80, %c80, %c1] : memref<?xf16> to memref<1x256x1x80xf16, strided<[20480, 80, 80, 1]>>
  %reinterpret_cast_5 = memref.reinterpret_cast %arg6 to offset: [0], sizes: [1, 1, 64, 64], strides: [%c4096, %c4096, %c64, %c1] : memref<?xf16> to memref<1x1x64x64xf16, strided<[4096, 4096, 64, 1]>>
  %2 = tensor.empty() : tensor<64x1xf32>
  %3 = tensor.empty() : tensor<64x1xf32>
  %4 = tensor.empty() : tensor<64x64xf32>
  %5 = tensor.empty() : tensor<64x64xf32>
  %6 = tensor.empty() : tensor<64x64xf16>
  %7 = tensor.empty() : tensor<64x1xf32>
  %8 = tensor.empty() : tensor<64x64xf32>
  %9 = hivm.hir.vbrc ins(%cst : f32) outs(%4 : tensor<64x64xf32>) -> tensor<64x64xf32>
  %10 = hivm.hir.vbrc ins(%cst : f32) outs(%3 : tensor<64x1xf32>) -> tensor<64x1xf32>
  %11 = hivm.hir.vbrc ins(%cst_1 : f32) outs(%2 : tensor<64x1xf32>) -> tensor<64x1xf32>
  %12 = hivm.hir.vbrc ins(%cst_0 : f32) outs(%5 : tensor<64x64xf32>) -> tensor<64x64xf32>
  %subview = memref.subview %reinterpret_cast[0, 0, 0, 0] [1, 1, 64, 64] [1, 1, 1, 1] : memref<1x1x64x80xf16, strided<[5120, 5120, 80, 1]>> to memref<64x64xf16, strided<[80, 1]>>
  %alloc = memref.alloc() : memref<64x64xf16>
  hivm.hir.load ins(%subview : memref<64x64xf16, strided<[80, 1]>>) outs(%alloc : memref<64x64xf16>) init_out_buffer = false may_implicit_transpose_with_last_axis = false
  %13 = bufferization.to_tensor %alloc restrict : memref<64x64xf16>
  %subview_6 = memref.subview %reinterpret_cast[0, 0, 0, 64] [1, 1, 64, 16] [1, 1, 1, 1] : memref<1x1x64x80xf16, strided<[5120, 5120, 80, 1]>> to memref<64x16xf16, strided<[80, 1], offset: 64>>
  %alloc_7 = memref.alloc() : memref<64x16xf16>
  hivm.hir.load ins(%subview_6 : memref<64x16xf16, strided<[80, 1], offset: 64>>) outs(%alloc_7 : memref<64x16xf16>) init_out_buffer = false may_implicit_transpose_with_last_axis = false
  %14 = bufferization.to_tensor %alloc_7 restrict : memref<64x16xf16>
  %15:4 = scf.for %arg11 = %c0_i32 to %c4_i32 step %c1_i32 iter_args(%arg12 = %8, %arg13 = %11, %arg14 = %10, %arg15 = %9) -> (tensor<64x64xf32>, tensor<64x1xf32>, tensor<64x1xf32>, tensor<64x64xf32>)  : i32 {
    %20 = tensor.empty() : tensor<64x64xf16>
    %21 = tensor.empty() : tensor<64x16xf16>
    %22 = tensor.empty() : tensor<64x64xf16>
    %23 = tensor.empty() : tensor<64x1xf32>
    %24 = tensor.empty() : tensor<64x1xf32>
    %25 = tensor.empty() : tensor<64x1xf32>
    %26 = tensor.empty() : tensor<64x64xf32>
    %27 = tensor.empty() : tensor<64x1xf32>
    %28 = tensor.empty() : tensor<64x1xf32>
    %29 = arith.muli %arg11, %c64_i32 : i32
    %30 = arith.index_cast %29 : i32 to index
    %subview_10 = memref.subview %reinterpret_cast_2[0, 0, 0, %30] [1, 1, 1, 64] [1, 1, 1, 1] : memref<1x1x1x256xi32, strided<[256, 256, 256, 1]>> to memref<64xi32, strided<[1], offset: ?>>
    %alloc_11 = memref.alloc() : memref<64xi32>
    hivm.hir.load ins(%subview_10 : memref<64xi32, strided<[1], offset: ?>>) outs(%alloc_11 : memref<64xi32>) init_out_buffer = false may_implicit_transpose_with_last_axis = false
    %31 = bufferization.to_tensor %alloc_11 restrict : memref<64xi32>
    %32:2 = scf.for %arg16 = %c0_i32 to %c64_i32 step %c1_i32 iter_args(%arg17 = %20, %arg18 = %21) -> (tensor<64x64xf16>, tensor<64x16xf16>)  : i32 {
      %50 = arith.index_cast %arg16 : i32 to index
      %extracted = tensor.extract %31[%50] : tensor<64xi32>
      %51 = arith.index_cast %extracted : i32 to index
      %subview_12 = memref.subview %reinterpret_cast_4[0, %51, 0, 0] [1, 1, 1, 64] [1, 1, 1, 1] : memref<1x256x1x80xf16, strided<[20480, 80, 80, 1]>> to memref<64xf16, strided<[1], offset: ?>>
      %alloc_13 = memref.alloc() : memref<64xf16>
      hivm.hir.load ins(%subview_12 : memref<64xf16, strided<[1], offset: ?>>) outs(%alloc_13 : memref<64xf16>) init_out_buffer = false may_implicit_transpose_with_last_axis = false
      %52 = bufferization.to_tensor %alloc_13 restrict : memref<64xf16>
      %inserted_slice = tensor.insert_slice %52 into %arg17[%50, 0] [1, 64] [1, 1] : tensor<64xf16> into tensor<64x64xf16>
      %subview_14 = memref.subview %reinterpret_cast_4[0, %51, 0, 64] [1, 1, 1, 16] [1, 1, 1, 1] : memref<1x256x1x80xf16, strided<[20480, 80, 80, 1]>> to memref<16xf16, strided<[1], offset: ?>>
      %alloc_15 = memref.alloc() : memref<16xf16>
      hivm.hir.load ins(%subview_14 : memref<16xf16, strided<[1], offset: ?>>) outs(%alloc_15 : memref<16xf16>) init_out_buffer = false may_implicit_transpose_with_last_axis = false
      %53 = bufferization.to_tensor %alloc_15 restrict : memref<16xf16>
      %inserted_slice_16 = tensor.insert_slice %53 into %arg18[%50, 0] [1, 16] [1, 1] : tensor<16xf16> into tensor<64x16xf16>
      scf.yield %inserted_slice, %inserted_slice_16 : tensor<64x64xf16>, tensor<64x16xf16>
    }
    %33 = hivm.hir.mmadL1 {b_transpose} ins(%13, %32#0, %true, %c64, %c64, %c64 : tensor<64x64xf16>, tensor<64x64xf16>, i1, index, index, index) outs(%arg12 : tensor<64x64xf32>) -> tensor<64x64xf32>
    %34 = hivm.hir.mmadL1 {b_transpose} ins(%14, %32#1, %false, %c64, %c64, %c16 : tensor<64x16xf16>, tensor<64x16xf16>, i1, index, index, index) outs(%33 : tensor<64x64xf32>) -> tensor<64x64xf32>
    %35 = hivm.hir.vmul ins(%34, %12 : tensor<64x64xf32>, tensor<64x64xf32>) outs(%34 : tensor<64x64xf32>) -> tensor<64x64xf32>
    %36 = hivm.hir.vreduce <max> ins(%35 : tensor<64x64xf32>) outs(%24 : tensor<64x1xf32>) reduce_dims = [1] -> tensor<64x1xf32>
    %37 = hivm.hir.vmax ins(%arg13, %36 : tensor<64x1xf32>, tensor<64x1xf32>) outs(%28 : tensor<64x1xf32>) -> tensor<64x1xf32>
    %38 = hivm.hir.vsub ins(%arg13, %37 : tensor<64x1xf32>, tensor<64x1xf32>) outs(%27 : tensor<64x1xf32>) -> tensor<64x1xf32>
    %39 = hivm.hir.vexp ins(%38 : tensor<64x1xf32>) outs(%23 : tensor<64x1xf32>) -> tensor<64x1xf32>
    %40 = hivm.hir.vsub ins(%35, %37 : tensor<64x64xf32>, tensor<64x1xf32>) outs(%26 : tensor<64x64xf32>) broadcast = [1] -> tensor<64x64xf32>
    %41 = hivm.hir.vexp ins(%40 : tensor<64x64xf32>) outs(%35 : tensor<64x64xf32>) -> tensor<64x64xf32>
    %42 = hivm.hir.vreduce <sum> ins(%41 : tensor<64x64xf32>) outs(%25 : tensor<64x1xf32>) reduce_dims = [1] -> tensor<64x1xf32>
    %43 = hivm.hir.vmul ins(%arg14, %39 : tensor<64x1xf32>, tensor<64x1xf32>) outs(%arg14 : tensor<64x1xf32>) -> tensor<64x1xf32>
    %44 = hivm.hir.vadd ins(%43, %42 : tensor<64x1xf32>, tensor<64x1xf32>) outs(%43 : tensor<64x1xf32>) -> tensor<64x1xf32>
    %45 = hivm.hir.vmul ins(%arg15, %39 : tensor<64x64xf32>, tensor<64x1xf32>) outs(%arg15 : tensor<64x64xf32>) broadcast = [1] -> tensor<64x64xf32>
    %46 = hivm.hir.vcast ins(%41 : tensor<64x64xf32>) outs(%22 : tensor<64x64xf16>) -> tensor<64x64xf16>
    %47 = hivm.hir.vbrc ins(%cst : f32) outs(%38 : tensor<64x1xf32>) -> tensor<64x1xf32>
    %48 = hivm.hir.vadd ins(%47, %37 : tensor<64x1xf32>, tensor<64x1xf32>) outs(%arg13 : tensor<64x1xf32>) -> tensor<64x1xf32>
    %49 = hivm.hir.mmadL1 ins(%46, %32#0, %false, %c64, %c64, %c64 : tensor<64x64xf16>, tensor<64x64xf16>, i1, index, index, index) outs(%45 : tensor<64x64xf32>) -> tensor<64x64xf32>
    scf.yield %41, %48, %44, %49 : tensor<64x64xf32>, tensor<64x1xf32>, tensor<64x1xf32>, tensor<64x64xf32>
  }
  %16 = hivm.hir.vdiv ins(%15#3, %15#2 : tensor<64x64xf32>, tensor<64x1xf32>) outs(%15#3 : tensor<64x64xf32>) broadcast = [1] -> tensor<64x64xf32>
  %17 = hivm.hir.vcast ins(%16 : tensor<64x64xf32>) outs(%6 : tensor<64x64xf16>) -> tensor<64x64xf16>
  %subview_8 = memref.subview %reinterpret_cast_5[0, 0, 0, 0] [1, 1, 64, 64] [1, 1, 1, 1] : memref<1x1x64x64xf16, strided<[4096, 4096, 64, 1]>> to memref<64x64xf16, strided<[64, 1]>>
  hivm.hir.store ins(%17 : tensor<64x64xf16>) outs(%subview_8 : memref<64x64xf16, strided<[64, 1]>>)
  %18 = hivm.hir.vln ins(%15#2 : tensor<64x1xf32>) outs(%7 : tensor<64x1xf32>) -> tensor<64x1xf32>
  %19 = hivm.hir.vadd ins(%18, %15#1 : tensor<64x1xf32>, tensor<64x1xf32>) outs(%18 : tensor<64x1xf32>) -> tensor<64x1xf32>
  %subview_9 = memref.subview %reinterpret_cast_3[0, 0, 0, 0] [1, 1, 64, 1] [1, 1, 1, 1] : memref<1x1x64x1xf32, strided<[64, 64, 1, 1]>> to memref<64x1xf32, strided<[1, 1]>>
  hivm.hir.store ins(%19 : tensor<64x1xf32>) outs(%subview_9 : memref<64x1xf32, strided<[1, 1]>>)
  return
}

// -----// IR Dump After RemoveRedundantLoopInit (scf-remove-redundant-loop-init) //----- //
module attributes {dlti.target_system_spec = #dlti.target_system_spec<"NPU" : #hacc.target_device_spec<#dlti.dl_entry<"AI_CORE_COUNT", 24 : i32>, #dlti.dl_entry<"CUBE_CORE_COUNT", 24 : i32>, #dlti.dl_entry<"VECTOR_CORE_COUNT", 48 : i32>, #dlti.dl_entry<"UB_SIZE", 1572864 : i32>, #dlti.dl_entry<"L1_SIZE", 4194304 : i32>, #dlti.dl_entry<"L0A_SIZE", 524288 : i32>, #dlti.dl_entry<"L0B_SIZE", 524288 : i32>, #dlti.dl_entry<"L0C_SIZE", 1048576 : i32>, #dlti.dl_entry<"UB_ALIGN_SIZE", 256 : i32>, #dlti.dl_entry<"L1_ALIGN_SIZE", 256 : i32>, #dlti.dl_entry<"L0C_ALIGN_SIZE", 4096 : i32>>>, hivm.module_core_type = #hivm.module_core_type<MIX>, memref.memref_as_ptr} {
  func.func @main(%arg0: i64 {hacc.arg_type = #hacc.arg_type<ffts_base_address>}, %arg1: memref<?xi8> {hacc.arg_type = #hacc.arg_type<sync_block_lock>}, %arg2: memref<?xi8> {hacc.arg_type = #hacc.arg_type<workspace>}, %arg3: memref<?xf16>, %arg4: memref<?xf16>, %arg5: memref<?xi32>, %arg6: memref<?xf16>, %arg7: memref<?xf32>, %arg8: i32, %arg9: i32, %arg10: i32) attributes {SyncBlockLockArgIdx = 0 : i64, WorkspaceArgIdx = 1 : i64, func_dyn_memref_args = dense<[false, true, true, true, true, true, true, true, false, false, false]> : vector<11xi1>, hacc.entry, hacc.function_kind = #hacc.function_kind<DEVICE>, hivm.func_core_type = #hivm.func_core_type<MIX>, hivm.part_of_mix, mix_mode = "mix"} {
    %c1_i32 = arith.constant 1 : i32
    %c16 = arith.constant 16 : index
    %cst = arith.constant 0.000000e+00 : f32
    %c4096 = arith.constant 4096 : index
    %c20480 = arith.constant 20480 : index
    %c64 = arith.constant 64 : index
    %c256 = arith.constant 256 : index
    %c5120 = arith.constant 5120 : index
    %c80 = arith.constant 80 : index
    %c1 = arith.constant 1 : index
    %false = arith.constant false
    %true = arith.constant true
    %c4_i32 = arith.constant 4 : i32
    %cst_0 = arith.constant 0.111803398 : f32
    %cst_1 = arith.constant 0xFF800000 : f32
    %c0_i32 = arith.constant 0 : i32
    %c64_i32 = arith.constant 64 : i32
    hivm.hir.set_mask_norm
    %0 = arith.muli %arg8, %arg9 : i32
    %1 = arith.muli %0, %arg10 : i32
    annotation.mark %1 {logical_block_num} : i32
    hivm.hir.set_ffts_base_addr %arg0
    %reinterpret_cast = memref.reinterpret_cast %arg3 to offset: [0], sizes: [1, 1, 64, 80], strides: [%c5120, %c5120, %c80, %c1] : memref<?xf16> to memref<1x1x64x80xf16, strided<[5120, 5120, 80, 1]>>
    %reinterpret_cast_2 = memref.reinterpret_cast %arg5 to offset: [0], sizes: [1, 1, 1, 256], strides: [%c256, %c256, %c256, %c1] : memref<?xi32> to memref<1x1x1x256xi32, strided<[256, 256, 256, 1]>>
    %reinterpret_cast_3 = memref.reinterpret_cast %arg7 to offset: [0], sizes: [1, 1, 64, 1], strides: [%c64, %c64, %c1, %c1] : memref<?xf32> to memref<1x1x64x1xf32, strided<[64, 64, 1, 1]>>
    %reinterpret_cast_4 = memref.reinterpret_cast %arg4 to offset: [0], sizes: [1, 256, 1, 80], strides: [%c20480, %c80, %c80, %c1] : memref<?xf16> to memref<1x256x1x80xf16, strided<[20480, 80, 80, 1]>>
    %reinterpret_cast_5 = memref.reinterpret_cast %arg6 to offset: [0], sizes: [1, 1, 64, 64], strides: [%c4096, %c4096, %c64, %c1] : memref<?xf16> to memref<1x1x64x64xf16, strided<[4096, 4096, 64, 1]>>
    %2 = tensor.empty() : tensor<64x1xf32>
    %3 = tensor.empty() : tensor<64x1xf32>
    %4 = tensor.empty() : tensor<64x64xf32>
    %5 = tensor.empty() : tensor<64x64xf32>
    %6 = tensor.empty() : tensor<64x64xf16>
    %7 = tensor.empty() : tensor<64x1xf32>
    %8 = tensor.empty() : tensor<64x64xf32>
    %9 = hivm.hir.vbrc ins(%cst : f32) outs(%4 : tensor<64x64xf32>) -> tensor<64x64xf32>
    %10 = hivm.hir.vbrc ins(%cst : f32) outs(%3 : tensor<64x1xf32>) -> tensor<64x1xf32>
    %11 = hivm.hir.vbrc ins(%cst_1 : f32) outs(%2 : tensor<64x1xf32>) -> tensor<64x1xf32>
    %12 = hivm.hir.vbrc ins(%cst_0 : f32) outs(%5 : tensor<64x64xf32>) -> tensor<64x64xf32>
    %subview = memref.subview %reinterpret_cast[0, 0, 0, 0] [1, 1, 64, 64] [1, 1, 1, 1] : memref<1x1x64x80xf16, strided<[5120, 5120, 80, 1]>> to memref<64x64xf16, strided<[80, 1]>>
    %alloc = memref.alloc() : memref<64x64xf16>
    hivm.hir.load ins(%subview : memref<64x64xf16, strided<[80, 1]>>) outs(%alloc : memref<64x64xf16>) init_out_buffer = false may_implicit_transpose_with_last_axis = false
    %13 = bufferization.to_tensor %alloc restrict : memref<64x64xf16>
    %subview_6 = memref.subview %reinterpret_cast[0, 0, 0, 64] [1, 1, 64, 16] [1, 1, 1, 1] : memref<1x1x64x80xf16, strided<[5120, 5120, 80, 1]>> to memref<64x16xf16, strided<[80, 1], offset: 64>>
    %alloc_7 = memref.alloc() : memref<64x16xf16>
    hivm.hir.load ins(%subview_6 : memref<64x16xf16, strided<[80, 1], offset: 64>>) outs(%alloc_7 : memref<64x16xf16>) init_out_buffer = false may_implicit_transpose_with_last_axis = false
    %14 = bufferization.to_tensor %alloc_7 restrict : memref<64x16xf16>
    %15:4 = scf.for %arg11 = %c0_i32 to %c4_i32 step %c1_i32 iter_args(%arg12 = %8, %arg13 = %11, %arg14 = %10, %arg15 = %9) -> (tensor<64x64xf32>, tensor<64x1xf32>, tensor<64x1xf32>, tensor<64x64xf32>)  : i32 {
      %20 = tensor.empty() : tensor<64x64xf16>
      %21 = tensor.empty() : tensor<64x16xf16>
      %22 = tensor.empty() : tensor<64x64xf16>
      %23 = tensor.empty() : tensor<64x1xf32>
      %24 = tensor.empty() : tensor<64x1xf32>
      %25 = tensor.empty() : tensor<64x1xf32>
      %26 = tensor.empty() : tensor<64x64xf32>
      %27 = tensor.empty() : tensor<64x1xf32>
      %28 = tensor.empty() : tensor<64x1xf32>
      %29 = arith.muli %arg11, %c64_i32 : i32
      %30 = arith.index_cast %29 : i32 to index
      %subview_10 = memref.subview %reinterpret_cast_2[0, 0, 0, %30] [1, 1, 1, 64] [1, 1, 1, 1] : memref<1x1x1x256xi32, strided<[256, 256, 256, 1]>> to memref<64xi32, strided<[1], offset: ?>>
      %alloc_11 = memref.alloc() : memref<64xi32>
      hivm.hir.load ins(%subview_10 : memref<64xi32, strided<[1], offset: ?>>) outs(%alloc_11 : memref<64xi32>) init_out_buffer = false may_implicit_transpose_with_last_axis = false
      %31 = bufferization.to_tensor %alloc_11 restrict : memref<64xi32>
      %32:2 = scf.for %arg16 = %c0_i32 to %c64_i32 step %c1_i32 iter_args(%arg17 = %20, %arg18 = %21) -> (tensor<64x64xf16>, tensor<64x16xf16>)  : i32 {
        %50 = arith.index_cast %arg16 : i32 to index
        %extracted = tensor.extract %31[%50] : tensor<64xi32>
        %51 = arith.index_cast %extracted : i32 to index
        %subview_12 = memref.subview %reinterpret_cast_4[0, %51, 0, 0] [1, 1, 1, 64] [1, 1, 1, 1] : memref<1x256x1x80xf16, strided<[20480, 80, 80, 1]>> to memref<64xf16, strided<[1], offset: ?>>
        %alloc_13 = memref.alloc() : memref<64xf16>
        hivm.hir.load ins(%subview_12 : memref<64xf16, strided<[1], offset: ?>>) outs(%alloc_13 : memref<64xf16>) init_out_buffer = false may_implicit_transpose_with_last_axis = false
        %52 = bufferization.to_tensor %alloc_13 restrict : memref<64xf16>
        %inserted_slice = tensor.insert_slice %52 into %arg17[%50, 0] [1, 64] [1, 1] : tensor<64xf16> into tensor<64x64xf16>
        %subview_14 = memref.subview %reinterpret_cast_4[0, %51, 0, 64] [1, 1, 1, 16] [1, 1, 1, 1] : memref<1x256x1x80xf16, strided<[20480, 80, 80, 1]>> to memref<16xf16, strided<[1], offset: ?>>
        %alloc_15 = memref.alloc() : memref<16xf16>
        hivm.hir.load ins(%subview_14 : memref<16xf16, strided<[1], offset: ?>>) outs(%alloc_15 : memref<16xf16>) init_out_buffer = false may_implicit_transpose_with_last_axis = false
        %53 = bufferization.to_tensor %alloc_15 restrict : memref<16xf16>
        %inserted_slice_16 = tensor.insert_slice %53 into %arg18[%50, 0] [1, 16] [1, 1] : tensor<16xf16> into tensor<64x16xf16>
        scf.yield %inserted_slice, %inserted_slice_16 : tensor<64x64xf16>, tensor<64x16xf16>
      }
      %33 = hivm.hir.mmadL1 {b_transpose} ins(%13, %32#0, %true, %c64, %c64, %c64 : tensor<64x64xf16>, tensor<64x64xf16>, i1, index, index, index) outs(%arg12 : tensor<64x64xf32>) -> tensor<64x64xf32>
      %34 = hivm.hir.mmadL1 {b_transpose} ins(%14, %32#1, %false, %c64, %c64, %c16 : tensor<64x16xf16>, tensor<64x16xf16>, i1, index, index, index) outs(%33 : tensor<64x64xf32>) -> tensor<64x64xf32>
      %35 = hivm.hir.vmul ins(%34, %12 : tensor<64x64xf32>, tensor<64x64xf32>) outs(%34 : tensor<64x64xf32>) -> tensor<64x64xf32>
      %36 = hivm.hir.vreduce <max> ins(%35 : tensor<64x64xf32>) outs(%24 : tensor<64x1xf32>) reduce_dims = [1] -> tensor<64x1xf32>
      %37 = hivm.hir.vmax ins(%arg13, %36 : tensor<64x1xf32>, tensor<64x1xf32>) outs(%28 : tensor<64x1xf32>) -> tensor<64x1xf32>
      %38 = hivm.hir.vsub ins(%arg13, %37 : tensor<64x1xf32>, tensor<64x1xf32>) outs(%27 : tensor<64x1xf32>) -> tensor<64x1xf32>
      %39 = hivm.hir.vexp ins(%38 : tensor<64x1xf32>) outs(%23 : tensor<64x1xf32>) -> tensor<64x1xf32>
      %40 = hivm.hir.vsub ins(%35, %37 : tensor<64x64xf32>, tensor<64x1xf32>) outs(%26 : tensor<64x64xf32>) broadcast = [1] -> tensor<64x64xf32>
      %41 = hivm.hir.vexp ins(%40 : tensor<64x64xf32>) outs(%35 : tensor<64x64xf32>) -> tensor<64x64xf32>
      %42 = hivm.hir.vreduce <sum> ins(%41 : tensor<64x64xf32>) outs(%25 : tensor<64x1xf32>) reduce_dims = [1] -> tensor<64x1xf32>
      %43 = hivm.hir.vmul ins(%arg14, %39 : tensor<64x1xf32>, tensor<64x1xf32>) outs(%arg14 : tensor<64x1xf32>) -> tensor<64x1xf32>
      %44 = hivm.hir.vadd ins(%43, %42 : tensor<64x1xf32>, tensor<64x1xf32>) outs(%43 : tensor<64x1xf32>) -> tensor<64x1xf32>
      %45 = hivm.hir.vmul ins(%arg15, %39 : tensor<64x64xf32>, tensor<64x1xf32>) outs(%arg15 : tensor<64x64xf32>) broadcast = [1] -> tensor<64x64xf32>
      %46 = hivm.hir.vcast ins(%41 : tensor<64x64xf32>) outs(%22 : tensor<64x64xf16>) -> tensor<64x64xf16>
      %47 = hivm.hir.vbrc ins(%cst : f32) outs(%38 : tensor<64x1xf32>) -> tensor<64x1xf32>
      %48 = hivm.hir.vadd ins(%47, %37 : tensor<64x1xf32>, tensor<64x1xf32>) outs(%arg13 : tensor<64x1xf32>) -> tensor<64x1xf32>
      %49 = hivm.hir.mmadL1 ins(%46, %32#0, %false, %c64, %c64, %c64 : tensor<64x64xf16>, tensor<64x64xf16>, i1, index, index, index) outs(%45 : tensor<64x64xf32>) -> tensor<64x64xf32>
      scf.yield %41, %48, %44, %49 : tensor<64x64xf32>, tensor<64x1xf32>, tensor<64x1xf32>, tensor<64x64xf32>
    }
    %16 = hivm.hir.vdiv ins(%15#3, %15#2 : tensor<64x64xf32>, tensor<64x1xf32>) outs(%15#3 : tensor<64x64xf32>) broadcast = [1] -> tensor<64x64xf32>
    %17 = hivm.hir.vcast ins(%16 : tensor<64x64xf32>) outs(%6 : tensor<64x64xf16>) -> tensor<64x64xf16>
    %subview_8 = memref.subview %reinterpret_cast_5[0, 0, 0, 0] [1, 1, 64, 64] [1, 1, 1, 1] : memref<1x1x64x64xf16, strided<[4096, 4096, 64, 1]>> to memref<64x64xf16, strided<[64, 1]>>
    hivm.hir.store ins(%17 : tensor<64x64xf16>) outs(%subview_8 : memref<64x64xf16, strided<[64, 1]>>)
    %18 = hivm.hir.vln ins(%15#2 : tensor<64x1xf32>) outs(%7 : tensor<64x1xf32>) -> tensor<64x1xf32>
    %19 = hivm.hir.vadd ins(%18, %15#1 : tensor<64x1xf32>, tensor<64x1xf32>) outs(%18 : tensor<64x1xf32>) -> tensor<64x1xf32>
    %subview_9 = memref.subview %reinterpret_cast_3[0, 0, 0, 0] [1, 1, 64, 1] [1, 1, 1, 1] : memref<1x1x64x1xf32, strided<[64, 64, 1, 1]>> to memref<64x1xf32, strided<[1, 1]>>
    hivm.hir.store ins(%19 : tensor<64x1xf32>) outs(%subview_9 : memref<64x1xf32, strided<[1, 1]>>)
    return
  }
}


// -----// IR Dump After NormalizeMatmul (hivm-normalize-matmul) //----- //
module attributes {dlti.target_system_spec = #dlti.target_system_spec<"NPU" : #hacc.target_device_spec<#dlti.dl_entry<"AI_CORE_COUNT", 24 : i32>, #dlti.dl_entry<"CUBE_CORE_COUNT", 24 : i32>, #dlti.dl_entry<"VECTOR_CORE_COUNT", 48 : i32>, #dlti.dl_entry<"UB_SIZE", 1572864 : i32>, #dlti.dl_entry<"L1_SIZE", 4194304 : i32>, #dlti.dl_entry<"L0A_SIZE", 524288 : i32>, #dlti.dl_entry<"L0B_SIZE", 524288 : i32>, #dlti.dl_entry<"L0C_SIZE", 1048576 : i32>, #dlti.dl_entry<"UB_ALIGN_SIZE", 256 : i32>, #dlti.dl_entry<"L1_ALIGN_SIZE", 256 : i32>, #dlti.dl_entry<"L0C_ALIGN_SIZE", 4096 : i32>>>, hivm.module_core_type = #hivm.module_core_type<MIX>, memref.memref_as_ptr} {
  func.func @main(%arg0: i64 {hacc.arg_type = #hacc.arg_type<ffts_base_address>}, %arg1: memref<?xi8> {hacc.arg_type = #hacc.arg_type<sync_block_lock>}, %arg2: memref<?xi8> {hacc.arg_type = #hacc.arg_type<workspace>}, %arg3: memref<?xf16>, %arg4: memref<?xf16>, %arg5: memref<?xi32>, %arg6: memref<?xf16>, %arg7: memref<?xf32>, %arg8: i32, %arg9: i32, %arg10: i32) attributes {SyncBlockLockArgIdx = 0 : i64, WorkspaceArgIdx = 1 : i64, func_dyn_memref_args = dense<[false, true, true, true, true, true, true, true, false, false, false]> : vector<11xi1>, hacc.entry, hacc.function_kind = #hacc.function_kind<DEVICE>, hivm.func_core_type = #hivm.func_core_type<MIX>, hivm.part_of_mix, mix_mode = "mix"} {
    %c1_i32 = arith.constant 1 : i32
    %cst = arith.constant 0.000000e+00 : f32
    %c4096 = arith.constant 4096 : index
    %c20480 = arith.constant 20480 : index
    %c64 = arith.constant 64 : index
    %c256 = arith.constant 256 : index
    %c5120 = arith.constant 5120 : index
    %c80 = arith.constant 80 : index
    %c1 = arith.constant 1 : index
    %false = arith.constant false
    %true = arith.constant true
    %c4_i32 = arith.constant 4 : i32
    %cst_0 = arith.constant 0.111803398 : f32
    %cst_1 = arith.constant 0xFF800000 : f32
    %c0_i32 = arith.constant 0 : i32
    %c64_i32 = arith.constant 64 : i32
    hivm.hir.set_mask_norm
    %0 = arith.muli %arg8, %arg9 : i32
    %1 = arith.muli %0, %arg10 : i32
    annotation.mark %1 {logical_block_num} : i32
    hivm.hir.set_ffts_base_addr %arg0
    %reinterpret_cast = memref.reinterpret_cast %arg3 to offset: [0], sizes: [1, 1, 64, 80], strides: [%c5120, %c5120, %c80, %c1] : memref<?xf16> to memref<1x1x64x80xf16, strided<[5120, 5120, 80, 1]>>
    %reinterpret_cast_2 = memref.reinterpret_cast %arg5 to offset: [0], sizes: [1, 1, 1, 256], strides: [%c256, %c256, %c256, %c1] : memref<?xi32> to memref<1x1x1x256xi32, strided<[256, 256, 256, 1]>>
    %reinterpret_cast_3 = memref.reinterpret_cast %arg7 to offset: [0], sizes: [1, 1, 64, 1], strides: [%c64, %c64, %c1, %c1] : memref<?xf32> to memref<1x1x64x1xf32, strided<[64, 64, 1, 1]>>
    %reinterpret_cast_4 = memref.reinterpret_cast %arg4 to offset: [0], sizes: [1, 256, 1, 80], strides: [%c20480, %c80, %c80, %c1] : memref<?xf16> to memref<1x256x1x80xf16, strided<[20480, 80, 80, 1]>>
    %reinterpret_cast_5 = memref.reinterpret_cast %arg6 to offset: [0], sizes: [1, 1, 64, 64], strides: [%c4096, %c4096, %c64, %c1] : memref<?xf16> to memref<1x1x64x64xf16, strided<[4096, 4096, 64, 1]>>
    %2 = tensor.empty() : tensor<64x1xf32>
    %3 = tensor.empty() : tensor<64x1xf32>
    %4 = tensor.empty() : tensor<64x64xf32>
    %5 = tensor.empty() : tensor<64x64xf32>
    %6 = tensor.empty() : tensor<64x64xf16>
    %7 = tensor.empty() : tensor<64x1xf32>
    %8 = tensor.empty() : tensor<64x64xf32>
    %9 = hivm.hir.vbrc ins(%cst : f32) outs(%4 : tensor<64x64xf32>) -> tensor<64x64xf32>
    %10 = hivm.hir.vbrc ins(%cst : f32) outs(%3 : tensor<64x1xf32>) -> tensor<64x1xf32>
    %11 = hivm.hir.vbrc ins(%cst_1 : f32) outs(%2 : tensor<64x1xf32>) -> tensor<64x1xf32>
    %12 = hivm.hir.vbrc ins(%cst_0 : f32) outs(%5 : tensor<64x64xf32>) -> tensor<64x64xf32>
    %subview = memref.subview %reinterpret_cast[0, 0, 0, 0] [1, 1, 64, 64] [1, 1, 1, 1] : memref<1x1x64x80xf16, strided<[5120, 5120, 80, 1]>> to memref<64x64xf16, strided<[80, 1]>>
    %alloc = memref.alloc() : memref<64x64xf16>
    hivm.hir.load ins(%subview : memref<64x64xf16, strided<[80, 1]>>) outs(%alloc : memref<64x64xf16>) init_out_buffer = false may_implicit_transpose_with_last_axis = false
    %13 = bufferization.to_tensor %alloc restrict : memref<64x64xf16>
    %subview_6 = memref.subview %reinterpret_cast[0, 0, 0, 64] [1, 1, 64, 16] [1, 1, 1, 1] : memref<1x1x64x80xf16, strided<[5120, 5120, 80, 1]>> to memref<64x16xf16, strided<[80, 1], offset: 64>>
    %alloc_7 = memref.alloc() : memref<64x16xf16>
    hivm.hir.load ins(%subview_6 : memref<64x16xf16, strided<[80, 1], offset: 64>>) outs(%alloc_7 : memref<64x16xf16>) init_out_buffer = false may_implicit_transpose_with_last_axis = false
    %14 = bufferization.to_tensor %alloc_7 restrict : memref<64x16xf16>
    %15:4 = scf.for %arg11 = %c0_i32 to %c4_i32 step %c1_i32 iter_args(%arg12 = %8, %arg13 = %11, %arg14 = %10, %arg15 = %9) -> (tensor<64x64xf32>, tensor<64x1xf32>, tensor<64x1xf32>, tensor<64x64xf32>)  : i32 {
      %20 = tensor.empty() : tensor<64x64xf16>
      %21 = tensor.empty() : tensor<64x16xf16>
      %22 = tensor.empty() : tensor<64x64xf16>
      %23 = tensor.empty() : tensor<64x1xf32>
      %24 = tensor.empty() : tensor<64x1xf32>
      %25 = tensor.empty() : tensor<64x1xf32>
      %26 = tensor.empty() : tensor<64x64xf32>
      %27 = tensor.empty() : tensor<64x1xf32>
      %28 = tensor.empty() : tensor<64x1xf32>
      %29 = arith.muli %arg11, %c64_i32 : i32
      %30 = arith.index_cast %29 : i32 to index
      %subview_10 = memref.subview %reinterpret_cast_2[0, 0, 0, %30] [1, 1, 1, 64] [1, 1, 1, 1] : memref<1x1x1x256xi32, strided<[256, 256, 256, 1]>> to memref<64xi32, strided<[1], offset: ?>>
      %alloc_11 = memref.alloc() : memref<64xi32>
      hivm.hir.load ins(%subview_10 : memref<64xi32, strided<[1], offset: ?>>) outs(%alloc_11 : memref<64xi32>) init_out_buffer = false may_implicit_transpose_with_last_axis = false
      %31 = bufferization.to_tensor %alloc_11 restrict : memref<64xi32>
      %32:2 = scf.for %arg16 = %c0_i32 to %c64_i32 step %c1_i32 iter_args(%arg17 = %20, %arg18 = %21) -> (tensor<64x64xf16>, tensor<64x16xf16>)  : i32 {
        %53 = arith.index_cast %arg16 : i32 to index
        %extracted = tensor.extract %31[%53] : tensor<64xi32>
        %54 = arith.index_cast %extracted : i32 to index
        %subview_20 = memref.subview %reinterpret_cast_4[0, %54, 0, 0] [1, 1, 1, 64] [1, 1, 1, 1] : memref<1x256x1x80xf16, strided<[20480, 80, 80, 1]>> to memref<64xf16, strided<[1], offset: ?>>
        %alloc_21 = memref.alloc() : memref<64xf16>
        hivm.hir.load ins(%subview_20 : memref<64xf16, strided<[1], offset: ?>>) outs(%alloc_21 : memref<64xf16>) init_out_buffer = false may_implicit_transpose_with_last_axis = false
        %55 = bufferization.to_tensor %alloc_21 restrict : memref<64xf16>
        %inserted_slice = tensor.insert_slice %55 into %arg17[%53, 0] [1, 64] [1, 1] : tensor<64xf16> into tensor<64x64xf16>
        %subview_22 = memref.subview %reinterpret_cast_4[0, %54, 0, 64] [1, 1, 1, 16] [1, 1, 1, 1] : memref<1x256x1x80xf16, strided<[20480, 80, 80, 1]>> to memref<16xf16, strided<[1], offset: ?>>
        %alloc_23 = memref.alloc() : memref<16xf16>
        hivm.hir.load ins(%subview_22 : memref<16xf16, strided<[1], offset: ?>>) outs(%alloc_23 : memref<16xf16>) init_out_buffer = false may_implicit_transpose_with_last_axis = false
        %56 = bufferization.to_tensor %alloc_23 restrict : memref<16xf16>
        %inserted_slice_24 = tensor.insert_slice %56 into %arg18[%53, 0] [1, 16] [1, 1] : tensor<16xf16> into tensor<64x16xf16>
        scf.yield %inserted_slice, %inserted_slice_24 : tensor<64x64xf16>, tensor<64x16xf16>
      }
      %c64_12 = arith.constant 64 : index
      %c64_13 = arith.constant 64 : index
      %c64_14 = arith.constant 64 : index
      %33 = hivm.hir.mmadL1 {b_transpose} ins(%13, %32#0, %true, %c64_12, %c64_13, %c64_14 : tensor<64x64xf16>, tensor<64x64xf16>, i1, index, index, index) outs(%arg12 : tensor<64x64xf32>) -> tensor<64x64xf32>
      %c64_15 = arith.constant 64 : index
      %c16 = arith.constant 16 : index
      %c64_16 = arith.constant 64 : index
      %34 = hivm.hir.mmadL1 {b_transpose} ins(%14, %32#1, %false, %c64_15, %c16, %c64_16 : tensor<64x16xf16>, tensor<64x16xf16>, i1, index, index, index) outs(%33 : tensor<64x64xf32>) -> tensor<64x64xf32>
      %35 = hivm.hir.vmul ins(%34, %12 : tensor<64x64xf32>, tensor<64x64xf32>) outs(%34 : tensor<64x64xf32>) -> tensor<64x64xf32>
      %36 = hivm.hir.vreduce <max> ins(%35 : tensor<64x64xf32>) outs(%24 : tensor<64x1xf32>) reduce_dims = [1] -> tensor<64x1xf32>
      %37 = hivm.hir.vmax ins(%arg13, %36 : tensor<64x1xf32>, tensor<64x1xf32>) outs(%28 : tensor<64x1xf32>) -> tensor<64x1xf32>
      %38 = hivm.hir.vsub ins(%arg13, %37 : tensor<64x1xf32>, tensor<64x1xf32>) outs(%27 : tensor<64x1xf32>) -> tensor<64x1xf32>
      %39 = hivm.hir.vexp ins(%38 : tensor<64x1xf32>) outs(%23 : tensor<64x1xf32>) -> tensor<64x1xf32>
      %40 = hivm.hir.vsub ins(%35, %37 : tensor<64x64xf32>, tensor<64x1xf32>) outs(%26 : tensor<64x64xf32>) broadcast = [1] -> tensor<64x64xf32>
      %41 = hivm.hir.vexp ins(%40 : tensor<64x64xf32>) outs(%35 : tensor<64x64xf32>) -> tensor<64x64xf32>
      %42 = hivm.hir.vreduce <sum> ins(%41 : tensor<64x64xf32>) outs(%25 : tensor<64x1xf32>) reduce_dims = [1] -> tensor<64x1xf32>
      %43 = hivm.hir.vmul ins(%arg14, %39 : tensor<64x1xf32>, tensor<64x1xf32>) outs(%arg14 : tensor<64x1xf32>) -> tensor<64x1xf32>
      %44 = hivm.hir.vadd ins(%43, %42 : tensor<64x1xf32>, tensor<64x1xf32>) outs(%43 : tensor<64x1xf32>) -> tensor<64x1xf32>
      %45 = hivm.hir.vmul ins(%arg15, %39 : tensor<64x64xf32>, tensor<64x1xf32>) outs(%arg15 : tensor<64x64xf32>) broadcast = [1] -> tensor<64x64xf32>
      %46 = hivm.hir.vcast ins(%41 : tensor<64x64xf32>) outs(%22 : tensor<64x64xf16>) -> tensor<64x64xf16>
      %47 = hivm.hir.vbrc ins(%cst : f32) outs(%38 : tensor<64x1xf32>) -> tensor<64x1xf32>
      %48 = hivm.hir.vadd ins(%47, %37 : tensor<64x1xf32>, tensor<64x1xf32>) outs(%arg13 : tensor<64x1xf32>) -> tensor<64x1xf32>
      %49 = tensor.empty() : tensor<64x64xf32>
      %c64_17 = arith.constant 64 : index
      %c64_18 = arith.constant 64 : index
      %c64_19 = arith.constant 64 : index
      %50 = hivm.hir.mmadL1 ins(%46, %32#0, %true, %c64_17, %c64_18, %c64_19 : tensor<64x64xf16>, tensor<64x64xf16>, i1, index, index, index) outs(%49 : tensor<64x64xf32>) -> tensor<64x64xf32>
      %51 = tensor.empty() : tensor<64x64xf32>
      %52 = hivm.hir.vadd ins(%50, %45 : tensor<64x64xf32>, tensor<64x64xf32>) outs(%51 : tensor<64x64xf32>) -> tensor<64x64xf32>
      scf.yield %41, %48, %44, %52 : tensor<64x64xf32>, tensor<64x1xf32>, tensor<64x1xf32>, tensor<64x64xf32>
    }
    %16 = hivm.hir.vdiv ins(%15#3, %15#2 : tensor<64x64xf32>, tensor<64x1xf32>) outs(%15#3 : tensor<64x64xf32>) broadcast = [1] -> tensor<64x64xf32>
    %17 = hivm.hir.vcast ins(%16 : tensor<64x64xf32>) outs(%6 : tensor<64x64xf16>) -> tensor<64x64xf16>
    %subview_8 = memref.subview %reinterpret_cast_5[0, 0, 0, 0] [1, 1, 64, 64] [1, 1, 1, 1] : memref<1x1x64x64xf16, strided<[4096, 4096, 64, 1]>> to memref<64x64xf16, strided<[64, 1]>>
    hivm.hir.store ins(%17 : tensor<64x64xf16>) outs(%subview_8 : memref<64x64xf16, strided<[64, 1]>>)
    %18 = hivm.hir.vln ins(%15#2 : tensor<64x1xf32>) outs(%7 : tensor<64x1xf32>) -> tensor<64x1xf32>
    %19 = hivm.hir.vadd ins(%18, %15#1 : tensor<64x1xf32>, tensor<64x1xf32>) outs(%18 : tensor<64x1xf32>) -> tensor<64x1xf32>
    %subview_9 = memref.subview %reinterpret_cast_3[0, 0, 0, 0] [1, 1, 64, 1] [1, 1, 1, 1] : memref<1x1x64x1xf32, strided<[64, 64, 1, 1]>> to memref<64x1xf32, strided<[1, 1]>>
    hivm.hir.store ins(%19 : tensor<64x1xf32>) outs(%subview_9 : memref<64x1xf32, strided<[1, 1]>>)
    return
  }
}


// -----// IR Dump After InlineFixpipe (hivm-inline-fixpipe) //----- //
module attributes {dlti.target_system_spec = #dlti.target_system_spec<"NPU" : #hacc.target_device_spec<#dlti.dl_entry<"AI_CORE_COUNT", 24 : i32>, #dlti.dl_entry<"CUBE_CORE_COUNT", 24 : i32>, #dlti.dl_entry<"VECTOR_CORE_COUNT", 48 : i32>, #dlti.dl_entry<"UB_SIZE", 1572864 : i32>, #dlti.dl_entry<"L1_SIZE", 4194304 : i32>, #dlti.dl_entry<"L0A_SIZE", 524288 : i32>, #dlti.dl_entry<"L0B_SIZE", 524288 : i32>, #dlti.dl_entry<"L0C_SIZE", 1048576 : i32>, #dlti.dl_entry<"UB_ALIGN_SIZE", 256 : i32>, #dlti.dl_entry<"L1_ALIGN_SIZE", 256 : i32>, #dlti.dl_entry<"L0C_ALIGN_SIZE", 4096 : i32>>>, hivm.module_core_type = #hivm.module_core_type<MIX>, memref.memref_as_ptr} {
  func.func @main(%arg0: i64 {hacc.arg_type = #hacc.arg_type<ffts_base_address>}, %arg1: memref<?xi8> {hacc.arg_type = #hacc.arg_type<sync_block_lock>}, %arg2: memref<?xi8> {hacc.arg_type = #hacc.arg_type<workspace>}, %arg3: memref<?xf16>, %arg4: memref<?xf16>, %arg5: memref<?xi32>, %arg6: memref<?xf16>, %arg7: memref<?xf32>, %arg8: i32, %arg9: i32, %arg10: i32) attributes {SyncBlockLockArgIdx = 0 : i64, WorkspaceArgIdx = 1 : i64, func_dyn_memref_args = dense<[false, true, true, true, true, true, true, true, false, false, false]> : vector<11xi1>, hacc.entry, hacc.function_kind = #hacc.function_kind<DEVICE>, hivm.func_core_type = #hivm.func_core_type<MIX>, hivm.part_of_mix, mix_mode = "mix"} {
    %c16 = arith.constant 16 : index
    %c1_i32 = arith.constant 1 : i32
    %cst = arith.constant 0.000000e+00 : f32
    %c4096 = arith.constant 4096 : index
    %c20480 = arith.constant 20480 : index
    %c64 = arith.constant 64 : index
    %c256 = arith.constant 256 : index
    %c5120 = arith.constant 5120 : index
    %c80 = arith.constant 80 : index
    %c1 = arith.constant 1 : index
    %false = arith.constant false
    %true = arith.constant true
    %c4_i32 = arith.constant 4 : i32
    %cst_0 = arith.constant 0.111803398 : f32
    %cst_1 = arith.constant 0xFF800000 : f32
    %c0_i32 = arith.constant 0 : i32
    %c64_i32 = arith.constant 64 : i32
    hivm.hir.set_mask_norm
    %0 = arith.muli %arg8, %arg9 : i32
    %1 = arith.muli %0, %arg10 : i32
    annotation.mark %1 {logical_block_num} : i32
    hivm.hir.set_ffts_base_addr %arg0
    %reinterpret_cast = memref.reinterpret_cast %arg3 to offset: [0], sizes: [1, 1, 64, 80], strides: [%c5120, %c5120, %c80, %c1] : memref<?xf16> to memref<1x1x64x80xf16, strided<[5120, 5120, 80, 1]>>
    %reinterpret_cast_2 = memref.reinterpret_cast %arg5 to offset: [0], sizes: [1, 1, 1, 256], strides: [%c256, %c256, %c256, %c1] : memref<?xi32> to memref<1x1x1x256xi32, strided<[256, 256, 256, 1]>>
    %reinterpret_cast_3 = memref.reinterpret_cast %arg7 to offset: [0], sizes: [1, 1, 64, 1], strides: [%c64, %c64, %c1, %c1] : memref<?xf32> to memref<1x1x64x1xf32, strided<[64, 64, 1, 1]>>
    %reinterpret_cast_4 = memref.reinterpret_cast %arg4 to offset: [0], sizes: [1, 256, 1, 80], strides: [%c20480, %c80, %c80, %c1] : memref<?xf16> to memref<1x256x1x80xf16, strided<[20480, 80, 80, 1]>>
    %reinterpret_cast_5 = memref.reinterpret_cast %arg6 to offset: [0], sizes: [1, 1, 64, 64], strides: [%c4096, %c4096, %c64, %c1] : memref<?xf16> to memref<1x1x64x64xf16, strided<[4096, 4096, 64, 1]>>
    %2 = tensor.empty() : tensor<64x1xf32>
    %3 = tensor.empty() : tensor<64x1xf32>
    %4 = tensor.empty() : tensor<64x64xf32>
    %5 = tensor.empty() : tensor<64x64xf32>
    %6 = tensor.empty() : tensor<64x64xf16>
    %7 = tensor.empty() : tensor<64x1xf32>
    %8 = tensor.empty() : tensor<64x64xf32>
    %9 = hivm.hir.vbrc ins(%cst : f32) outs(%4 : tensor<64x64xf32>) -> tensor<64x64xf32>
    %10 = hivm.hir.vbrc ins(%cst : f32) outs(%3 : tensor<64x1xf32>) -> tensor<64x1xf32>
    %11 = hivm.hir.vbrc ins(%cst_1 : f32) outs(%2 : tensor<64x1xf32>) -> tensor<64x1xf32>
    %12 = hivm.hir.vbrc ins(%cst_0 : f32) outs(%5 : tensor<64x64xf32>) -> tensor<64x64xf32>
    %subview = memref.subview %reinterpret_cast[0, 0, 0, 0] [1, 1, 64, 64] [1, 1, 1, 1] : memref<1x1x64x80xf16, strided<[5120, 5120, 80, 1]>> to memref<64x64xf16, strided<[80, 1]>>
    %alloc = memref.alloc() : memref<64x64xf16>
    hivm.hir.load ins(%subview : memref<64x64xf16, strided<[80, 1]>>) outs(%alloc : memref<64x64xf16>) init_out_buffer = false may_implicit_transpose_with_last_axis = false
    %13 = bufferization.to_tensor %alloc restrict : memref<64x64xf16>
    %subview_6 = memref.subview %reinterpret_cast[0, 0, 0, 64] [1, 1, 64, 16] [1, 1, 1, 1] : memref<1x1x64x80xf16, strided<[5120, 5120, 80, 1]>> to memref<64x16xf16, strided<[80, 1], offset: 64>>
    %alloc_7 = memref.alloc() : memref<64x16xf16>
    hivm.hir.load ins(%subview_6 : memref<64x16xf16, strided<[80, 1], offset: 64>>) outs(%alloc_7 : memref<64x16xf16>) init_out_buffer = false may_implicit_transpose_with_last_axis = false
    %14 = bufferization.to_tensor %alloc_7 restrict : memref<64x16xf16>
    %15:4 = scf.for %arg11 = %c0_i32 to %c4_i32 step %c1_i32 iter_args(%arg12 = %8, %arg13 = %11, %arg14 = %10, %arg15 = %9) -> (tensor<64x64xf32>, tensor<64x1xf32>, tensor<64x1xf32>, tensor<64x64xf32>)  : i32 {
      %20 = tensor.empty() : tensor<64x64xf16>
      %21 = tensor.empty() : tensor<64x16xf16>
      %22 = tensor.empty() : tensor<64x64xf16>
      %23 = tensor.empty() : tensor<64x1xf32>
      %24 = tensor.empty() : tensor<64x1xf32>
      %25 = tensor.empty() : tensor<64x1xf32>
      %26 = tensor.empty() : tensor<64x64xf32>
      %27 = tensor.empty() : tensor<64x1xf32>
      %28 = tensor.empty() : tensor<64x1xf32>
      %29 = arith.muli %arg11, %c64_i32 : i32
      %30 = arith.index_cast %29 : i32 to index
      %subview_10 = memref.subview %reinterpret_cast_2[0, 0, 0, %30] [1, 1, 1, 64] [1, 1, 1, 1] : memref<1x1x1x256xi32, strided<[256, 256, 256, 1]>> to memref<64xi32, strided<[1], offset: ?>>
      %alloc_11 = memref.alloc() : memref<64xi32>
      hivm.hir.load ins(%subview_10 : memref<64xi32, strided<[1], offset: ?>>) outs(%alloc_11 : memref<64xi32>) init_out_buffer = false may_implicit_transpose_with_last_axis = false
      %31 = bufferization.to_tensor %alloc_11 restrict : memref<64xi32>
      %32:2 = scf.for %arg16 = %c0_i32 to %c64_i32 step %c1_i32 iter_args(%arg17 = %20, %arg18 = %21) -> (tensor<64x64xf16>, tensor<64x16xf16>)  : i32 {
        %57 = arith.index_cast %arg16 : i32 to index
        %extracted = tensor.extract %31[%57] : tensor<64xi32>
        %58 = arith.index_cast %extracted : i32 to index
        %subview_12 = memref.subview %reinterpret_cast_4[0, %58, 0, 0] [1, 1, 1, 64] [1, 1, 1, 1] : memref<1x256x1x80xf16, strided<[20480, 80, 80, 1]>> to memref<64xf16, strided<[1], offset: ?>>
        %alloc_13 = memref.alloc() : memref<64xf16>
        hivm.hir.load ins(%subview_12 : memref<64xf16, strided<[1], offset: ?>>) outs(%alloc_13 : memref<64xf16>) init_out_buffer = false may_implicit_transpose_with_last_axis = false
        %59 = bufferization.to_tensor %alloc_13 restrict : memref<64xf16>
        %inserted_slice = tensor.insert_slice %59 into %arg17[%57, 0] [1, 64] [1, 1] : tensor<64xf16> into tensor<64x64xf16>
        %subview_14 = memref.subview %reinterpret_cast_4[0, %58, 0, 64] [1, 1, 1, 16] [1, 1, 1, 1] : memref<1x256x1x80xf16, strided<[20480, 80, 80, 1]>> to memref<16xf16, strided<[1], offset: ?>>
        %alloc_15 = memref.alloc() : memref<16xf16>
        hivm.hir.load ins(%subview_14 : memref<16xf16, strided<[1], offset: ?>>) outs(%alloc_15 : memref<16xf16>) init_out_buffer = false may_implicit_transpose_with_last_axis = false
        %60 = bufferization.to_tensor %alloc_15 restrict : memref<16xf16>
        %inserted_slice_16 = tensor.insert_slice %60 into %arg18[%57, 0] [1, 16] [1, 1] : tensor<16xf16> into tensor<64x16xf16>
        scf.yield %inserted_slice, %inserted_slice_16 : tensor<64x64xf16>, tensor<64x16xf16>
      }
      %33 = hivm.hir.mmadL1 {b_transpose} ins(%13, %32#0, %true, %c64, %c64, %c64 : tensor<64x64xf16>, tensor<64x64xf16>, i1, index, index, index) outs(%arg12 : tensor<64x64xf32>) -> tensor<64x64xf32>
      %34 = hivm.hir.mmadL1 {b_transpose, fixpipe_already_inserted = true} ins(%14, %32#1, %false, %c64, %c16, %c64 : tensor<64x16xf16>, tensor<64x16xf16>, i1, index, index, index) outs(%33 : tensor<64x64xf32>) -> tensor<64x64xf32>
      %35 = tensor.empty() : tensor<64x64xf32>
      %36 = hivm.hir.fixpipe {enable_nz2nd} ins(%34 : tensor<64x64xf32>) outs(%35 : tensor<64x64xf32>) -> tensor<64x64xf32>
      %37 = hivm.hir.vmul ins(%36, %12 : tensor<64x64xf32>, tensor<64x64xf32>) outs(%36 : tensor<64x64xf32>) -> tensor<64x64xf32>
      %38 = hivm.hir.vreduce <max> ins(%37 : tensor<64x64xf32>) outs(%24 : tensor<64x1xf32>) reduce_dims = [1] -> tensor<64x1xf32>
      %39 = hivm.hir.vmax ins(%arg13, %38 : tensor<64x1xf32>, tensor<64x1xf32>) outs(%28 : tensor<64x1xf32>) -> tensor<64x1xf32>
      %40 = hivm.hir.vsub ins(%arg13, %39 : tensor<64x1xf32>, tensor<64x1xf32>) outs(%27 : tensor<64x1xf32>) -> tensor<64x1xf32>
      %41 = hivm.hir.vexp ins(%40 : tensor<64x1xf32>) outs(%23 : tensor<64x1xf32>) -> tensor<64x1xf32>
      %42 = hivm.hir.vsub ins(%37, %39 : tensor<64x64xf32>, tensor<64x1xf32>) outs(%26 : tensor<64x64xf32>) broadcast = [1] -> tensor<64x64xf32>
      %43 = hivm.hir.vexp ins(%42 : tensor<64x64xf32>) outs(%37 : tensor<64x64xf32>) -> tensor<64x64xf32>
      %44 = hivm.hir.vreduce <sum> ins(%43 : tensor<64x64xf32>) outs(%25 : tensor<64x1xf32>) reduce_dims = [1] -> tensor<64x1xf32>
      %45 = hivm.hir.vmul ins(%arg14, %41 : tensor<64x1xf32>, tensor<64x1xf32>) outs(%arg14 : tensor<64x1xf32>) -> tensor<64x1xf32>
      %46 = hivm.hir.vadd ins(%45, %44 : tensor<64x1xf32>, tensor<64x1xf32>) outs(%45 : tensor<64x1xf32>) -> tensor<64x1xf32>
      %47 = hivm.hir.vmul ins(%arg15, %41 : tensor<64x64xf32>, tensor<64x1xf32>) outs(%arg15 : tensor<64x64xf32>) broadcast = [1] -> tensor<64x64xf32>
      %48 = hivm.hir.vcast ins(%43 : tensor<64x64xf32>) outs(%22 : tensor<64x64xf16>) -> tensor<64x64xf16>
      %49 = hivm.hir.vbrc ins(%cst : f32) outs(%40 : tensor<64x1xf32>) -> tensor<64x1xf32>
      %50 = hivm.hir.vadd ins(%49, %39 : tensor<64x1xf32>, tensor<64x1xf32>) outs(%arg13 : tensor<64x1xf32>) -> tensor<64x1xf32>
      %51 = tensor.empty() : tensor<64x64xf32>
      %52 = hivm.hir.mmadL1 {fixpipe_already_inserted = true} ins(%48, %32#0, %true, %c64, %c64, %c64 : tensor<64x64xf16>, tensor<64x64xf16>, i1, index, index, index) outs(%51 : tensor<64x64xf32>) -> tensor<64x64xf32>
      %53 = tensor.empty() : tensor<64x64xf32>
      %54 = hivm.hir.fixpipe {enable_nz2nd} ins(%52 : tensor<64x64xf32>) outs(%53 : tensor<64x64xf32>) -> tensor<64x64xf32>
      %55 = tensor.empty() : tensor<64x64xf32>
      %56 = hivm.hir.vadd ins(%54, %47 : tensor<64x64xf32>, tensor<64x64xf32>) outs(%55 : tensor<64x64xf32>) -> tensor<64x64xf32>
      scf.yield %43, %50, %46, %56 : tensor<64x64xf32>, tensor<64x1xf32>, tensor<64x1xf32>, tensor<64x64xf32>
    }
    %16 = hivm.hir.vdiv ins(%15#3, %15#2 : tensor<64x64xf32>, tensor<64x1xf32>) outs(%15#3 : tensor<64x64xf32>) broadcast = [1] -> tensor<64x64xf32>
    %17 = hivm.hir.vcast ins(%16 : tensor<64x64xf32>) outs(%6 : tensor<64x64xf16>) -> tensor<64x64xf16>
    %subview_8 = memref.subview %reinterpret_cast_5[0, 0, 0, 0] [1, 1, 64, 64] [1, 1, 1, 1] : memref<1x1x64x64xf16, strided<[4096, 4096, 64, 1]>> to memref<64x64xf16, strided<[64, 1]>>
    hivm.hir.store ins(%17 : tensor<64x64xf16>) outs(%subview_8 : memref<64x64xf16, strided<[64, 1]>>)
    %18 = hivm.hir.vln ins(%15#2 : tensor<64x1xf32>) outs(%7 : tensor<64x1xf32>) -> tensor<64x1xf32>
    %19 = hivm.hir.vadd ins(%18, %15#1 : tensor<64x1xf32>, tensor<64x1xf32>) outs(%18 : tensor<64x1xf32>) -> tensor<64x1xf32>
    %subview_9 = memref.subview %reinterpret_cast_3[0, 0, 0, 0] [1, 1, 64, 1] [1, 1, 1, 1] : memref<1x1x64x1xf32, strided<[64, 64, 1, 1]>> to memref<64x1xf32, strided<[1, 1]>>
    hivm.hir.store ins(%19 : tensor<64x1xf32>) outs(%subview_9 : memref<64x1xf32, strided<[1, 1]>>)
    return
  }
}


// -----// IR Dump After TileBatchMMIntoLoop (hivm-tile-batchmm-into-loop) //----- //
func.func @main(%arg0: i64 {hacc.arg_type = #hacc.arg_type<ffts_base_address>}, %arg1: memref<?xi8> {hacc.arg_type = #hacc.arg_type<sync_block_lock>}, %arg2: memref<?xi8> {hacc.arg_type = #hacc.arg_type<workspace>}, %arg3: memref<?xf16>, %arg4: memref<?xf16>, %arg5: memref<?xi32>, %arg6: memref<?xf16>, %arg7: memref<?xf32>, %arg8: i32, %arg9: i32, %arg10: i32) attributes {SyncBlockLockArgIdx = 0 : i64, WorkspaceArgIdx = 1 : i64, func_dyn_memref_args = dense<[false, true, true, true, true, true, true, true, false, false, false]> : vector<11xi1>, hacc.entry, hacc.function_kind = #hacc.function_kind<DEVICE>, hivm.func_core_type = #hivm.func_core_type<MIX>, hivm.part_of_mix, mix_mode = "mix"} {
  %c16 = arith.constant 16 : index
  %c1_i32 = arith.constant 1 : i32
  %cst = arith.constant 0.000000e+00 : f32
  %c4096 = arith.constant 4096 : index
  %c20480 = arith.constant 20480 : index
  %c64 = arith.constant 64 : index
  %c256 = arith.constant 256 : index
  %c5120 = arith.constant 5120 : index
  %c80 = arith.constant 80 : index
  %c1 = arith.constant 1 : index
  %false = arith.constant false
  %true = arith.constant true
  %c4_i32 = arith.constant 4 : i32
  %cst_0 = arith.constant 0.111803398 : f32
  %cst_1 = arith.constant 0xFF800000 : f32
  %c0_i32 = arith.constant 0 : i32
  %c64_i32 = arith.constant 64 : i32
  hivm.hir.set_mask_norm
  %0 = arith.muli %arg8, %arg9 : i32
  %1 = arith.muli %0, %arg10 : i32
  annotation.mark %1 {logical_block_num} : i32
  hivm.hir.set_ffts_base_addr %arg0
  %reinterpret_cast = memref.reinterpret_cast %arg3 to offset: [0], sizes: [1, 1, 64, 80], strides: [%c5120, %c5120, %c80, %c1] : memref<?xf16> to memref<1x1x64x80xf16, strided<[5120, 5120, 80, 1]>>
  %reinterpret_cast_2 = memref.reinterpret_cast %arg5 to offset: [0], sizes: [1, 1, 1, 256], strides: [%c256, %c256, %c256, %c1] : memref<?xi32> to memref<1x1x1x256xi32, strided<[256, 256, 256, 1]>>
  %reinterpret_cast_3 = memref.reinterpret_cast %arg7 to offset: [0], sizes: [1, 1, 64, 1], strides: [%c64, %c64, %c1, %c1] : memref<?xf32> to memref<1x1x64x1xf32, strided<[64, 64, 1, 1]>>
  %reinterpret_cast_4 = memref.reinterpret_cast %arg4 to offset: [0], sizes: [1, 256, 1, 80], strides: [%c20480, %c80, %c80, %c1] : memref<?xf16> to memref<1x256x1x80xf16, strided<[20480, 80, 80, 1]>>
  %reinterpret_cast_5 = memref.reinterpret_cast %arg6 to offset: [0], sizes: [1, 1, 64, 64], strides: [%c4096, %c4096, %c64, %c1] : memref<?xf16> to memref<1x1x64x64xf16, strided<[4096, 4096, 64, 1]>>
  %2 = tensor.empty() : tensor<64x1xf32>
  %3 = tensor.empty() : tensor<64x1xf32>
  %4 = tensor.empty() : tensor<64x64xf32>
  %5 = tensor.empty() : tensor<64x64xf32>
  %6 = tensor.empty() : tensor<64x64xf16>
  %7 = tensor.empty() : tensor<64x1xf32>
  %8 = tensor.empty() : tensor<64x64xf32>
  %9 = hivm.hir.vbrc ins(%cst : f32) outs(%4 : tensor<64x64xf32>) -> tensor<64x64xf32>
  %10 = hivm.hir.vbrc ins(%cst : f32) outs(%3 : tensor<64x1xf32>) -> tensor<64x1xf32>
  %11 = hivm.hir.vbrc ins(%cst_1 : f32) outs(%2 : tensor<64x1xf32>) -> tensor<64x1xf32>
  %12 = hivm.hir.vbrc ins(%cst_0 : f32) outs(%5 : tensor<64x64xf32>) -> tensor<64x64xf32>
  %subview = memref.subview %reinterpret_cast[0, 0, 0, 0] [1, 1, 64, 64] [1, 1, 1, 1] : memref<1x1x64x80xf16, strided<[5120, 5120, 80, 1]>> to memref<64x64xf16, strided<[80, 1]>>
  %alloc = memref.alloc() : memref<64x64xf16>
  hivm.hir.load ins(%subview : memref<64x64xf16, strided<[80, 1]>>) outs(%alloc : memref<64x64xf16>) init_out_buffer = false may_implicit_transpose_with_last_axis = false
  %13 = bufferization.to_tensor %alloc restrict : memref<64x64xf16>
  %subview_6 = memref.subview %reinterpret_cast[0, 0, 0, 64] [1, 1, 64, 16] [1, 1, 1, 1] : memref<1x1x64x80xf16, strided<[5120, 5120, 80, 1]>> to memref<64x16xf16, strided<[80, 1], offset: 64>>
  %alloc_7 = memref.alloc() : memref<64x16xf16>
  hivm.hir.load ins(%subview_6 : memref<64x16xf16, strided<[80, 1], offset: 64>>) outs(%alloc_7 : memref<64x16xf16>) init_out_buffer = false may_implicit_transpose_with_last_axis = false
  %14 = bufferization.to_tensor %alloc_7 restrict : memref<64x16xf16>
  %15:4 = scf.for %arg11 = %c0_i32 to %c4_i32 step %c1_i32 iter_args(%arg12 = %8, %arg13 = %11, %arg14 = %10, %arg15 = %9) -> (tensor<64x64xf32>, tensor<64x1xf32>, tensor<64x1xf32>, tensor<64x64xf32>)  : i32 {
    %20 = tensor.empty() : tensor<64x64xf16>
    %21 = tensor.empty() : tensor<64x16xf16>
    %22 = tensor.empty() : tensor<64x64xf16>
    %23 = tensor.empty() : tensor<64x1xf32>
    %24 = tensor.empty() : tensor<64x1xf32>
    %25 = tensor.empty() : tensor<64x1xf32>
    %26 = tensor.empty() : tensor<64x64xf32>
    %27 = tensor.empty() : tensor<64x1xf32>
    %28 = tensor.empty() : tensor<64x1xf32>
    %29 = arith.muli %arg11, %c64_i32 : i32
    %30 = arith.index_cast %29 : i32 to index
    %subview_10 = memref.subview %reinterpret_cast_2[0, 0, 0, %30] [1, 1, 1, 64] [1, 1, 1, 1] : memref<1x1x1x256xi32, strided<[256, 256, 256, 1]>> to memref<64xi32, strided<[1], offset: ?>>
    %alloc_11 = memref.alloc() : memref<64xi32>
    hivm.hir.load ins(%subview_10 : memref<64xi32, strided<[1], offset: ?>>) outs(%alloc_11 : memref<64xi32>) init_out_buffer = false may_implicit_transpose_with_last_axis = false
    %31 = bufferization.to_tensor %alloc_11 restrict : memref<64xi32>
    %32:2 = scf.for %arg16 = %c0_i32 to %c64_i32 step %c1_i32 iter_args(%arg17 = %20, %arg18 = %21) -> (tensor<64x64xf16>, tensor<64x16xf16>)  : i32 {
      %57 = arith.index_cast %arg16 : i32 to index
      %extracted = tensor.extract %31[%57] : tensor<64xi32>
      %58 = arith.index_cast %extracted : i32 to index
      %subview_12 = memref.subview %reinterpret_cast_4[0, %58, 0, 0] [1, 1, 1, 64] [1, 1, 1, 1] : memref<1x256x1x80xf16, strided<[20480, 80, 80, 1]>> to memref<64xf16, strided<[1], offset: ?>>
      %alloc_13 = memref.alloc() : memref<64xf16>
      hivm.hir.load ins(%subview_12 : memref<64xf16, strided<[1], offset: ?>>) outs(%alloc_13 : memref<64xf16>) init_out_buffer = false may_implicit_transpose_with_last_axis = false
      %59 = bufferization.to_tensor %alloc_13 restrict : memref<64xf16>
      %inserted_slice = tensor.insert_slice %59 into %arg17[%57, 0] [1, 64] [1, 1] : tensor<64xf16> into tensor<64x64xf16>
      %subview_14 = memref.subview %reinterpret_cast_4[0, %58, 0, 64] [1, 1, 1, 16] [1, 1, 1, 1] : memref<1x256x1x80xf16, strided<[20480, 80, 80, 1]>> to memref<16xf16, strided<[1], offset: ?>>
      %alloc_15 = memref.alloc() : memref<16xf16>
      hivm.hir.load ins(%subview_14 : memref<16xf16, strided<[1], offset: ?>>) outs(%alloc_15 : memref<16xf16>) init_out_buffer = false may_implicit_transpose_with_last_axis = false
      %60 = bufferization.to_tensor %alloc_15 restrict : memref<16xf16>
      %inserted_slice_16 = tensor.insert_slice %60 into %arg18[%57, 0] [1, 16] [1, 1] : tensor<16xf16> into tensor<64x16xf16>
      scf.yield %inserted_slice, %inserted_slice_16 : tensor<64x64xf16>, tensor<64x16xf16>
    }
    %33 = hivm.hir.mmadL1 {b_transpose} ins(%13, %32#0, %true, %c64, %c64, %c64 : tensor<64x64xf16>, tensor<64x64xf16>, i1, index, index, index) outs(%arg12 : tensor<64x64xf32>) -> tensor<64x64xf32>
    %34 = hivm.hir.mmadL1 {b_transpose, fixpipe_already_inserted = true} ins(%14, %32#1, %false, %c64, %c16, %c64 : tensor<64x16xf16>, tensor<64x16xf16>, i1, index, index, index) outs(%33 : tensor<64x64xf32>) -> tensor<64x64xf32>
    %35 = tensor.empty() : tensor<64x64xf32>
    %36 = hivm.hir.fixpipe {enable_nz2nd} ins(%34 : tensor<64x64xf32>) outs(%35 : tensor<64x64xf32>) -> tensor<64x64xf32>
    %37 = hivm.hir.vmul ins(%36, %12 : tensor<64x64xf32>, tensor<64x64xf32>) outs(%36 : tensor<64x64xf32>) -> tensor<64x64xf32>
    %38 = hivm.hir.vreduce <max> ins(%37 : tensor<64x64xf32>) outs(%24 : tensor<64x1xf32>) reduce_dims = [1] -> tensor<64x1xf32>
    %39 = hivm.hir.vmax ins(%arg13, %38 : tensor<64x1xf32>, tensor<64x1xf32>) outs(%28 : tensor<64x1xf32>) -> tensor<64x1xf32>
    %40 = hivm.hir.vsub ins(%arg13, %39 : tensor<64x1xf32>, tensor<64x1xf32>) outs(%27 : tensor<64x1xf32>) -> tensor<64x1xf32>
    %41 = hivm.hir.vexp ins(%40 : tensor<64x1xf32>) outs(%23 : tensor<64x1xf32>) -> tensor<64x1xf32>
    %42 = hivm.hir.vsub ins(%37, %39 : tensor<64x64xf32>, tensor<64x1xf32>) outs(%26 : tensor<64x64xf32>) broadcast = [1] -> tensor<64x64xf32>
    %43 = hivm.hir.vexp ins(%42 : tensor<64x64xf32>) outs(%37 : tensor<64x64xf32>) -> tensor<64x64xf32>
    %44 = hivm.hir.vreduce <sum> ins(%43 : tensor<64x64xf32>) outs(%25 : tensor<64x1xf32>) reduce_dims = [1] -> tensor<64x1xf32>
    %45 = hivm.hir.vmul ins(%arg14, %41 : tensor<64x1xf32>, tensor<64x1xf32>) outs(%arg14 : tensor<64x1xf32>) -> tensor<64x1xf32>
    %46 = hivm.hir.vadd ins(%45, %44 : tensor<64x1xf32>, tensor<64x1xf32>) outs(%45 : tensor<64x1xf32>) -> tensor<64x1xf32>
    %47 = hivm.hir.vmul ins(%arg15, %41 : tensor<64x64xf32>, tensor<64x1xf32>) outs(%arg15 : tensor<64x64xf32>) broadcast = [1] -> tensor<64x64xf32>
    %48 = hivm.hir.vcast ins(%43 : tensor<64x64xf32>) outs(%22 : tensor<64x64xf16>) -> tensor<64x64xf16>
    %49 = hivm.hir.vbrc ins(%cst : f32) outs(%40 : tensor<64x1xf32>) -> tensor<64x1xf32>
    %50 = hivm.hir.vadd ins(%49, %39 : tensor<64x1xf32>, tensor<64x1xf32>) outs(%arg13 : tensor<64x1xf32>) -> tensor<64x1xf32>
    %51 = tensor.empty() : tensor<64x64xf32>
    %52 = hivm.hir.mmadL1 {fixpipe_already_inserted = true} ins(%48, %32#0, %true, %c64, %c64, %c64 : tensor<64x64xf16>, tensor<64x64xf16>, i1, index, index, index) outs(%51 : tensor<64x64xf32>) -> tensor<64x64xf32>
    %53 = tensor.empty() : tensor<64x64xf32>
    %54 = hivm.hir.fixpipe {enable_nz2nd} ins(%52 : tensor<64x64xf32>) outs(%53 : tensor<64x64xf32>) -> tensor<64x64xf32>
    %55 = tensor.empty() : tensor<64x64xf32>
    %56 = hivm.hir.vadd ins(%54, %47 : tensor<64x64xf32>, tensor<64x64xf32>) outs(%55 : tensor<64x64xf32>) -> tensor<64x64xf32>
    scf.yield %43, %50, %46, %56 : tensor<64x64xf32>, tensor<64x1xf32>, tensor<64x1xf32>, tensor<64x64xf32>
  }
  %16 = hivm.hir.vdiv ins(%15#3, %15#2 : tensor<64x64xf32>, tensor<64x1xf32>) outs(%15#3 : tensor<64x64xf32>) broadcast = [1] -> tensor<64x64xf32>
  %17 = hivm.hir.vcast ins(%16 : tensor<64x64xf32>) outs(%6 : tensor<64x64xf16>) -> tensor<64x64xf16>
  %subview_8 = memref.subview %reinterpret_cast_5[0, 0, 0, 0] [1, 1, 64, 64] [1, 1, 1, 1] : memref<1x1x64x64xf16, strided<[4096, 4096, 64, 1]>> to memref<64x64xf16, strided<[64, 1]>>
  hivm.hir.store ins(%17 : tensor<64x64xf16>) outs(%subview_8 : memref<64x64xf16, strided<[64, 1]>>)
  %18 = hivm.hir.vln ins(%15#2 : tensor<64x1xf32>) outs(%7 : tensor<64x1xf32>) -> tensor<64x1xf32>
  %19 = hivm.hir.vadd ins(%18, %15#1 : tensor<64x1xf32>, tensor<64x1xf32>) outs(%18 : tensor<64x1xf32>) -> tensor<64x1xf32>
  %subview_9 = memref.subview %reinterpret_cast_3[0, 0, 0, 0] [1, 1, 64, 1] [1, 1, 1, 1] : memref<1x1x64x1xf32, strided<[64, 64, 1, 1]>> to memref<64x1xf32, strided<[1, 1]>>
  hivm.hir.store ins(%19 : tensor<64x1xf32>) outs(%subview_9 : memref<64x1xf32, strided<[1, 1]>>)
  return
}

// -----// IR Dump After InsertLoadStoreForMixCV (hivm-insert-load-store-for-mix-cv) //----- //
func.func @main(%arg0: i64 {hacc.arg_type = #hacc.arg_type<ffts_base_address>}, %arg1: memref<?xi8> {hacc.arg_type = #hacc.arg_type<sync_block_lock>}, %arg2: memref<?xi8> {hacc.arg_type = #hacc.arg_type<workspace>}, %arg3: memref<?xf16>, %arg4: memref<?xf16>, %arg5: memref<?xi32>, %arg6: memref<?xf16>, %arg7: memref<?xf32>, %arg8: i32, %arg9: i32, %arg10: i32) attributes {SyncBlockLockArgIdx = 0 : i64, WorkspaceArgIdx = 1 : i64, func_dyn_memref_args = dense<[false, true, true, true, true, true, true, true, false, false, false]> : vector<11xi1>, hacc.entry, hacc.function_kind = #hacc.function_kind<DEVICE>, hivm.func_core_type = #hivm.func_core_type<MIX>, hivm.part_of_mix, mix_mode = "mix"} {
  %c16 = arith.constant 16 : index
  %c1_i32 = arith.constant 1 : i32
  %cst = arith.constant 0.000000e+00 : f32
  %c4096 = arith.constant 4096 : index
  %c20480 = arith.constant 20480 : index
  %c64 = arith.constant 64 : index
  %c256 = arith.constant 256 : index
  %c5120 = arith.constant 5120 : index
  %c80 = arith.constant 80 : index
  %c1 = arith.constant 1 : index
  %false = arith.constant false
  %true = arith.constant true
  %c4_i32 = arith.constant 4 : i32
  %cst_0 = arith.constant 0.111803398 : f32
  %cst_1 = arith.constant 0xFF800000 : f32
  %c0_i32 = arith.constant 0 : i32
  %c64_i32 = arith.constant 64 : i32
  hivm.hir.set_mask_norm
  %0 = arith.muli %arg8, %arg9 : i32
  %1 = arith.muli %0, %arg10 : i32
  annotation.mark %1 {logical_block_num} : i32
  hivm.hir.set_ffts_base_addr %arg0
  %reinterpret_cast = memref.reinterpret_cast %arg3 to offset: [0], sizes: [1, 1, 64, 80], strides: [%c5120, %c5120, %c80, %c1] : memref<?xf16> to memref<1x1x64x80xf16, strided<[5120, 5120, 80, 1]>>
  %reinterpret_cast_2 = memref.reinterpret_cast %arg5 to offset: [0], sizes: [1, 1, 1, 256], strides: [%c256, %c256, %c256, %c1] : memref<?xi32> to memref<1x1x1x256xi32, strided<[256, 256, 256, 1]>>
  %reinterpret_cast_3 = memref.reinterpret_cast %arg7 to offset: [0], sizes: [1, 1, 64, 1], strides: [%c64, %c64, %c1, %c1] : memref<?xf32> to memref<1x1x64x1xf32, strided<[64, 64, 1, 1]>>
  %reinterpret_cast_4 = memref.reinterpret_cast %arg4 to offset: [0], sizes: [1, 256, 1, 80], strides: [%c20480, %c80, %c80, %c1] : memref<?xf16> to memref<1x256x1x80xf16, strided<[20480, 80, 80, 1]>>
  %reinterpret_cast_5 = memref.reinterpret_cast %arg6 to offset: [0], sizes: [1, 1, 64, 64], strides: [%c4096, %c4096, %c64, %c1] : memref<?xf16> to memref<1x1x64x64xf16, strided<[4096, 4096, 64, 1]>>
  %2 = tensor.empty() : tensor<64x1xf32>
  %3 = tensor.empty() : tensor<64x1xf32>
  %4 = tensor.empty() : tensor<64x64xf32>
  %5 = tensor.empty() : tensor<64x64xf32>
  %6 = tensor.empty() : tensor<64x64xf16>
  %7 = tensor.empty() : tensor<64x1xf32>
  %8 = tensor.empty() : tensor<64x64xf32>
  %9 = hivm.hir.vbrc ins(%cst : f32) outs(%4 : tensor<64x64xf32>) -> tensor<64x64xf32>
  %10 = hivm.hir.vbrc ins(%cst : f32) outs(%3 : tensor<64x1xf32>) -> tensor<64x1xf32>
  %11 = hivm.hir.vbrc ins(%cst_1 : f32) outs(%2 : tensor<64x1xf32>) -> tensor<64x1xf32>
  %12 = hivm.hir.vbrc ins(%cst_0 : f32) outs(%5 : tensor<64x64xf32>) -> tensor<64x64xf32>
  %subview = memref.subview %reinterpret_cast[0, 0, 0, 0] [1, 1, 64, 64] [1, 1, 1, 1] : memref<1x1x64x80xf16, strided<[5120, 5120, 80, 1]>> to memref<64x64xf16, strided<[80, 1]>>
  %alloc = memref.alloc() : memref<64x64xf16>
  hivm.hir.load ins(%subview : memref<64x64xf16, strided<[80, 1]>>) outs(%alloc : memref<64x64xf16>) init_out_buffer = false may_implicit_transpose_with_last_axis = false
  %13 = bufferization.to_tensor %alloc restrict : memref<64x64xf16>
  %subview_6 = memref.subview %reinterpret_cast[0, 0, 0, 64] [1, 1, 64, 16] [1, 1, 1, 1] : memref<1x1x64x80xf16, strided<[5120, 5120, 80, 1]>> to memref<64x16xf16, strided<[80, 1], offset: 64>>
  %alloc_7 = memref.alloc() : memref<64x16xf16>
  hivm.hir.load ins(%subview_6 : memref<64x16xf16, strided<[80, 1], offset: 64>>) outs(%alloc_7 : memref<64x16xf16>) init_out_buffer = false may_implicit_transpose_with_last_axis = false
  %14 = bufferization.to_tensor %alloc_7 restrict : memref<64x16xf16>
  %15:4 = scf.for %arg11 = %c0_i32 to %c4_i32 step %c1_i32 iter_args(%arg12 = %8, %arg13 = %11, %arg14 = %10, %arg15 = %9) -> (tensor<64x64xf32>, tensor<64x1xf32>, tensor<64x1xf32>, tensor<64x64xf32>)  : i32 {
    %20 = tensor.empty() : tensor<64x64xf32>
    %21 = hivm.hir.store ins(%arg12 : tensor<64x64xf32>) outs(%20 : tensor<64x64xf32>) -> tensor<64x64xf32>
    %22 = tensor.empty() : tensor<64x64xf32>
    %23 = hivm.hir.load ins(%21 : tensor<64x64xf32>) outs(%22 : tensor<64x64xf32>) init_out_buffer = false may_implicit_transpose_with_last_axis = false -> tensor<64x64xf32>
    %24 = tensor.empty() : tensor<64x64xf16>
    %25 = tensor.empty() : tensor<64x16xf16>
    %26 = tensor.empty() : tensor<64x64xf16>
    %27 = tensor.empty() : tensor<64x1xf32>
    %28 = tensor.empty() : tensor<64x1xf32>
    %29 = tensor.empty() : tensor<64x1xf32>
    %30 = tensor.empty() : tensor<64x64xf32>
    %31 = tensor.empty() : tensor<64x1xf32>
    %32 = tensor.empty() : tensor<64x1xf32>
    %33 = arith.muli %arg11, %c64_i32 : i32
    %34 = arith.index_cast %33 : i32 to index
    %subview_10 = memref.subview %reinterpret_cast_2[0, 0, 0, %34] [1, 1, 1, 64] [1, 1, 1, 1] : memref<1x1x1x256xi32, strided<[256, 256, 256, 1]>> to memref<64xi32, strided<[1], offset: ?>>
    %alloc_11 = memref.alloc() {"DuplicateTensorExtractForCube::cubeErasureLabel" = 1 : i32} : memref<64xi32>
    hivm.hir.load ins(%subview_10 : memref<64xi32, strided<[1], offset: ?>>) outs(%alloc_11 : memref<64xi32>) {"DuplicateTensorExtractForCube::cubeErasureLabel" = 1 : i32} init_out_buffer = false may_implicit_transpose_with_last_axis = false
    %35 = bufferization.to_tensor %alloc_11 restrict {"DuplicateTensorExtractForCube::cubeErasureLabel" = 1 : i32} : memref<64xi32>
    %36:2 = scf.for %arg16 = %c0_i32 to %c64_i32 step %c1_i32 iter_args(%arg17 = %24, %arg18 = %25) -> (tensor<64x64xf16>, tensor<64x16xf16>)  : i32 {
      %83 = arith.index_cast %arg16 : i32 to index
      %extracted = tensor.extract %35[%83] {"DuplicateTensorExtractForCube::visitedLabel" = 1 : i32} : tensor<64xi32>
      %84 = arith.index_cast %extracted : i32 to index
      %subview_12 = memref.subview %reinterpret_cast_4[0, %84, 0, 0] [1, 1, 1, 64] [1, 1, 1, 1] : memref<1x256x1x80xf16, strided<[20480, 80, 80, 1]>> to memref<64xf16, strided<[1], offset: ?>>
      %alloc_13 = memref.alloc() : memref<64xf16>
      hivm.hir.load ins(%subview_12 : memref<64xf16, strided<[1], offset: ?>>) outs(%alloc_13 : memref<64xf16>) init_out_buffer = false may_implicit_transpose_with_last_axis = false
      %85 = bufferization.to_tensor %alloc_13 restrict : memref<64xf16>
      %inserted_slice = tensor.insert_slice %85 into %arg17[%83, 0] [1, 64] [1, 1] : tensor<64xf16> into tensor<64x64xf16>
      %subview_14 = memref.subview %reinterpret_cast_4[0, %84, 0, 64] [1, 1, 1, 16] [1, 1, 1, 1] : memref<1x256x1x80xf16, strided<[20480, 80, 80, 1]>> to memref<16xf16, strided<[1], offset: ?>>
      %alloc_15 = memref.alloc() : memref<16xf16>
      hivm.hir.load ins(%subview_14 : memref<16xf16, strided<[1], offset: ?>>) outs(%alloc_15 : memref<16xf16>) init_out_buffer = false may_implicit_transpose_with_last_axis = false
      %86 = bufferization.to_tensor %alloc_15 restrict : memref<16xf16>
      %inserted_slice_16 = tensor.insert_slice %86 into %arg18[%83, 0] [1, 16] [1, 1] : tensor<16xf16> into tensor<64x16xf16>
      scf.yield %inserted_slice, %inserted_slice_16 : tensor<64x64xf16>, tensor<64x16xf16>
    }
    %37 = tensor.empty() : tensor<64x64xf16>
    %38 = hivm.hir.store ins(%36#0 : tensor<64x64xf16>) outs(%37 : tensor<64x64xf16>) -> tensor<64x64xf16>
    %39 = tensor.empty() : tensor<64x64xf16>
    %40 = hivm.hir.load ins(%38 : tensor<64x64xf16>) outs(%39 : tensor<64x64xf16>) init_out_buffer = false may_implicit_transpose_with_last_axis = false -> tensor<64x64xf16>
    %41 = tensor.empty() : tensor<64x16xf16>
    %42 = hivm.hir.store ins(%36#1 : tensor<64x16xf16>) outs(%41 : tensor<64x16xf16>) -> tensor<64x16xf16>
    %43 = tensor.empty() : tensor<64x16xf16>
    %44 = hivm.hir.load ins(%42 : tensor<64x16xf16>) outs(%43 : tensor<64x16xf16>) init_out_buffer = false may_implicit_transpose_with_last_axis = false -> tensor<64x16xf16>
    %45 = tensor.empty() : tensor<64x64xf16>
    %46 = hivm.hir.store ins(%36#0 : tensor<64x64xf16>) outs(%45 : tensor<64x64xf16>) -> tensor<64x64xf16>
    %47 = tensor.empty() : tensor<64x64xf16>
    %48 = hivm.hir.load ins(%46 : tensor<64x64xf16>) outs(%47 : tensor<64x64xf16>) init_out_buffer = false may_implicit_transpose_with_last_axis = false -> tensor<64x64xf16>
    %49 = hivm.hir.mmadL1 {b_transpose} ins(%13, %40, %true, %c64, %c64, %c64 : tensor<64x64xf16>, tensor<64x64xf16>, i1, index, index, index) outs(%23 : tensor<64x64xf32>) -> tensor<64x64xf32>
    %50 = hivm.hir.mmadL1 {b_transpose, fixpipe_already_inserted = true} ins(%14, %44, %false, %c64, %c16, %c64 : tensor<64x16xf16>, tensor<64x16xf16>, i1, index, index, index) outs(%49 : tensor<64x64xf32>) -> tensor<64x64xf32>
    %51 = tensor.empty() : tensor<64x64xf32>
    %52 = hivm.hir.fixpipe {enable_nz2nd} ins(%50 : tensor<64x64xf32>) outs(%51 : tensor<64x64xf32>) -> tensor<64x64xf32>
    %53 = tensor.empty() : tensor<64x64xf32>
    %54 = hivm.hir.load ins(%52 : tensor<64x64xf32>) outs(%53 : tensor<64x64xf32>) init_out_buffer = false may_implicit_transpose_with_last_axis = false -> tensor<64x64xf32>
    %55 = tensor.empty() : tensor<64x64xf32>
    %56 = hivm.hir.load ins(%52 : tensor<64x64xf32>) outs(%55 : tensor<64x64xf32>) init_out_buffer = false may_implicit_transpose_with_last_axis = false -> tensor<64x64xf32>
    %57 = hivm.hir.vmul ins(%56, %12 : tensor<64x64xf32>, tensor<64x64xf32>) outs(%54 : tensor<64x64xf32>) -> tensor<64x64xf32>
    %58 = hivm.hir.vreduce <max> ins(%57 : tensor<64x64xf32>) outs(%28 : tensor<64x1xf32>) reduce_dims = [1] -> tensor<64x1xf32>
    %59 = hivm.hir.vmax ins(%arg13, %58 : tensor<64x1xf32>, tensor<64x1xf32>) outs(%32 : tensor<64x1xf32>) -> tensor<64x1xf32>
    %60 = hivm.hir.vsub ins(%arg13, %59 : tensor<64x1xf32>, tensor<64x1xf32>) outs(%31 : tensor<64x1xf32>) -> tensor<64x1xf32>
    %61 = hivm.hir.vexp ins(%60 : tensor<64x1xf32>) outs(%27 : tensor<64x1xf32>) -> tensor<64x1xf32>
    %62 = hivm.hir.vsub ins(%57, %59 : tensor<64x64xf32>, tensor<64x1xf32>) outs(%30 : tensor<64x64xf32>) broadcast = [1] -> tensor<64x64xf32>
    %63 = hivm.hir.vexp ins(%62 : tensor<64x64xf32>) outs(%57 : tensor<64x64xf32>) -> tensor<64x64xf32>
    %64 = hivm.hir.vreduce <sum> ins(%63 : tensor<64x64xf32>) outs(%29 : tensor<64x1xf32>) reduce_dims = [1] -> tensor<64x1xf32>
    %65 = hivm.hir.vmul ins(%arg14, %61 : tensor<64x1xf32>, tensor<64x1xf32>) outs(%arg14 : tensor<64x1xf32>) -> tensor<64x1xf32>
    %66 = hivm.hir.vadd ins(%65, %64 : tensor<64x1xf32>, tensor<64x1xf32>) outs(%65 : tensor<64x1xf32>) -> tensor<64x1xf32>
    %67 = hivm.hir.vmul ins(%arg15, %61 : tensor<64x64xf32>, tensor<64x1xf32>) outs(%arg15 : tensor<64x64xf32>) broadcast = [1] -> tensor<64x64xf32>
    %68 = hivm.hir.vcast ins(%63 : tensor<64x64xf32>) outs(%26 : tensor<64x64xf16>) -> tensor<64x64xf16>
    %69 = tensor.empty() : tensor<64x64xf16>
    %70 = hivm.hir.store ins(%68 : tensor<64x64xf16>) outs(%69 : tensor<64x64xf16>) -> tensor<64x64xf16>
    %71 = tensor.empty() : tensor<64x64xf16>
    %72 = hivm.hir.load ins(%70 : tensor<64x64xf16>) outs(%71 : tensor<64x64xf16>) init_out_buffer = false may_implicit_transpose_with_last_axis = false -> tensor<64x64xf16>
    %73 = hivm.hir.vbrc ins(%cst : f32) outs(%60 : tensor<64x1xf32>) -> tensor<64x1xf32>
    %74 = hivm.hir.vadd ins(%73, %59 : tensor<64x1xf32>, tensor<64x1xf32>) outs(%arg13 : tensor<64x1xf32>) -> tensor<64x1xf32>
    %75 = tensor.empty() : tensor<64x64xf32>
    %76 = hivm.hir.mmadL1 {fixpipe_already_inserted = true} ins(%72, %48, %true, %c64, %c64, %c64 : tensor<64x64xf16>, tensor<64x64xf16>, i1, index, index, index) outs(%75 : tensor<64x64xf32>) -> tensor<64x64xf32>
    %77 = tensor.empty() : tensor<64x64xf32>
    %78 = hivm.hir.fixpipe {enable_nz2nd} ins(%76 : tensor<64x64xf32>) outs(%77 : tensor<64x64xf32>) -> tensor<64x64xf32>
    %79 = tensor.empty() : tensor<64x64xf32>
    %80 = hivm.hir.load ins(%78 : tensor<64x64xf32>) outs(%79 : tensor<64x64xf32>) init_out_buffer = false may_implicit_transpose_with_last_axis = false -> tensor<64x64xf32>
    %81 = tensor.empty() : tensor<64x64xf32>
    %82 = hivm.hir.vadd ins(%80, %67 : tensor<64x64xf32>, tensor<64x64xf32>) outs(%81 : tensor<64x64xf32>) -> tensor<64x64xf32>
    scf.yield %63, %74, %66, %82 : tensor<64x64xf32>, tensor<64x1xf32>, tensor<64x1xf32>, tensor<64x64xf32>
  }
  %16 = hivm.hir.vdiv ins(%15#3, %15#2 : tensor<64x64xf32>, tensor<64x1xf32>) outs(%15#3 : tensor<64x64xf32>) broadcast = [1] -> tensor<64x64xf32>
  %17 = hivm.hir.vcast ins(%16 : tensor<64x64xf32>) outs(%6 : tensor<64x64xf16>) -> tensor<64x64xf16>
  %subview_8 = memref.subview %reinterpret_cast_5[0, 0, 0, 0] [1, 1, 64, 64] [1, 1, 1, 1] : memref<1x1x64x64xf16, strided<[4096, 4096, 64, 1]>> to memref<64x64xf16, strided<[64, 1]>>
  hivm.hir.store ins(%17 : tensor<64x64xf16>) outs(%subview_8 : memref<64x64xf16, strided<[64, 1]>>)
  %18 = hivm.hir.vln ins(%15#2 : tensor<64x1xf32>) outs(%7 : tensor<64x1xf32>) -> tensor<64x1xf32>
  %19 = hivm.hir.vadd ins(%18, %15#1 : tensor<64x1xf32>, tensor<64x1xf32>) outs(%18 : tensor<64x1xf32>) -> tensor<64x1xf32>
  %subview_9 = memref.subview %reinterpret_cast_3[0, 0, 0, 0] [1, 1, 64, 1] [1, 1, 1, 1] : memref<1x1x64x1xf32, strided<[64, 64, 1, 1]>> to memref<64x1xf32, strided<[1, 1]>>
  hivm.hir.store ins(%19 : tensor<64x1xf32>) outs(%subview_9 : memref<64x1xf32, strided<[1, 1]>>)
  return
}

// -----// IR Dump After NormalizeMatmul (hivm-normalize-matmul) //----- //
module attributes {dlti.target_system_spec = #dlti.target_system_spec<"NPU" : #hacc.target_device_spec<#dlti.dl_entry<"AI_CORE_COUNT", 24 : i32>, #dlti.dl_entry<"CUBE_CORE_COUNT", 24 : i32>, #dlti.dl_entry<"VECTOR_CORE_COUNT", 48 : i32>, #dlti.dl_entry<"UB_SIZE", 1572864 : i32>, #dlti.dl_entry<"L1_SIZE", 4194304 : i32>, #dlti.dl_entry<"L0A_SIZE", 524288 : i32>, #dlti.dl_entry<"L0B_SIZE", 524288 : i32>, #dlti.dl_entry<"L0C_SIZE", 1048576 : i32>, #dlti.dl_entry<"UB_ALIGN_SIZE", 256 : i32>, #dlti.dl_entry<"L1_ALIGN_SIZE", 256 : i32>, #dlti.dl_entry<"L0C_ALIGN_SIZE", 4096 : i32>>>, hivm.module_core_type = #hivm.module_core_type<MIX>, memref.memref_as_ptr} {
  func.func @main(%arg0: i64 {hacc.arg_type = #hacc.arg_type<ffts_base_address>}, %arg1: memref<?xi8> {hacc.arg_type = #hacc.arg_type<sync_block_lock>}, %arg2: memref<?xi8> {hacc.arg_type = #hacc.arg_type<workspace>}, %arg3: memref<?xf16>, %arg4: memref<?xf16>, %arg5: memref<?xi32>, %arg6: memref<?xf16>, %arg7: memref<?xf32>, %arg8: i32, %arg9: i32, %arg10: i32) attributes {SyncBlockLockArgIdx = 0 : i64, WorkspaceArgIdx = 1 : i64, func_dyn_memref_args = dense<[false, true, true, true, true, true, true, true, false, false, false]> : vector<11xi1>, hacc.entry, hacc.function_kind = #hacc.function_kind<DEVICE>, hivm.func_core_type = #hivm.func_core_type<MIX>, hivm.part_of_mix, mix_mode = "mix"} {
    %c1_i32 = arith.constant 1 : i32
    %cst = arith.constant 0.000000e+00 : f32
    %c4096 = arith.constant 4096 : index
    %c20480 = arith.constant 20480 : index
    %c64 = arith.constant 64 : index
    %c256 = arith.constant 256 : index
    %c5120 = arith.constant 5120 : index
    %c80 = arith.constant 80 : index
    %c1 = arith.constant 1 : index
    %false = arith.constant false
    %true = arith.constant true
    %c4_i32 = arith.constant 4 : i32
    %cst_0 = arith.constant 0.111803398 : f32
    %cst_1 = arith.constant 0xFF800000 : f32
    %c0_i32 = arith.constant 0 : i32
    %c64_i32 = arith.constant 64 : i32
    hivm.hir.set_mask_norm
    %0 = arith.muli %arg8, %arg9 : i32
    %1 = arith.muli %0, %arg10 : i32
    annotation.mark %1 {logical_block_num} : i32
    hivm.hir.set_ffts_base_addr %arg0
    %reinterpret_cast = memref.reinterpret_cast %arg3 to offset: [0], sizes: [1, 1, 64, 80], strides: [%c5120, %c5120, %c80, %c1] : memref<?xf16> to memref<1x1x64x80xf16, strided<[5120, 5120, 80, 1]>>
    %reinterpret_cast_2 = memref.reinterpret_cast %arg5 to offset: [0], sizes: [1, 1, 1, 256], strides: [%c256, %c256, %c256, %c1] : memref<?xi32> to memref<1x1x1x256xi32, strided<[256, 256, 256, 1]>>
    %reinterpret_cast_3 = memref.reinterpret_cast %arg7 to offset: [0], sizes: [1, 1, 64, 1], strides: [%c64, %c64, %c1, %c1] : memref<?xf32> to memref<1x1x64x1xf32, strided<[64, 64, 1, 1]>>
    %reinterpret_cast_4 = memref.reinterpret_cast %arg4 to offset: [0], sizes: [1, 256, 1, 80], strides: [%c20480, %c80, %c80, %c1] : memref<?xf16> to memref<1x256x1x80xf16, strided<[20480, 80, 80, 1]>>
    %reinterpret_cast_5 = memref.reinterpret_cast %arg6 to offset: [0], sizes: [1, 1, 64, 64], strides: [%c4096, %c4096, %c64, %c1] : memref<?xf16> to memref<1x1x64x64xf16, strided<[4096, 4096, 64, 1]>>
    %2 = tensor.empty() : tensor<64x1xf32>
    %3 = tensor.empty() : tensor<64x1xf32>
    %4 = tensor.empty() : tensor<64x64xf32>
    %5 = tensor.empty() : tensor<64x64xf32>
    %6 = tensor.empty() : tensor<64x64xf16>
    %7 = tensor.empty() : tensor<64x1xf32>
    %8 = tensor.empty() : tensor<64x64xf32>
    %9 = hivm.hir.vbrc ins(%cst : f32) outs(%4 : tensor<64x64xf32>) -> tensor<64x64xf32>
    %10 = hivm.hir.vbrc ins(%cst : f32) outs(%3 : tensor<64x1xf32>) -> tensor<64x1xf32>
…
      hivm.hir.vsub ins(%collapse_shape_6, %collapse_shape_22 : memref<64xf32, #hivm.address_space<ub>>, memref<64xf32, #hivm.address_space<ub>>) outs(%collapse_shape_23 : memref<64xf32, #hivm.address_space<ub>>)
      %32 = hivm.hir.pointer_cast(%c77056_i64) : memref<64x1xf32, #hivm.address_space<ub>>
      %collapse_shape_24 = memref.collapse_shape %32 [[0, 1]] : memref<64x1xf32, #hivm.address_space<ub>> into memref<64xf32, #hivm.address_space<ub>>
      hivm.hir.pipe_barrier[<PIPE_V>]
      hivm.hir.vexp ins(%collapse_shape_23 : memref<64xf32, #hivm.address_space<ub>>) outs(%collapse_shape_24 : memref<64xf32, #hivm.address_space<ub>>)
      %33 = hivm.hir.pointer_cast(%c77312_i64) : memref<64x64xf32, #hivm.address_space<ub>>
      %34 = hivm.hir.pointer_cast(%c93696_i64) : memref<512xf32, #hivm.address_space<ub>>
      hivm.hir.vsub ins(%28, %30 : memref<64x64xf32, #hivm.address_space<ub>>, memref<64x1xf32, #hivm.address_space<ub>>) outs(%33 : memref<64x64xf32, #hivm.address_space<ub>>) temp_buffer(%34 : memref<512xf32, #hivm.address_space<ub>>) broadcast = [1]
      %collapse_shape_25 = memref.collapse_shape %33 [[0, 1]] : memref<64x64xf32, #hivm.address_space<ub>> into memref<4096xf32, #hivm.address_space<ub>>
      hivm.hir.pipe_barrier[<PIPE_V>]
      hivm.hir.vexp ins(%collapse_shape_25 : memref<4096xf32, #hivm.address_space<ub>>) outs(%collapse_shape_20 : memref<4096xf32, #hivm.address_space<ub>>)
      %35 = hivm.hir.pointer_cast(%c95744_i64) : memref<64x1xf32, #hivm.address_space<ub>>
      hivm.hir.pipe_barrier[<PIPE_V>]
      hivm.hir.vreduce <sum> ins(%28 : memref<64x64xf32, #hivm.address_space<ub>>) outs(%35 : memref<64x1xf32, #hivm.address_space<ub>>) reduce_dims = [1]
      hivm.hir.vmul ins(%collapse_shape_5, %collapse_shape_24 : memref<64xf32, #hivm.address_space<ub>>, memref<64xf32, #hivm.address_space<ub>>) outs(%collapse_shape_5 : memref<64xf32, #hivm.address_space<ub>>)
      %collapse_shape_26 = memref.collapse_shape %35 [[0, 1]] : memref<64x1xf32, #hivm.address_space<ub>> into memref<64xf32, #hivm.address_space<ub>>
      hivm.hir.pipe_barrier[<PIPE_V>]
      hivm.hir.vadd ins(%collapse_shape_5, %collapse_shape_26 : memref<64xf32, #hivm.address_space<ub>>, memref<64xf32, #hivm.address_space<ub>>) outs(%collapse_shape_5 : memref<64xf32, #hivm.address_space<ub>>)
      %36 = hivm.hir.pointer_cast(%c96000_i64) : memref<512xf32, #hivm.address_space<ub>>
      hivm.hir.vmul ins(%arg12, %32 : memref<64x64xf32, #hivm.address_space<ub>>, memref<64x1xf32, #hivm.address_space<ub>>) outs(%arg12 : memref<64x64xf32, #hivm.address_space<ub>>) temp_buffer(%36 : memref<512xf32, #hivm.address_space<ub>>) broadcast = [1]
      %37 = hivm.hir.pointer_cast(%c98048_i64) : memref<64x64xf16, #hivm.address_space<ub>>
      %collapse_shape_27 = memref.collapse_shape %37 [[0, 1]] : memref<64x64xf16, #hivm.address_space<ub>> into memref<4096xf16, #hivm.address_space<ub>>
      hivm.hir.wait_flag[<PIPE_MTE3>, <PIPE_V>, <EVENT_ID0>]
      hivm.hir.vcast ins(%collapse_shape_20 : memref<4096xf32, #hivm.address_space<ub>>) outs(%collapse_shape_27 : memref<4096xf16, #hivm.address_space<ub>>)
      hivm.hir.set_flag[<PIPE_V>, <PIPE_MTE3>, <EVENT_ID1>]
      hivm.hir.sync_block_wait[<VECTOR>, <PIPE_MTE2>, <PIPE_S>] flag = 6
      hivm.hir.wait_flag[<PIPE_V>, <PIPE_MTE3>, <EVENT_ID1>]
      scf.if %11 {
        %collapse_shape_32 = memref.collapse_shape %view_12 [[0, 1]] : memref<64x64xf16, #hivm.address_space<gm>> into memref<4096xf16, #hivm.address_space<gm>>
        hivm.hir.store ins(%collapse_shape_27 : memref<4096xf16, #hivm.address_space<ub>>) outs(%collapse_shape_32 : memref<4096xf16, #hivm.address_space<gm>>)
      }
      hivm.hir.set_flag[<PIPE_MTE3>, <PIPE_V>, <EVENT_ID0>]
      annotation.mark %view_12 : memref<64x64xf16, #hivm.address_space<gm>>
      hivm.hir.sync_block_set[<VECTOR>, <PIPE_MTE3>, <PIPE_S>] flag = 1 ffts_base_addr = %arg0
      hivm.hir.vbrc ins(%cst_1 : f32) outs(%collapse_shape_23 : memref<64xf32, #hivm.address_space<ub>>)
      hivm.hir.pipe_barrier[<PIPE_V>]
      hivm.hir.vadd ins(%collapse_shape_23, %collapse_shape_22 : memref<64xf32, #hivm.address_space<ub>>, memref<64xf32, #hivm.address_space<ub>>) outs(%collapse_shape_6 : memref<64xf32, #hivm.address_space<ub>>)
      hivm.hir.sync_block_wait[<VECTOR>, <PIPE_FIX>, <PIPE_S>] flag = 1
      %38 = hivm.hir.pointer_cast(%c106240_i64) : memref<64x64xf32, #hivm.address_space<ub>>
      %collapse_shape_28 = memref.collapse_shape %view_13 [[0, 1]] : memref<64x64xf32, #hivm.address_space<gm>> into memref<4096xf32, #hivm.address_space<gm>>
      %collapse_shape_29 = memref.collapse_shape %38 [[0, 1]] : memref<64x64xf32, #hivm.address_space<ub>> into memref<4096xf32, #hivm.address_space<ub>>
      hivm.hir.load ins(%collapse_shape_28 : memref<4096xf32, #hivm.address_space<gm>>) outs(%collapse_shape_29 : memref<4096xf32, #hivm.address_space<ub>>) init_out_buffer = false may_implicit_transpose_with_last_axis = false
      hivm.hir.set_flag[<PIPE_MTE2>, <PIPE_V>, <EVENT_ID1>]
      hivm.hir.sync_block_set[<VECTOR>, <PIPE_MTE2>, <PIPE_S>] flag = 7 ffts_base_addr = %arg0
      %39 = hivm.hir.pointer_cast(%c0_i64) : memref<64x64xf32, #hivm.address_space<ub>>
      %collapse_shape_30 = memref.collapse_shape %arg12 [[0, 1]] : memref<64x64xf32, #hivm.address_space<ub>> into memref<4096xf32, #hivm.address_space<ub>>
      %collapse_shape_31 = memref.collapse_shape %39 [[0, 1]] : memref<64x64xf32, #hivm.address_space<ub>> into memref<4096xf32, #hivm.address_space<ub>>
      hivm.hir.wait_flag[<PIPE_MTE2>, <PIPE_V>, <EVENT_ID1>]
      hivm.hir.vadd ins(%collapse_shape_29, %collapse_shape_30 : memref<4096xf32, #hivm.address_space<ub>>, memref<4096xf32, #hivm.address_space<ub>>) outs(%collapse_shape_31 : memref<4096xf32, #hivm.address_space<ub>>)
      hivm.hir.wait_flag[<PIPE_MTE3>, <PIPE_V>, <EVENT_ID1>]
      hivm.hir.copy ins(%28 : memref<64x64xf32, #hivm.address_space<ub>>) outs(%18 : memref<64x64xf32, #hivm.address_space<ub>>)
      hivm.hir.set_flag[<PIPE_V>, <PIPE_MTE2>, <EVENT_ID0>]
      hivm.hir.set_flag[<PIPE_V>, <PIPE_MTE3>, <EVENT_ID0>]
      scf.yield %39 : memref<64x64xf32, #hivm.address_space<ub>>
    }
    %20 = hivm.hir.pointer_cast(%c122624_i64) : memref<512xf32, #hivm.address_space<ub>>
    hivm.hir.pipe_barrier[<PIPE_V>]
    hivm.hir.pipe_barrier[<PIPE_V>]
    hivm.hir.vdiv ins(%19, %3 : memref<64x64xf32, #hivm.address_space<ub>>, memref<64x1xf32, #hivm.address_space<ub>>) outs(%19 : memref<64x64xf32, #hivm.address_space<ub>>) temp_buffer(%20 : memref<512xf32, #hivm.address_space<ub>>) broadcast = [1]
    %21 = hivm.hir.pointer_cast(%c124672_i64) : memref<64x64xf16, #hivm.address_space<ub>>
    %collapse_shape_14 = memref.collapse_shape %19 [[0, 1]] : memref<64x64xf32, #hivm.address_space<ub>> into memref<4096xf32, #hivm.address_space<ub>>
    %collapse_shape_15 = memref.collapse_shape %21 [[0, 1]] : memref<64x64xf16, #hivm.address_space<ub>> into memref<4096xf16, #hivm.address_space<ub>>
    hivm.hir.pipe_barrier[<PIPE_V>]
    hivm.hir.vcast ins(%collapse_shape_14 : memref<4096xf32, #hivm.address_space<ub>>) outs(%collapse_shape_15 : memref<4096xf16, #hivm.address_space<ub>>)
    hivm.hir.set_flag[<PIPE_V>, <PIPE_MTE3>, <EVENT_ID2>]
    %subview = memref.subview %reinterpret_cast_4[0, 0, 0, 0] [1, 1, 64, 64] [1, 1, 1, 1] : memref<1x1x64x64xf16, strided<[4096, 4096, 64, 1]>, #hivm.address_space<gm>> to memref<64x64xf16, strided<[64, 1]>, #hivm.address_space<gm>>
    hivm.hir.wait_flag[<PIPE_V>, <PIPE_MTE3>, <EVENT_ID2>]
    scf.if %11 {
      %collapse_shape_18 = memref.collapse_shape %subview [[0, 1]] : memref<64x64xf16, strided<[64, 1]>, #hivm.address_space<gm>> into memref<4096xf16, strided<[1]>, #hivm.address_space<gm>>
      hivm.hir.store ins(%collapse_shape_15 : memref<4096xf16, #hivm.address_space<ub>>) outs(%collapse_shape_18 : memref<4096xf16, strided<[1]>, #hivm.address_space<gm>>)
    } {limit_sub_block_id0}
    %22 = hivm.hir.pointer_cast(%c16384_i64) : memref<64x1xf32, #hivm.address_space<ub>>
    %collapse_shape_16 = memref.collapse_shape %22 [[0, 1]] : memref<64x1xf32, #hivm.address_space<ub>> into memref<64xf32, #hivm.address_space<ub>>
    hivm.hir.vln ins(%collapse_shape_5 : memref<64xf32, #hivm.address_space<ub>>) outs(%collapse_shape_16 : memref<64xf32, #hivm.address_space<ub>>)
    hivm.hir.pipe_barrier[<PIPE_V>]
    hivm.hir.vadd ins(%collapse_shape_16, %collapse_shape_6 : memref<64xf32, #hivm.address_space<ub>>, memref<64xf32, #hivm.address_space<ub>>) outs(%collapse_shape_16 : memref<64xf32, #hivm.address_space<ub>>)
    hivm.hir.set_flag[<PIPE_V>, <PIPE_MTE3>, <EVENT_ID3>]
    %subview_17 = memref.subview %reinterpret_cast_2[0, 0, 0, 0] [1, 1, 64, 1] [1, 1, 1, 1] : memref<1x1x64x1xf32, strided<[64, 64, 1, 1]>, #hivm.address_space<gm>> to memref<64x1xf32, strided<[1, 1]>, #hivm.address_space<gm>>
    hivm.hir.wait_flag[<PIPE_V>, <PIPE_MTE3>, <EVENT_ID3>]
    scf.if %11 {
      %collapse_shape_18 = memref.collapse_shape %subview_17 [[0, 1]] : memref<64x1xf32, strided<[1, 1]>, #hivm.address_space<gm>> into memref<64xf32, strided<[1]>, #hivm.address_space<gm>>
      hivm.hir.store ins(%collapse_shape_16 : memref<64xf32, #hivm.address_space<ub>>) outs(%collapse_shape_18 : memref<64xf32, strided<[1]>, #hivm.address_space<gm>>)
    } {limit_sub_block_id0}
    hivm.hir.pipe_barrier[<PIPE_ALL>]
    hivm.hir.wait_flag[<PIPE_V>, <PIPE_MTE3>, <EVENT_ID0>]
    hivm.hir.wait_flag[<PIPE_S>, <PIPE_MTE2>, <EVENT_ID0>]
    hivm.hir.wait_flag[<PIPE_MTE3>, <PIPE_MTE2>, <EVENT_ID0>]
    hivm.hir.wait_flag[<PIPE_V>, <PIPE_MTE2>, <EVENT_ID0>]
    hivm.hir.wait_flag[<PIPE_MTE3>, <PIPE_V>, <EVENT_ID0>]
    hivm.hir.sync_block_wait[<VECTOR>, <PIPE_MTE2>, <PIPE_S>] flag = 0
    hivm.hir.sync_block_wait[<VECTOR>, <PIPE_MTE2>, <PIPE_S>] flag = 2
    hivm.hir.sync_block_wait[<VECTOR>, <PIPE_MTE2>, <PIPE_S>] flag = 3
    hivm.hir.sync_block_wait[<VECTOR>, <PIPE_MTE2>, <PIPE_S>] flag = 4
    hivm.hir.sync_block_wait[<VECTOR>, <PIPE_MTE2>, <PIPE_S>] flag = 6
    return
  }
}
// -----// IR Dump After bishengir::BiShengIRCompilePass (bishengir-compile) //----- //
#map = affine_map<()[s0] -> (s0 * 75776)>
#map1 = affine_map<()[s0] -> (s0 * 75776 + 16384)>
#map2 = affine_map<()[s0] -> (s0 * 75776 + 24576)>
#map3 = affine_map<()[s0] -> (s0 * 75776 + 26624)>
#map4 = affine_map<()[s0] -> (s0 * 75776 + 34816)>
#map5 = affine_map<()[s0] -> (s0 * 75776 + 51200)>
#map6 = affine_map<()[s0] -> (s0 * 75776 + 59392)>
module attributes {dlti.target_system_spec = #dlti.target_system_spec<"NPU" : #hacc.target_device_spec<#dlti.dl_entry<"AI_CORE_COUNT", 24 : i32>, #dlti.dl_entry<"CUBE_CORE_COUNT", 24 : i32>, #dlti.dl_entry<"VECTOR_CORE_COUNT", 48 : i32>, #dlti.dl_entry<"UB_SIZE", 1572864 : i32>, #dlti.dl_entry<"L1_SIZE", 4194304 : i32>, #dlti.dl_entry<"L0A_SIZE", 524288 : i32>, #dlti.dl_entry<"L0B_SIZE", 524288 : i32>, #dlti.dl_entry<"L0C_SIZE", 1048576 : i32>, #dlti.dl_entry<"UB_ALIGN_SIZE", 256 : i32>, #dlti.dl_entry<"L1_ALIGN_SIZE", 256 : i32>, #dlti.dl_entry<"L0C_ALIGN_SIZE", 4096 : i32>>>, hivm.module_core_type = #hivm.module_core_type<MIX>, memref.memref_as_ptr} {
  func.func @main_infer_workspace_shape_function() -> index attributes {hacc.function_kind = #hacc.function_kind<HOST>, hacc.host_func_type = #hacc.host_func_type<infer_workspace_shape_function>} {
    %c75776 = arith.constant 75776 : index
    return %c75776 : index
  }
  func.func @main_infer_task_type_function() -> i8 attributes {hacc.function_kind = #hacc.function_kind<HOST>, hacc.host_func_type = #hacc.host_func_type<infer_task_type_function>} {
    %c32_i8 = arith.constant 32 : i8
    return %c32_i8 : i8
  }
  func.func @main_mix_aic(%arg0: i64 {hacc.arg_type = #hacc.arg_type<ffts_base_address>}, %arg1: memref<?xi8, #hivm.address_space<gm>> {hacc.arg_type = #hacc.arg_type<sync_block_lock>}, %arg2: memref<?xi8, #hivm.address_space<gm>> {hacc.arg_type = #hacc.arg_type<workspace>}, %arg3: memref<?xf16, #hivm.address_space<gm>>, %arg4: memref<?xf16, #hivm.address_space<gm>>, %arg5: memref<?xi32, #hivm.address_space<gm>>, %arg6: memref<?xf16, #hivm.address_space<gm>>, %arg7: memref<?xf32, #hivm.address_space<gm>>, %arg8: i32, %arg9: i32, %arg10: i32) attributes {SyncBlockLockArgIdx = 0 : i64, WorkspaceArgIdx = 1 : i64, func_dyn_memref_args = dense<[false, true, true, true, true, true, true, true, false, false, false]> : vector<11xi1>, hacc.entry, hacc.function_kind = #hacc.function_kind<DEVICE>, hivm.func_core_type = #hivm.func_core_type<AIC>, hivm.part_of_mix, hivm.storage_aligned, mix_mode = "mix"} {
    %c3_i64 = arith.constant 3 : i64
    %c2_i64 = arith.constant 2 : i64
    %c4_i64 = arith.constant 4 : i64
    %c1_i64 = arith.constant 1 : i64
    %c0_i64 = arith.constant 0 : i64
    %c-1_i64 = arith.constant -1 : i64
    %c16384_i64 = arith.constant 16384 : i64
    %c28672_i64 = arith.constant 28672 : i64
    %c20480_i64 = arith.constant 20480 : i64
    %c18432_i64 = arith.constant 18432 : i64
    %c10240_i64 = arith.constant 10240 : i64
    %c8192_i64 = arith.constant 8192 : i64
    %c0_i32 = arith.constant 0 : i32
    %c4_i32 = arith.constant 4 : i32
    %true = arith.constant true
    %false = arith.constant false
    %c64 = arith.constant 64 : index
    %c1_i32 = arith.constant 1 : i32
    %c16 = arith.constant 16 : index
    hivm.hir.set_ffts_base_addr %arg0
    hivm.hir.set_mask_norm
    %0 = arith.muli %arg8, %arg9 : i32
    %1 = arith.muli %0, %arg10 : i32
    annotation.mark %1 {logical_block_num} : i32
    hivm.hir.set_ffts_base_addr %arg0
    %reinterpret_cast = memref.reinterpret_cast %arg3 to offset: [0], sizes: [1, 1, 64, 80], strides: [5120, 5120, 80, 1] : memref<?xf16, #hivm.address_space<gm>> to memref<1x1x64x80xf16, strided<[5120, 5120, 80, 1]>, #hivm.address_space<gm>>
    %subview = memref.subview %reinterpret_cast[0, 0, 0, 0] [1, 1, 64, 64] [1, 1, 1, 1] : memref<1x1x64x80xf16, strided<[5120, 5120, 80, 1]>, #hivm.address_space<gm>> to memref<64x64xf16, strided<[80, 1]>, #hivm.address_space<gm>>
    %2 = hivm.hir.pointer_cast(%c0_i64) : memref<4x4x16x16xf16, #hivm.address_space<cbuf>>
    %cast = memref.cast %2 : memref<4x4x16x16xf16, #hivm.address_space<cbuf>> to memref<?x?x?x?xf16, #hivm.address_space<cbuf>>
    hivm.hir.sync_block_set[<CUBE>, <PIPE_MTE2>, <PIPE_S>] flag = 0 ffts_base_addr = %arg0
    hivm.hir.sync_block_set[<CUBE>, <PIPE_MTE2>, <PIPE_S>] flag = 2 ffts_base_addr = %arg0
    hivm.hir.sync_block_set[<CUBE>, <PIPE_MTE2>, <PIPE_S>] flag = 3 ffts_base_addr = %arg0
    hivm.hir.sync_block_set[<CUBE>, <PIPE_MTE2>, <PIPE_S>] flag = 4 ffts_base_addr = %arg0
    hivm.hir.sync_block_set[<CUBE>, <PIPE_MTE2>, <PIPE_S>] flag = 6 ffts_base_addr = %arg0
    hivm.hir.set_flag[<PIPE_M>, <PIPE_MTE1>, <EVENT_ID0>]
    hivm.hir.set_flag[<PIPE_M>, <PIPE_MTE1>, <EVENT_ID1>]
    hivm.hir.set_flag[<PIPE_FIX>, <PIPE_MTE2>, <EVENT_ID0>]
    hivm.hir.set_flag[<PIPE_MTE1>, <PIPE_MTE2>, <EVENT_ID0>]
    hivm.hir.set_flag[<PIPE_MTE1>, <PIPE_MTE2>, <EVENT_ID1>]
    hivm.hir.set_flag[<PIPE_MTE1>, <PIPE_MTE2>, <EVENT_ID2>]
    hivm.hir.set_flag[<PIPE_MTE1>, <PIPE_MTE2>, <EVENT_ID3>]
    hivm.hir.set_flag[<PIPE_FIX>, <PIPE_M>, <EVENT_ID0>]
    hivm.hir.nd2nz {dst_continuous} ins(%subview : memref<64x64xf16, strided<[80, 1]>, #hivm.address_space<gm>>) outs(%cast : memref<?x?x?x?xf16, #hivm.address_space<cbuf>>) init_out_buffer = false
    %subview_0 = memref.subview %reinterpret_cast[0, 0, 0, 64] [1, 1, 64, 16] [1, 1, 1, 1] : memref<1x1x64x80xf16, strided<[5120, 5120, 80, 1]>, #hivm.address_space<gm>> to memref<64x16xf16, strided<[80, 1], offset: 64>, #hivm.address_space<gm>>
    %3 = hivm.hir.pointer_cast(%c8192_i64) : memref<1x4x16x16xf16, #hivm.address_space<cbuf>>
    %cast_1 = memref.cast %3 : memref<1x4x16x16xf16, #hivm.address_space<cbuf>> to memref<?x?x?x?xf16, #hivm.address_space<cbuf>>
    hivm.hir.nd2nz {dst_continuous} ins(%subview_0 : memref<64x16xf16, strided<[80, 1], offset: 64>, #hivm.address_space<gm>>) outs(%cast_1 : memref<?x?x?x?xf16, #hivm.address_space<cbuf>>) init_out_buffer = false
    hivm.hir.set_flag[<PIPE_MTE2>, <PIPE_MTE1>, <EVENT_ID0>]
    %4 = hivm.hir.get_block_idx -> i64
    %5 = arith.index_cast %4 : i64 to index
    %6 = affine.apply #map()[%5]
    %view = memref.view %arg2[%6][] : memref<?xi8, #hivm.address_space<gm>> to memref<64x64xf32, #hivm.address_space<gm>>
    %7 = affine.apply #map1()[%5]
    %view_2 = memref.view %arg2[%7][] : memref<?xi8, #hivm.address_space<gm>> to memref<64x64xf16, #hivm.address_space<gm>>
    %8 = affine.apply #map2()[%5]
    %view_3 = memref.view %arg2[%8][] : memref<?xi8, #hivm.address_space<gm>> to memref<64x16xf16, #hivm.address_space<gm>>
    %9 = affine.apply #map3()[%5]
    %view_4 = memref.view %arg2[%9][] : memref<?xi8, #hivm.address_space<gm>> to memref<64x64xf16, #hivm.address_space<gm>>
    %10 = affine.apply #map4()[%5]
    %view_5 = memref.view %arg2[%10][] : memref<?xi8, #hivm.address_space<gm>> to memref<64x64xf32, #hivm.address_space<gm>>
    %11 = affine.apply #map5()[%5]
    %view_6 = memref.view %arg2[%11][] : memref<?xi8, #hivm.address_space<gm>> to memref<64x64xf16, #hivm.address_space<gm>>
    %12 = affine.apply #map6()[%5]
    %view_7 = memref.view %arg2[%12][] : memref<?xi8, #hivm.address_space<gm>> to memref<64x64xf32, #hivm.address_space<gm>>
    hivm.hir.wait_flag[<PIPE_MTE2>, <PIPE_MTE1>, <EVENT_ID0>]
    scf.for %arg11 = %c0_i32 to %c4_i32 step %c1_i32  : i32 {
      %13 = arith.index_cast %arg11 : i32 to index
      %14 = arith.index_cast %13 : index to i64
      %15 = arith.index_cast %arg11 : i32 to index
      %16 = arith.index_cast %15 : index to i64
      %17 = arith.index_cast %arg11 : i32 to index
      %18 = arith.index_cast %17 : index to i64
      hivm.hir.sync_block_wait[<CUBE>, <PIPE_MTE3>, <PIPE_S>] flag = 1
      %19 = hivm.hir.pointer_cast(%c0_i64) : memref<4x4x16x16xf32, #hivm.address_space<cc>>
      %cast_8 = memref.cast %19 : memref<4x4x16x16xf32, #hivm.address_space<cc>> to memref<?x?x?x?xf32, #hivm.address_space<cc>>
      hivm.hir.wait_flag[<PIPE_FIX>, <PIPE_MTE2>, <EVENT_ID0>]
      hivm.hir.nd2nz {dst_continuous} ins(%view : memref<64x64xf32, #hivm.address_space<gm>>) outs(%cast_8 : memref<?x?x?x?xf32, #hivm.address_space<cc>>) init_out_buffer = false
      hivm.hir.set_flag[<PIPE_MTE2>, <PIPE_M>, <EVENT_ID0>]
      hivm.hir.sync_block_set[<CUBE>, <PIPE_MTE2>, <PIPE_S>] flag = 0 ffts_base_addr = %arg0
      hivm.hir.sync_block_wait[<CUBE>, <PIPE_MTE3>, <PIPE_S>] flag = 1
      %20 = hivm.hir.pointer_cast(%c10240_i64) : memref<4x4x16x16xf16, #hivm.address_space<cbuf>>
      %cast_9 = memref.cast %20 : memref<4x4x16x16xf16, #hivm.address_space<cbuf>> to memref<?x?x?x?xf16, #hivm.address_space<cbuf>>
      hivm.hir.wait_flag[<PIPE_MTE1>, <PIPE_MTE2>, <EVENT_ID0>]
      hivm.hir.nd2nz {dst_continuous} ins(%view_2 : memref<64x64xf16, #hivm.address_space<gm>>) outs(%cast_9 : memref<?x?x?x?xf16, #hivm.address_space<cbuf>>) init_out_buffer = false
      hivm.hir.set_flag[<PIPE_MTE2>, <PIPE_MTE1>, <EVENT_ID1>]
      hivm.hir.sync_block_set[<CUBE>, <PIPE_MTE2>, <PIPE_S>] flag = 2 ffts_base_addr = %arg0
      hivm.hir.sync_block_wait[<CUBE>, <PIPE_MTE3>, <PIPE_S>] flag = 1
      %21 = hivm.hir.pointer_cast(%c18432_i64) : memref<1x4x16x16xf16, #hivm.address_space<cbuf>>
      %cast_10 = memref.cast %21 : memref<1x4x16x16xf16, #hivm.address_space<cbuf>> to memref<?x?x?x?xf16, #hivm.address_space<cbuf>>
      hivm.hir.wait_flag[<PIPE_MTE1>, <PIPE_MTE2>, <EVENT_ID1>]
      hivm.hir.nd2nz {dst_continuous} ins(%view_3 : memref<64x16xf16, #hivm.address_space<gm>>) outs(%cast_10 : memref<?x?x?x?xf16, #hivm.address_space<cbuf>>) init_out_buffer = false
      hivm.hir.set_flag[<PIPE_MTE2>, <PIPE_MTE1>, <EVENT_ID2>]
      hivm.hir.sync_block_set[<CUBE>, <PIPE_MTE2>, <PIPE_S>] flag = 3 ffts_base_addr = %arg0
      hivm.hir.sync_block_wait[<CUBE>, <PIPE_MTE3>, <PIPE_S>] flag = 1
      %22 = hivm.hir.pointer_cast(%c20480_i64) : memref<4x4x16x16xf16, #hivm.address_space<cbuf>>
      %cast_11 = memref.cast %22 : memref<4x4x16x16xf16, #hivm.address_space<cbuf>> to memref<?x?x?x?xf16, #hivm.address_space<cbuf>>
      hivm.hir.wait_flag[<PIPE_MTE1>, <PIPE_MTE2>, <EVENT_ID2>]
      hivm.hir.nd2nz {dst_continuous} ins(%view_4 : memref<64x64xf16, #hivm.address_space<gm>>) outs(%cast_11 : memref<?x?x?x?xf16, #hivm.address_space<cbuf>>) init_out_buffer = false
      hivm.hir.set_flag[<PIPE_MTE2>, <PIPE_MTE1>, <EVENT_ID4>]
      hivm.hir.sync_block_set[<CUBE>, <PIPE_MTE2>, <PIPE_S>] flag = 4 ffts_base_addr = %arg0
      hivm.hir.wait_flag[<PIPE_MTE2>, <PIPE_M>, <EVENT_ID0>]
      hivm.hir.mmadL1 {b_transpose} ins(%cast, %cast_9, %true, %c64, %c64, %c64 : memref<?x?x?x?xf16, #hivm.address_space<cbuf>>, memref<?x?x?x?xf16, #hivm.address_space<cbuf>>, i1, index, index, index) outs(%cast_8 : memref<?x?x?x?xf32, #hivm.address_space<cc>>) sync_related_args(%c-1_i64, %c1_i64, %c-1_i64, %c0_i64, %18, %c0_i64, %c1_i64 : i64, i64, i64, i64, i64, i64, i64)
      hivm.hir.mmadL1 {b_transpose, fixpipe_already_inserted = true} ins(%cast_1, %cast_10, %false, %c64, %c16, %c64 : memref<?x?x?x?xf16, #hivm.address_space<cbuf>>, memref<?x?x?x?xf16, #hivm.address_space<cbuf>>, i1, index, index, index) outs(%cast_8 : memref<?x?x?x?xf32, #hivm.address_space<cc>>) sync_related_args(%c-1_i64, %c2_i64, %c-1_i64, %c1_i64, %16, %c0_i64, %c1_i64 : i64, i64, i64, i64, i64, i64, i64)
      hivm.hir.set_flag[<PIPE_M>, <PIPE_FIX>, <EVENT_ID0>]
      hivm.hir.sync_block_wait[<CUBE>, <PIPE_MTE2>, <PIPE_S>] flag = 5
      hivm.hir.wait_flag[<PIPE_M>, <PIPE_FIX>, <EVENT_ID0>]
      hivm.hir.fixpipe {enable_nz2nd} ins(%cast_8 : memref<?x?x?x?xf32, #hivm.address_space<cc>>) outs(%view_5 : memref<64x64xf32, #hivm.address_space<gm>>)
      hivm.hir.set_flag[<PIPE_FIX>, <PIPE_MTE2>, <EVENT_ID0>]
      annotation.mark %view_5 : memref<64x64xf32, #hivm.address_space<gm>>
      annotation.mark %view_5 : memref<64x64xf32, #hivm.address_space<gm>>
      hivm.hir.sync_block_set[<CUBE>, <PIPE_FIX>, <PIPE_S>] flag = 1 ffts_base_addr = %arg0
      hivm.hir.sync_block_wait[<CUBE>, <PIPE_MTE3>, <PIPE_S>] flag = 1
      %23 = hivm.hir.pointer_cast(%c28672_i64) : memref<4x4x16x16xf16, #hivm.address_space<cbuf>>
      %cast_12 = memref.cast %23 : memref<4x4x16x16xf16, #hivm.address_space<cbuf>> to memref<?x?x?x?xf16, #hivm.address_space<cbuf>>
      hivm.hir.wait_flag[<PIPE_MTE1>, <PIPE_MTE2>, <EVENT_ID3>]
      hivm.hir.nd2nz {dst_continuous} ins(%view_6 : memref<64x64xf16, #hivm.address_space<gm>>) outs(%cast_12 : memref<?x?x?x?xf16, #hivm.address_space<cbuf>>) init_out_buffer = false
      hivm.hir.set_flag[<PIPE_MTE2>, <PIPE_MTE1>, <EVENT_ID3>]
      hivm.hir.sync_block_set[<CUBE>, <PIPE_MTE2>, <PIPE_S>] flag = 6 ffts_base_addr = %arg0
      %24 = hivm.hir.pointer_cast(%c16384_i64) : memref<4x4x16x16xf32, #hivm.address_space<cc>>
      %cast_13 = memref.cast %24 : memref<4x4x16x16xf32, #hivm.address_space<cc>> to memref<?x?x?x?xf32, #hivm.address_space<cc>>
      hivm.hir.wait_flag[<PIPE_FIX>, <PIPE_M>, <EVENT_ID0>]
      hivm.hir.mmadL1 {fixpipe_already_inserted = true} ins(%cast_12, %cast_11, %true, %c64, %c64, %c64 : memref<?x?x?x?xf16, #hivm.address_space<cbuf>>, memref<?x?x?x?xf16, #hivm.address_space<cbuf>>, i1, index, index, index) outs(%cast_13 : memref<?x?x?x?xf32, #hivm.address_space<cc>>) sync_related_args(%c3_i64, %c4_i64, %c3_i64, %c2_i64, %14, %c0_i64, %c1_i64 : i64, i64, i64, i64, i64, i64, i64)
      hivm.hir.set_flag[<PIPE_M>, <PIPE_FIX>, <EVENT_ID1>]
      hivm.hir.sync_block_wait[<CUBE>, <PIPE_MTE2>, <PIPE_S>] flag = 7
      hivm.hir.wait_flag[<PIPE_M>, <PIPE_FIX>, <EVENT_ID1>]
      hivm.hir.fixpipe {enable_nz2nd} ins(%cast_13 : memref<?x?x?x?xf32, #hivm.address_space<cc>>) outs(%view_7 : memref<64x64xf32, #hivm.address_space<gm>>)
      hivm.hir.set_flag[<PIPE_FIX>, <PIPE_M>, <EVENT_ID0>]
      annotation.mark %view_7 : memref<64x64xf32, #hivm.address_space<gm>>
      hivm.hir.sync_block_set[<CUBE>, <PIPE_FIX>, <PIPE_S>] flag = 1 ffts_base_addr = %arg0
    }
    hivm.hir.wait_flag[<PIPE_M>, <PIPE_MTE1>, <EVENT_ID0>]
    hivm.hir.wait_flag[<PIPE_M>, <PIPE_MTE1>, <EVENT_ID1>]
    hivm.hir.pipe_barrier[<PIPE_ALL>]
    hivm.hir.wait_flag[<PIPE_FIX>, <PIPE_MTE2>, <EVENT_ID0>]
    hivm.hir.wait_flag[<PIPE_MTE1>, <PIPE_MTE2>, <EVENT_ID0>]
    hivm.hir.wait_flag[<PIPE_MTE1>, <PIPE_MTE2>, <EVENT_ID1>]
    hivm.hir.wait_flag[<PIPE_MTE1>, <PIPE_MTE2>, <EVENT_ID2>]
    hivm.hir.wait_flag[<PIPE_MTE1>, <PIPE_MTE2>, <EVENT_ID3>]
    hivm.hir.wait_flag[<PIPE_FIX>, <PIPE_M>, <EVENT_ID0>]
    hivm.hir.sync_block_wait[<CUBE>, <PIPE_MTE2>, <PIPE_S>] flag = 5
    hivm.hir.sync_block_wait[<CUBE>, <PIPE_MTE2>, <PIPE_S>] flag = 7
    return
  }
  func.func @main_mix_aiv(%arg0: i64 {hacc.arg_type = #hacc.arg_type<ffts_base_address>}, %arg1: memref<?xi8, #hivm.address_space<gm>> {hacc.arg_type = #hacc.arg_type<sync_block_lock>}, %arg2: memref<?xi8, #hivm.address_space<gm>> {hacc.arg_type = #hacc.arg_type<workspace>}, %arg3: memref<?xf16, #hivm.address_space<gm>>, %arg4: memref<?xf16, #hivm.address_space<gm>>, %arg5: memref<?xi32, #hivm.address_space<gm>>, %arg6: memref<?xf16, #hivm.address_space<gm>>, %arg7: memref<?xf32, #hivm.address_space<gm>>, %arg8: i32, %arg9: i32, %arg10: i32) attributes {SyncBlockLockArgIdx = 0 : i64, WorkspaceArgIdx = 1 : i64, func_dyn_memref_args = dense<[false, true, true, true, true, true, true, true, false, false, false]> : vector<11xi1>, hacc.entry, hacc.function_kind = #hacc.function_kind<DEVICE>, hivm.func_core_type = #hivm.func_core_type<AIV>, hivm.part_of_mix, hivm.storage_aligned, mix_mode = "mix"} {
    %c124672_i64 = arith.constant 124672 : i64
    %c122624_i64 = arith.constant 122624 : i64
    %c106240_i64 = arith.constant 106240 : i64
    %c98048_i64 = arith.constant 98048 : i64
    %c96000_i64 = arith.constant 96000 : i64
    %c95744_i64 = arith.constant 95744 : i64
    %c93696_i64 = arith.constant 93696 : i64
    %c77312_i64 = arith.constant 77312 : i64
    %c77056_i64 = arith.constant 77056 : i64
    %c76800_i64 = arith.constant 76800 : i64
    %c76544_i64 = arith.constant 76544 : i64
    %c60160_i64 = arith.constant 60160 : i64
    %c58112_i64 = arith.constant 58112 : i64
    %c49920_i64 = arith.constant 49920 : i64
    %c49664_i64 = arith.constant 49664 : i64
    %c33280_i64 = arith.constant 33280 : i64
    %c16896_i64 = arith.constant 16896 : i64
    %c16640_i64 = arith.constant 16640 : i64
    %c16384_i64 = arith.constant 16384 : i64
    %c0_i64 = arith.constant 0 : i64
    %c0 = arith.constant 0 : index
    %c64_i32 = arith.constant 64 : i32
    %c0_i32 = arith.constant 0 : i32
    %cst = arith.constant 0xFF800000 : f32
    %cst_0 = arith.constant 0.111803398 : f32
    %c4_i32 = arith.constant 4 : i32
    %cst_1 = arith.constant 0.000000e+00 : f32
    %c1_i32 = arith.constant 1 : i32
    hivm.hir.set_ffts_base_addr %arg0
    hivm.hir.set_mask_norm
    %0 = arith.muli %arg8, %arg9 : i32
    %1 = arith.muli %0, %arg10 : i32
    annotation.mark %1 {logical_block_num} : i32
    hivm.hir.set_ffts_base_addr %arg0
    %reinterpret_cast = memref.reinterpret_cast %arg5 to offset: [0], sizes: [1, 1, 1, 256], strides: [256, 256, 256, 1] : memref<?xi32, #hivm.address_space<gm>> to memref<1x1x1x256xi32, strided<[256, 256, 256, 1]>, #hivm.address_space<gm>>
    %reinterpret_cast_2 = memref.reinterpret_cast %arg7 to offset: [0], sizes: [1, 1, 64, 1], strides: [64, 64, 1, 1] : memref<?xf32, #hivm.address_space<gm>> to memref<1x1x64x1xf32, strided<[64, 64, 1, 1]>, #hivm.address_space<gm>>
    %reinterpret_cast_3 = memref.reinterpret_cast %arg4 to offset: [0], sizes: [1, 256, 1, 80], strides: [20480, 80, 80, 1] : memref<?xf16, #hivm.address_space<gm>> to memref<1x256x1x80xf16, strided<[20480, 80, 80, 1]>, #hivm.address_space<gm>>
    %reinterpret_cast_4 = memref.reinterpret_cast %arg6 to offset: [0], sizes: [1, 1, 64, 64], strides: [4096, 4096, 64, 1] : memref<?xf16, #hivm.address_space<gm>> to memref<1x1x64x64xf16, strided<[4096, 4096, 64, 1]>, #hivm.address_space<gm>>
    %2 = hivm.hir.pointer_cast(%c0_i64) : memref<64x64xf32, #hivm.address_space<ub>>
    %collapse_shape = memref.collapse_shape %2 [[0, 1]] : memref<64x64xf32, #hivm.address_space<ub>> into memref<4096xf32, #hivm.address_space<ub>>
    hivm.hir.set_flag[<PIPE_V>, <PIPE_MTE3>, <EVENT_ID0>]
    hivm.hir.set_flag[<PIPE_S>, <PIPE_MTE2>, <EVENT_ID0>]
    hivm.hir.set_flag[<PIPE_MTE3>, <PIPE_MTE2>, <EVENT_ID0>]
    hivm.hir.set_flag[<PIPE_V>, <PIPE_MTE2>, <EVENT_ID0>]
    hivm.hir.set_flag[<PIPE_MTE3>, <PIPE_V>, <EVENT_ID0>]
    hivm.hir.vbrc ins(%cst_1 : f32) outs(%collapse_shape : memref<4096xf32, #hivm.address_space<ub>>)
    %3 = hivm.hir.pointer_cast(%c16384_i64) : memref<64x1xf32, #hivm.address_space<ub>>
    %collapse_shape_5 = memref.collapse_shape %3 [[0, 1]] : memref<64x1xf32, #hivm.address_space<ub>> into memref<64xf32, #hivm.address_space<ub>>
    hivm.hir.vbrc ins(%cst_1 : f32) outs(%collapse_shape_5 : memref<64xf32, #hivm.address_space<ub>>)
    %4 = hivm.hir.pointer_cast(%c16640_i64) : memref<64x1xf32, #hivm.address_space<ub>>
    %collapse_shape_6 = memref.collapse_shape %4 [[0, 1]] : memref<64x1xf32, #hivm.address_space<ub>> into memref<64xf32, #hivm.address_space<ub>>
    hivm.hir.vbrc ins(%cst : f32) outs(%collapse_shape_6 : memref<64xf32, #hivm.address_space<ub>>)
    %5 = hivm.hir.pointer_cast(%c16896_i64) : memref<64x64xf32, #hivm.address_space<ub>>
    %collapse_shape_7 = memref.collapse_shape %5 [[0, 1]] : memref<64x64xf32, #hivm.address_space<ub>> into memref<4096xf32, #hivm.address_space<ub>>
    hivm.hir.vbrc ins(%cst_0 : f32) outs(%collapse_shape_7 : memref<4096xf32, #hivm.address_space<ub>>)
    hivm.hir.sync_block_set[<VECTOR>, <PIPE_MTE2>, <PIPE_S>] flag = 5 ffts_base_addr = %arg0
    hivm.hir.sync_block_set[<VECTOR>, <PIPE_MTE2>, <PIPE_S>] flag = 7 ffts_base_addr = %arg0
    %6 = hivm.hir.get_block_idx -> i64
    %7 = arith.index_cast %6 : i64 to index
    %8 = affine.apply #map()[%7]
    %view = memref.view %arg2[%8][] : memref<?xi8, #hivm.address_space<gm>> to memref<64x64xf32, #hivm.address_space<gm>>
    %9 = hivm.hir.get_sub_block_idx -> i64
    %10 = arith.index_cast %9 : i64 to index
    %11 = arith.cmpi eq, %10, %c0 : index
    %12 = affine.apply #map1()[%7]
    %view_8 = memref.view %arg2[%12][] : memref<?xi8, #hivm.address_space<gm>> to memref<64x64xf16, #hivm.address_space<gm>>
    %13 = affine.apply #map2()[%7]
    %view_9 = memref.view %arg2[%13][] : memref<?xi8, #hivm.address_space<gm>> to memref<64x16xf16, #hivm.address_space<gm>>
    %14 = affine.apply #map3()[%7]
    %view_10 = memref.view %arg2[%14][] : memref<?xi8, #hivm.address_space<gm>> to memref<64x64xf16, #hivm.address_space<gm>>
    %15 = affine.apply #map4()[%7]
    %view_11 = memref.view %arg2[%15][] : memref<?xi8, #hivm.address_space<gm>> to memref<64x64xf32, #hivm.address_space<gm>>
    %16 = affine.apply #map5()[%7]
    %view_12 = memref.view %arg2[%16][] : memref<?xi8, #hivm.address_space<gm>> to memref<64x64xf16, #hivm.address_space<gm>>
    %17 = affine.apply #map6()[%7]
    %view_13 = memref.view %arg2[%17][] : memref<?xi8, #hivm.address_space<gm>> to memref<64x64xf32, #hivm.address_space<gm>>
    %18 = hivm.hir.pointer_cast(%c33280_i64) : memref<64x64xf32, #hivm.address_space<ub>>
    %19 = scf.for %arg11 = %c0_i32 to %c4_i32 step %c1_i32 iter_args(%arg12 = %2) -> (memref<64x64xf32, #hivm.address_space<ub>>)  : i32 {
      hivm.hir.sync_block_wait[<VECTOR>, <PIPE_MTE2>, <PIPE_S>] flag = 0
      hivm.hir.wait_flag[<PIPE_V>, <PIPE_MTE3>, <EVENT_ID0>]
      scf.if %11 {
        %collapse_shape_32 = memref.collapse_shape %18 [[0, 1]] : memref<64x64xf32, #hivm.address_space<ub>> into memref<4096xf32, #hivm.address_space<ub>>
        %collapse_shape_33 = memref.collapse_shape %view [[0, 1]] : memref<64x64xf32, #hivm.address_space<gm>> into memref<4096xf32, #hivm.address_space<gm>>
        hivm.hir.store ins(%collapse_shape_32 : memref<4096xf32, #hivm.address_space<ub>>) outs(%collapse_shape_33 : memref<4096xf32, #hivm.address_space<gm>>)
      }
      hivm.hir.set_flag[<PIPE_MTE3>, <PIPE_V>, <EVENT_ID1>]
      annotation.mark %view : memref<64x64xf32, #hivm.address_space<gm>>
      hivm.hir.sync_block_set[<VECTOR>, <PIPE_MTE3>, <PIPE_S>] flag = 1 ffts_base_addr = %arg0
      %23 = arith.muli %arg11, %c64_i32 : i32
      %24 = arith.index_cast %23 : i32 to index
      %subview_18 = memref.subview %reinterpret_cast[0, 0, 0, %24] [1, 1, 1, 64] [1, 1, 1, 1] : memref<1x1x1x256xi32, strided<[256, 256, 256, 1]>, #hivm.address_space<gm>> to memref<64xi32, strided<[1], offset: ?>, #hivm.address_space<gm>>
      %25 = hivm.hir.pointer_cast(%c49664_i64) : memref<64xi32, #hivm.address_space<ub>>
      hivm.hir.wait_flag[<PIPE_S>, <PIPE_MTE2>, <EVENT_ID0>]
      hivm.hir.pipe_barrier[<PIPE_MTE2>]
      hivm.hir.load ins(%subview_18 : memref<64xi32, strided<[1], offset: ?>, #hivm.address_space<gm>>) outs(%25 : memref<64xi32, #hivm.address_space<ub>>) {"DuplicateTensorExtractForCube::cubeErasureLabel" = 1 : i32} init_out_buffer = false may_implicit_transpose_with_last_axis = false
      hivm.hir.set_flag[<PIPE_MTE2>, <PIPE_S>, <EVENT_ID0>]
      %26 = hivm.hir.pointer_cast(%c49920_i64) : memref<64x64xf16, #hivm.address_space<ub>>
      %27 = hivm.hir.pointer_cast(%c58112_i64) : memref<64x16xf16, #hivm.address_space<ub>>
      hivm.hir.wait_flag[<PIPE_MTE2>, <PIPE_S>, <EVENT_ID0>]
      hivm.hir.wait_flag[<PIPE_MTE3>, <PIPE_MTE2>, <EVENT_ID0>]
      scf.for %arg13 = %c0_i32 to %c64_i32 step %c1_i32  : i32 {
        %40 = arith.index_cast %arg13 : i32 to index
        %41 = memref.load %25[%40] : memref<64xi32, #hivm.address_space<ub>>
        %42 = arith.index_cast %41 : i32 to index
        %subview_32 = memref.subview %reinterpret_cast_3[0, %42, 0, 0] [1, 1, 1, 64] [1, 1, 1, 1] : memref<1x256x1x80xf16, strided<[20480, 80, 80, 1]>, #hivm.address_space<gm>> to memref<64xf16, strided<[1], offset: ?>, #hivm.address_space<gm>>
        %subview_33 = memref.subview %26[%40, 0] [1, 64] [1, 1] : memref<64x64xf16, #hivm.address_space<ub>> to memref<64xf16, strided<[1], offset: ?>, #hivm.address_space<ub>>
        hivm.hir.pipe_barrier[<PIPE_MTE2>]
        hivm.hir.load ins(%subview_32 : memref<64xf16, strided<[1], offset: ?>, #hivm.address_space<gm>>) outs(%subview_33 : memref<64xf16, strided<[1], offset: ?>, #hivm.address_space<ub>>) init_out_buffer = false may_implicit_transpose_with_last_axis = false
        %subview_34 = memref.subview %reinterpret_cast_3[0, %42, 0, 64] [1, 1, 1, 16] [1, 1, 1, 1] : memref<1x256x1x80xf16, strided<[20480, 80, 80, 1]>, #hivm.address_space<gm>> to memref<16xf16, strided<[1], offset: ?>, #hivm.address_space<gm>>
        %subview_35 = memref.subview %27[%40, 0] [1, 16] [1, 1] : memref<64x16xf16, #hivm.address_space<ub>> to memref<16xf16, strided<[1], offset: ?>, #hivm.address_space<ub>>
        hivm.hir.load ins(%subview_34 : memref<16xf16, strided<[1], offset: ?>, #hivm.address_space<gm>>) outs(%subview_35 : memref<16xf16, strided<[1], offset: ?>, #hivm.address_space<ub>>) init_out_buffer = false may_implicit_transpose_with_last_axis = false
      }
      hivm.hir.set_flag[<PIPE_S>, <PIPE_MTE2>, <EVENT_ID0>]
      hivm.hir.set_flag[<PIPE_MTE2>, <PIPE_MTE3>, <EVENT_ID0>]
      hivm.hir.sync_block_wait[<VECTOR>, <PIPE_MTE2>, <PIPE_S>] flag = 2
      hivm.hir.wait_flag[<PIPE_MTE2>, <PIPE_MTE3>, <EVENT_ID0>]
      scf.if %11 {
        %collapse_shape_32 = memref.collapse_shape %26 [[0, 1]] : memref<64x64xf16, #hivm.address_space<ub>> into memref<4096xf16, #hivm.address_space<ub>>
        %collapse_shape_33 = memref.collapse_shape %view_8 [[0, 1]] : memref<64x64xf16, #hivm.address_space<gm>> into memref<4096xf16, #hivm.address_space<gm>>
        hivm.hir.store ins(%collapse_shape_32 : memref<4096xf16, #hivm.address_space<ub>>) outs(%collapse_shape_33 : memref<4096xf16, #hivm.address_space<gm>>)
      }
      annotation.mark %view_8 : memref<64x64xf16, #hivm.address_space<gm>>
      hivm.hir.sync_block_set[<VECTOR>, <PIPE_MTE3>, <PIPE_S>] flag = 1 ffts_base_addr = %arg0
      hivm.hir.sync_block_wait[<VECTOR>, <PIPE_MTE2>, <PIPE_S>] flag = 3
      scf.if %11 {
        %collapse_shape_32 = memref.collapse_shape %27 [[0, 1]] : memref<64x16xf16, #hivm.address_space<ub>> into memref<1024xf16, #hivm.address_space<ub>>
        %collapse_shape_33 = memref.collapse_shape %view_9 [[0, 1]] : memref<64x16xf16, #hivm.address_space<gm>> into memref<1024xf16, #hivm.address_space<gm>>
        hivm.hir.store ins(%collapse_shape_32 : memref<1024xf16, #hivm.address_space<ub>>) outs(%collapse_shape_33 : memref<1024xf16, #hivm.address_space<gm>>)
      }
      annotation.mark %view_9 : memref<64x16xf16, #hivm.address_space<gm>>
      hivm.hir.sync_block_set[<VECTOR>, <PIPE_MTE3>, <PIPE_S>] flag = 1 ffts_base_addr = %arg0
      hivm.hir.sync_block_wait[<VECTOR>, <PIPE_MTE2>, <PIPE_S>] flag = 4
      scf.if %11 {
        %collapse_shape_32 = memref.collapse_shape %26 [[0, 1]] : memref<64x64xf16, #hivm.address_space<ub>> into memref<4096xf16, #hivm.address_space<ub>>
        %collapse_shape_33 = memref.collapse_shape %view_10 [[0, 1]] : memref<64x64xf16, #hivm.address_space<gm>> into memref<4096xf16, #hivm.address_space<gm>>
        hivm.hir.store ins(%collapse_shape_32 : memref<4096xf16, #hivm.address_space<ub>>) outs(%collapse_shape_33 : memref<4096xf16, #hivm.address_space<gm>>)
      }
      hivm.hir.set_flag[<PIPE_MTE3>, <PIPE_MTE2>, <EVENT_ID0>]
      annotation.mark %view_10 : memref<64x64xf16, #hivm.address_space<gm>>
      hivm.hir.sync_block_set[<VECTOR>, <PIPE_MTE3>, <PIPE_S>] flag = 1 ffts_base_addr = %arg0
      hivm.hir.sync_block_wait[<VECTOR>, <PIPE_FIX>, <PIPE_S>] flag = 1
      %28 = hivm.hir.pointer_cast(%c60160_i64) : memref<64x64xf32, #hivm.address_space<ub>>
      %collapse_shape_19 = memref.collapse_shape %view_11 [[0, 1]] : memref<64x64xf32, #hivm.address_space<gm>> into memref<4096xf32, #hivm.address_space<gm>>
      %collapse_shape_20 = memref.collapse_shape %28 [[0, 1]] : memref<64x64xf32, #hivm.address_space<ub>> into memref<4096xf32, #hivm.address_space<ub>>
      hivm.hir.wait_flag[<PIPE_V>, <PIPE_MTE2>, <EVENT_ID0>]
      hivm.hir.load ins(%collapse_shape_19 : memref<4096xf32, #hivm.address_space<gm>>) outs(%collapse_shape_20 : memref<4096xf32, #hivm.address_space<ub>>) init_out_buffer = false may_implicit_transpose_with_last_axis = false
      hivm.hir.set_flag[<PIPE_MTE2>, <PIPE_V>, <EVENT_ID0>]
      hivm.hir.sync_block_set[<VECTOR>, <PIPE_MTE2>, <PIPE_S>] flag = 5 ffts_base_addr = %arg0
      hivm.hir.wait_flag[<PIPE_MTE2>, <PIPE_V>, <EVENT_ID0>]
      hivm.hir.pipe_barrier[<PIPE_V>]
      hivm.hir.vmul ins(%collapse_shape_20, %collapse_shape_7 : memref<4096xf32, #hivm.address_space<ub>>, memref<4096xf32, #hivm.address_space<ub>>) outs(%collapse_shape_20 : memref<4096xf32, #hivm.address_space<ub>>)
      %29 = hivm.hir.pointer_cast(%c76544_i64) : memref<64x1xf32, #hivm.address_space<ub>>
      hivm.hir.pipe_barrier[<PIPE_V>]
      hivm.hir.vreduce <max> ins(%28 : memref<64x64xf32, #hivm.address_space<ub>>) outs(%29 : memref<64x1xf32, #hivm.address_space<ub>>) reduce_dims = [1]
      %30 = hivm.hir.pointer_cast(%c76544_i64) : memref<64x1xf32, #hivm.address_space<ub>>
      %collapse_shape_21 = memref.collapse_shape %29 [[0, 1]] : memref<64x1xf32, #hivm.address_space<ub>> into memref<64xf32, #hivm.address_space<ub>>
      %collapse_shape_22 = memref.collapse_shape %30 [[0, 1]] : memref<64x1xf32, #hivm.address_space<ub>> into memref<64xf32, #hivm.address_space<ub>>
      hivm.hir.pipe_barrier[<PIPE_V>]
      hivm.hir.vmax ins(%collapse_shape_6, %collapse_shape_21 : memref<64xf32, #hivm.address_space<ub>>, memref<64xf32, #hivm.address_space<ub>>) outs(%collapse_shape_22 : memref<64xf32, #hivm.address_space<ub>>)
      %31 = hivm.hir.pointer_cast(%c76800_i64) : memref<64x1xf32, #hivm.address_space<ub>>
      %collapse_shape_23 = memref.collapse_shape %31 [[0, 1]] : memref<64x1xf32, #hivm.address_space<ub>> into memref<64xf32, #hivm.address_space<ub>>
      hivm.hir.pipe_barrier[<PIPE_V>]
      hivm.hir.vsub ins(%collapse_shape_6, %collapse_shape_22 : memref<64xf32, #hivm.address_space<ub>>, memref<64xf32, #hivm.address_space<ub>>) outs(%collapse_shape_23 : memref<64xf32, #hivm.address_space<ub>>)
      %32 = hivm.hir.pointer_cast(%c77056_i64) : memref<64x1xf32, #hivm.address_space<ub>>
      %collapse_shape_24 = memref.collapse_shape %32 [[0, 1]] : memref<64x1xf32, #hivm.address_space<ub>> into memref<64xf32, #hivm.address_space<ub>>
      hivm.hir.pipe_barrier[<PIPE_V>]
      hivm.hir.vexp ins(%collapse_shape_23 : memref<64xf32, #hivm.address_space<ub>>) outs(%collapse_shape_24 : memref<64xf32, #hivm.address_space<ub>>)
      %33 = hivm.hir.pointer_cast(%c77312_i64) : memref<64x64xf32, #hivm.address_space<ub>>
      %34 = hivm.hir.pointer_cast(%c93696_i64) : memref<512xf32, #hivm.address_space<ub>>
      hivm.hir.vsub ins(%28, %30 : memref<64x64xf32, #hivm.address_space<ub>>, memref<64x1xf32, #hivm.address_space<ub>>) outs(%33 : memref<64x64xf32, #hivm.address_space<ub>>) temp_buffer(%34 : memref<512xf32, #hivm.address_space<ub>>) broadcast = [1]
      %collapse_shape_25 = memref.collapse_shape %33 [[0, 1]] : memref<64x64xf32, #hivm.address_space<ub>> into memref<4096xf32, #hivm.address_space<ub>>
      hivm.hir.pipe_barrier[<PIPE_V>]
      hivm.hir.vexp ins(%collapse_shape_25 : memref<4096xf32, #hivm.address_space<ub>>) outs(%collapse_shape_20 : memref<4096xf32, #hivm.address_space<ub>>)
      %35 = hivm.hir.pointer_cast(%c95744_i64) : memref<64x1xf32, #hivm.address_space<ub>>
      hivm.hir.pipe_barrier[<PIPE_V>]
      hivm.hir.vreduce <sum> ins(%28 : memref<64x64xf32, #hivm.address_space<ub>>) outs(%35 : memref<64x1xf32, #hivm.address_space<ub>>) reduce_dims = [1]
      hivm.hir.vmul ins(%collapse_shape_5, %collapse_shape_24 : memref<64xf32, #hivm.address_space<ub>>, memref<64xf32, #hivm.address_space<ub>>) outs(%collapse_shape_5 : memref<64xf32, #hivm.address_space<ub>>)
      %collapse_shape_26 = memref.collapse_shape %35 [[0, 1]] : memref<64x1xf32, #hivm.address_space<ub>> into memref<64xf32, #hivm.address_space<ub>>
      hivm.hir.pipe_barrier[<PIPE_V>]
      hivm.hir.vadd ins(%collapse_shape_5, %collapse_shape_26 : memref<64xf32, #hivm.address_space<ub>>, memref<64xf32, #hivm.address_space<ub>>) outs(%collapse_shape_5 : memref<64xf32, #hivm.address_space<ub>>)
      %36 = hivm.hir.pointer_cast(%c96000_i64) : memref<512xf32, #hivm.address_space<ub>>
      hivm.hir.vmul ins(%arg12, %32 : memref<64x64xf32, #hivm.address_space<ub>>, memref<64x1xf32, #hivm.address_space<ub>>) outs(%arg12 : memref<64x64xf32, #hivm.address_space<ub>>) temp_buffer(%36 : memref<512xf32, #hivm.address_space<ub>>) broadcast = [1]
      %37 = hivm.hir.pointer_cast(%c98048_i64) : memref<64x64xf16, #hivm.address_space<ub>>
      %collapse_shape_27 = memref.collapse_shape %37 [[0, 1]] : memref<64x64xf16, #hivm.address_space<ub>> into memref<4096xf16, #hivm.address_space<ub>>
      hivm.hir.wait_flag[<PIPE_MTE3>, <PIPE_V>, <EVENT_ID0>]
      hivm.hir.vcast ins(%collapse_shape_20 : memref<4096xf32, #hivm.address_space<ub>>) outs(%collapse_shape_27 : memref<4096xf16, #hivm.address_space<ub>>)
      hivm.hir.set_flag[<PIPE_V>, <PIPE_MTE3>, <EVENT_ID1>]
      hivm.hir.sync_block_wait[<VECTOR>, <PIPE_MTE2>, <PIPE_S>] flag = 6
      hivm.hir.wait_flag[<PIPE_V>, <PIPE_MTE3>, <EVENT_ID1>]
      scf.if %11 {
        %collapse_shape_32 = memref.collapse_shape %view_12 [[0, 1]] : memref<64x64xf16, #hivm.address_space<gm>> into memref<4096xf16, #hivm.address_space<gm>>
        hivm.hir.store ins(%collapse_shape_27 : memref<4096xf16, #hivm.address_space<ub>>) outs(%collapse_shape_32 : memref<4096xf16, #hivm.address_space<gm>>)
      }
      hivm.hir.set_flag[<PIPE_MTE3>, <PIPE_V>, <EVENT_ID0>]
      annotation.mark %view_12 : memref<64x64xf16, #hivm.address_space<gm>>
      hivm.hir.sync_block_set[<VECTOR>, <PIPE_MTE3>, <PIPE_S>] flag = 1 ffts_base_addr = %arg0
      hivm.hir.vbrc ins(%cst_1 : f32) outs(%collapse_shape_23 : memref<64xf32, #hivm.address_space<ub>>)
      hivm.hir.pipe_barrier[<PIPE_V>]
      hivm.hir.vadd ins(%collapse_shape_23, %collapse_shape_22 : memref<64xf32, #hivm.address_space<ub>>, memref<64xf32, #hivm.address_space<ub>>) outs(%collapse_shape_6 : memref<64xf32, #hivm.address_space<ub>>)
      hivm.hir.sync_block_wait[<VECTOR>, <PIPE_FIX>, <PIPE_S>] flag = 1
      %38 = hivm.hir.pointer_cast(%c106240_i64) : memref<64x64xf32, #hivm.address_space<ub>>
      %collapse_shape_28 = memref.collapse_shape %view_13 [[0, 1]] : memref<64x64xf32, #hivm.address_space<gm>> into memref<4096xf32, #hivm.address_space<gm>>
      %collapse_shape_29 = memref.collapse_shape %38 [[0, 1]] : memref<64x64xf32, #hivm.address_space<ub>> into memref<4096xf32, #hivm.address_space<ub>>
      hivm.hir.load ins(%collapse_shape_28 : memref<4096xf32, #hivm.address_space<gm>>) outs(%collapse_shape_29 : memref<4096xf32, #hivm.address_space<ub>>) init_out_buffer = false may_implicit_transpose_with_last_axis = false
      hivm.hir.set_flag[<PIPE_MTE2>, <PIPE_V>, <EVENT_ID1>]
      hivm.hir.sync_block_set[<VECTOR>, <PIPE_MTE2>, <PIPE_S>] flag = 7 ffts_base_addr = %arg0
      %39 = hivm.hir.pointer_cast(%c0_i64) : memref<64x64xf32, #hivm.address_space<ub>>
      %collapse_shape_30 = memref.collapse_shape %arg12 [[0, 1]] : memref<64x64xf32, #hivm.address_space<ub>> into memref<4096xf32, #hivm.address_space<ub>>
      %collapse_shape_31 = memref.collapse_shape %39 [[0, 1]] : memref<64x64xf32, #hivm.address_space<ub>> into memref<4096xf32, #hivm.address_space<ub>>
      hivm.hir.wait_flag[<PIPE_MTE2>, <PIPE_V>, <EVENT_ID1>]
      hivm.hir.vadd ins(%collapse_shape_29, %collapse_shape_30 : memref<4096xf32, #hivm.address_space<ub>>, memref<4096xf32, #hivm.address_space<ub>>) outs(%collapse_shape_31 : memref<4096xf32, #hivm.address_space<ub>>)
      hivm.hir.wait_flag[<PIPE_MTE3>, <PIPE_V>, <EVENT_ID1>]
      hivm.hir.copy ins(%28 : memref<64x64xf32, #hivm.address_space<ub>>) outs(%18 : memref<64x64xf32, #hivm.address_space<ub>>)
      hivm.hir.set_flag[<PIPE_V>, <PIPE_MTE2>, <EVENT_ID0>]
      hivm.hir.set_flag[<PIPE_V>, <PIPE_MTE3>, <EVENT_ID0>]
      scf.yield %39 : memref<64x64xf32, #hivm.address_space<ub>>
    }
    %20 = hivm.hir.pointer_cast(%c122624_i64) : memref<512xf32, #hivm.address_space<ub>>
    hivm.hir.pipe_barrier[<PIPE_V>]
    hivm.hir.pipe_barrier[<PIPE_V>]
    hivm.hir.vdiv ins(%19, %3 : memref<64x64xf32, #hivm.address_space<ub>>, memref<64x1xf32, #hivm.address_space<ub>>) outs(%19 : memref<64x64xf32, #hivm.address_space<ub>>) temp_buffer(%20 : memref<512xf32, #hivm.address_space<ub>>) broadcast = [1]
    %21 = hivm.hir.pointer_cast(%c124672_i64) : memref<64x64xf16, #hivm.address_space<ub>>
    %collapse_shape_14 = memref.collapse_shape %19 [[0, 1]] : memref<64x64xf32, #hivm.address_space<ub>> into memref<4096xf32, #hivm.address_space<ub>>
    %collapse_shape_15 = memref.collapse_shape %21 [[0, 1]] : memref<64x64xf16, #hivm.address_space<ub>> into memref<4096xf16, #hivm.address_space<ub>>
    hivm.hir.pipe_barrier[<PIPE_V>]
    hivm.hir.vcast ins(%collapse_shape_14 : memref<4096xf32, #hivm.address_space<ub>>) outs(%collapse_shape_15 : memref<4096xf16, #hivm.address_space<ub>>)
    hivm.hir.set_flag[<PIPE_V>, <PIPE_MTE3>, <EVENT_ID2>]
    %subview = memref.subview %reinterpret_cast_4[0, 0, 0, 0] [1, 1, 64, 64] [1, 1, 1, 1] : memref<1x1x64x64xf16, strided<[4096, 4096, 64, 1]>, #hivm.address_space<gm>> to memref<64x64xf16, strided<[64, 1]>, #hivm.address_space<gm>>
    hivm.hir.wait_flag[<PIPE_V>, <PIPE_MTE3>, <EVENT_ID2>]
    scf.if %11 {
      %collapse_shape_18 = memref.collapse_shape %subview [[0, 1]] : memref<64x64xf16, strided<[64, 1]>, #hivm.address_space<gm>> into memref<4096xf16, strided<[1]>, #hivm.address_space<gm>>
      hivm.hir.store ins(%collapse_shape_15 : memref<4096xf16, #hivm.address_space<ub>>) outs(%collapse_shape_18 : memref<4096xf16, strided<[1]>, #hivm.address_space<gm>>)
    } {limit_sub_block_id0}
    %22 = hivm.hir.pointer_cast(%c16384_i64) : memref<64x1xf32, #hivm.address_space<ub>>
    %collapse_shape_16 = memref.collapse_shape %22 [[0, 1]] : memref<64x1xf32, #hivm.address_space<ub>> into memref<64xf32, #hivm.address_space<ub>>
    hivm.hir.vln ins(%collapse_shape_5 : memref<64xf32, #hivm.address_space<ub>>) outs(%collapse_shape_16 : memref<64xf32, #hivm.address_space<ub>>)
    hivm.hir.pipe_barrier[<PIPE_V>]
    hivm.hir.vadd ins(%collapse_shape_16, %collapse_shape_6 : memref<64xf32, #hivm.address_space<ub>>, memref<64xf32, #hivm.address_space<ub>>) outs(%collapse_shape_16 : memref<64xf32, #hivm.address_space<ub>>)
    hivm.hir.set_flag[<PIPE_V>, <PIPE_MTE3>, <EVENT_ID3>]
    %subview_17 = memref.subview %reinterpret_cast_2[0, 0, 0, 0] [1, 1, 64, 1] [1, 1, 1, 1] : memref<1x1x64x1xf32, strided<[64, 64, 1, 1]>, #hivm.address_space<gm>> to memref<64x1xf32, strided<[1, 1]>, #hivm.address_space<gm>>
    hivm.hir.wait_flag[<PIPE_V>, <PIPE_MTE3>, <EVENT_ID3>]
    scf.if %11 {
      %collapse_shape_18 = memref.collapse_shape %subview_17 [[0, 1]] : memref<64x1xf32, strided<[1, 1]>, #hivm.address_space<gm>> into memref<64xf32, strided<[1]>, #hivm.address_space<gm>>
      hivm.hir.store ins(%collapse_shape_16 : memref<64xf32, #hivm.address_space<ub>>) outs(%collapse_shape_18 : memref<64xf32, strided<[1]>, #hivm.address_space<gm>>)
    } {limit_sub_block_id0}
    hivm.hir.pipe_barrier[<PIPE_ALL>]
    hivm.hir.wait_flag[<PIPE_V>, <PIPE_MTE3>, <EVENT_ID0>]
    hivm.hir.wait_flag[<PIPE_S>, <PIPE_MTE2>, <EVENT_ID0>]
    hivm.hir.wait_flag[<PIPE_MTE3>, <PIPE_MTE2>, <EVENT_ID0>]
    hivm.hir.wait_flag[<PIPE_V>, <PIPE_MTE2>, <EVENT_ID0>]
    hivm.hir.wait_flag[<PIPE_MTE3>, <PIPE_V>, <EVENT_ID0>]
    hivm.hir.sync_block_wait[<VECTOR>, <PIPE_MTE2>, <PIPE_S>] flag = 0
    hivm.hir.sync_block_wait[<VECTOR>, <PIPE_MTE2>, <PIPE_S>] flag = 2
    hivm.hir.sync_block_wait[<VECTOR>, <PIPE_MTE2>, <PIPE_S>] flag = 3
    hivm.hir.sync_block_wait[<VECTOR>, <PIPE_MTE2>, <PIPE_S>] flag = 4
    hivm.hir.sync_block_wait[<VECTOR>, <PIPE_MTE2>, <PIPE_S>] flag = 6
    return
  }
}


